models/model_hgpsl_pool.pt (torch, 81803 bytes, 14 tensors)

conv1.bias f4 [64]
0	0x3d18f2a0	0.03734076
1	0x3cc6db61	0.02427453
2	0x3cb72ffb	0.022361746
3	0xbc0c80bb	-0.008575614
4	0xbbb98b35	-0.0056623467
5	0x3cefdb33	0.029279327
6	0x3d16cbc7	0.03681543
7	0x3a8d7d9a	0.0010794878
8	0x00000000	0.0
9	0x3c949874	0.018139102
10	0x3cc0a726	0.023517203
11	0x00000000	0.0
12	0x3d668196	0.056275927
13	0xbbaf1a15	-0.0053436854
14	0x3d24012b	0.040040176
15	0x3cd5ce2b	0.026099285
16	0x3cf7ba4e	0.030240204
17	0x3d5e7b2e	0.054316692
18	0xbb1077ca	-0.0022044056
19	0xbb25c422	-0.0025293906
20	0x3cc0f904	0.02355624
21	0x3bed982e	0.0072508072
22	0x3cae85cb	0.021304032
23	0xbc523f66	-0.012832498
24	0x00000000	0.0
25	0x3cab8fcb	0.02094259
26	0x00000000	0.0
27	0x3d37ab99	0.044841383
28	0xbb8fb19f	-0.0043851878
29	0x3c9c7356	0.019097965
30	0xbb16a2a3	-0.0022985123
31	0x3cec83c9	0.028871434
32	0x3d658a05	0.05603983
33	0x3d7b45cc	0.06134586
34	0x3d3c9ec0	0.046049833
35	0xbc2f9645	-0.010716979
36	0x3d2331ac	0.039842293
37	0xbbbec2e0	-0.0058215708
38	0xba8b58cd	-0.0010631323
39	0x3c3a0ed6	0.011356076
40	0x3d9176fb	0.07102772
41	0x3cde76e8	0.027156308
42	0x3dabc5ac	0.08387312
43	0x3d66a92b	0.056313675
44	0x3d8f3dd2	0.06994213
45	0x3beb00cd	0.0071717263
46	0x3c5d5591	0.01350917
47	0x3c56cb03	0.013109925
48	0x3d135eae	0.035978965
49	0xbb8ed688	-0.00435907
50	0x3d00517c	0.03132771
51	0x3d176586	0.036962055
52	0x3d8574bf	0.06516408
53	0x3cb89d37	0.022535903
54	0x3b80befc	0.003929017
55	0x3d1363c6	0.035983823
56	0x00000000	0.0
57	0x3c85f46b	0.0163519
58	0x00000000	0.0
59	0x3d84eade	0.0649011
60	0x3cb722a9	0.022355394
61	0x3b275100	0.0025530457
62	0x00000000	0.0
63	0x3cceeadd	0.025258476

conv1.lin.weight f4 [64, 3]
0	0xbd1e389a	-0.0386282
1	0x3e9a7bac	0.3017248
2	0xbd3070e9	-0.04307643
3	0x3e38d92d	0.18051596
4	0xbe6d4818	-0.23172033
5	0x3d5f2807	0.054481532
6	0xbb763dd8	-0.0037573483
7	0x3e5fa970	0.21841979
8	0xbd9fb369	-0.07797892
9	0x3e86c8e4	0.26325142
10	0x3e390b31	0.18070675
11	0x3cfdd950	0.030987412
12	0xbd072348	-0.03299263
13	0x3ea257f3	0.31707725
14	0x3e51a98e	0.20474836
15	0xbea86440	-0.32888985
16	0x3e3023c0	0.17201138
17	0x3d82ed61	0.06392933
18	0xbe830917	-0.25592873
19	0x3de2eb0c	0.11079988
20	0xbe875d2b	-0.2643827
21	0xbd483d45	-0.048886556
22	0x3e8906fe	0.26763147
23	0x3cb2f243	0.021844035
24	0xbe84049c	-0.25784767
25	0xbc84c5ff	-0.016207693
26	0xbe61f830	-0.22067332
27	0xbc32c79f	-0.010911851
28	0x3e9a2e22	0.30113322
29	0xbdb78372	-0.08960618
30	0x3dbcae56	0.092129394
31	0xbdcb2c86	-0.099206015
32	0x3e91b888	0.284611
33	0xbe8fd1c7	-0.28089735
34	0xbe7fe5e2	-0.24990037
35	0xbd84196c	-0.06450161
36	0x3e88ccf1	0.26718858
37	0xbe4f6ca2	-0.20256284
38	0xbdd9f68d	-0.10642729
39	0x3d275973	0.04085679
40	0x3e1d23c6	0.15345678
41	0x3cdc9a29	0.026928978
42	0x3ea813f6	0.3282773
43	0xbe804aaa	-0.25056964
44	0xbd0e5f0f	-0.034758624
45	0x3e3bfeb0	0.18358874
46	0xbdcead90	-0.10091698
47	0xbe5367af	-0.20645021
48	0x3e4a4d4c	0.19756049
49	0xbdb70aaa	-0.08937581
50	0xbc8b0a26	-0.016972613
51	0x3e73c75c	0.23806518
52	0xbeb32fbd	-0.3499736
53	0x3cba9343	0.022775298
54	0x3e4a9236	0.19782338
55	0x3e72f142	0.23724845
56	0x3e8df335	0.27724615
57	0x3de156e3	0.110029005
58	0x3e8438c0	0.25824547
59	0x3dfa9d92	0.122370854
60	0x3e439d23	0.19102912
61	0x3df40081	0.119141586
62	0x3e762a36	0.2403954
63	0x3e8c0d54	0.2735392
64	0xbd42e23f	-0.047579046
65	0xbcfdf6b5	-0.031001428
66	0x3e916006	0.28393573
67	0xbaf3616e	-0.0018568465
68	0x3d2512b5	0.040301044
69	0xbc104a96	-0.008806845
70	0x3e1cd3e2	0.15315202
71	0x3c97e8da	0.01854365
72	0xbe90e0c8	-0.28296494
73	0xbe2a6e9c	-0.16643757
74	0xbe2e8647	-0.1704341
75	0xbe4dd762	-0.20101693
76	0x3e71f4a2	0.23628476
77	0x3e1315f9	0.1436385
78	0xbdbbfeaa	-0.09179433
79	0xbd9ee0f1	-0.07757748
80	0xbe8353ae	-0.2564978
81	0xbd69fb52	-0.057124443
82	0xbddb9dea	-0.10723479
83	0x3de50eac	0.11184439
84	0x3c9e325a	0.019311119
85	0x3de5ce16	0.112209484
86	0xbe31a84e	-0.1734936
87	0x3e3c9003	0.18414311
88	0xbdfc59ec	-0.12321839
89	0xbe2ac1cd	-0.16675492
90	0xbd99f932	-0.07518233
91	0x3e6379fb	0.222145
92	0xbd67bccf	-0.056576546
93	0xbcc4cda1	-0.024023833
94	0x3e5c5125	0.21515329
95	0xbe106c53	-0.14103822
96	0xbc20a590	-0.009805098
97	0xbe670775	-0.22561438
98	0x3dce7a6b	0.10081943
99	0xbe6ed65e	-0.23323962
100	0xbe072fc5	-0.13201816
101	0x3e1e7daa	0.15477625
102	0xbe8d26fc	-0.27568805
103	0x3eb1d940	0.3473606
104	0x3d8a56a8	0.067548096
105	0xbe18f899	-0.14938582
106	0x3be7f374	0.0070785824
107	0xbe875f94	-0.26440108
108	0x3e38b7ed	0.18038912
109	0xbe4d28e9	-0.20035137
110	0x3b19a2f2	0.002344307
111	0x3dd3451a	0.103159145
112	0xbdf08be6	-0.117454335
113	0xbe98ac10	-0.29818773
114	0x3d2be320	0.04196465
115	0x3e8da24e	0.2766289
116	0x3e35fc8b	0.17772119
117	0x3d85644d	0.065132715
118	0xbe285c74	-0.16441518
119	0x3eb19491	0.3468366
120	0xbe7dc6ab	-0.24782817
121	0x3ea5f339	0.32412127
122	0xbe18627b	-0.14881317
123	0x3e2dcf09	0.16973509
124	0x3e9606f6	0.29302186
125	0x3e72882e	0.23684761
126	0xbe81e833	-0.25372466
127	0xbe526cc6	-0.20549306
128	0x3e327354	0.17426807
129	0xba394e58	-0.0007068864
130	0xbe2af246	-0.16693982
131	0x3e028d43	0.127492
132	0xbe405ea9	-0.1878611
133	0xbe328ccb	-0.17436521
134	0x3e7a88b3	0.24466209
135	0xbb71acf1	-0.0036876763
136	0x3e40e199	0.18836059
137	0x3e42e752	0.19033554
138	0xbd25dc8d	-0.040493537
139	0x3e9bba47	0.30415556
140	0xbce9d6e6	-0.028544854
141	0xbe8425e7	-0.25810167
142	0x3e5c813b	0.21533673
143	0x3d8ac79c	0.06776354
144	0x3e010838	0.12600791
145	0xbe4b2519	-0.1983837
146	0xbdc158e6	-0.09440784
147	0xbd557915	-0.052117426
148	0x3e33ed3a	0.17570964
149	0xbd1b2c7b	-0.037884217
150	0xbdb16e12	-0.08663572
151	0x3d3e1096	0.046402536
152	0x3e9f0801	0.31060794
153	0xbc9ee791	-0.019397529
154	0x3e68847d	0.2270679
155	0xbe1a6a19	-0.15079536
156	0xbd998d67	-0.074976735
157	0xbe9225d9	-0.285445
158	0x3e43b9dd	0.1911387
159	0xbe9430ef	-0.28943583
160	0x3e038228	0.1284262
161	0x3e85c975	0.26130262
162	0xbcb0497d	-0.021519417
163	0x3e9247dd	0.28570452
164	0xbaf04ead	-0.0018333994
165	0x3e7c64ac	0.24647778
166	0xbe4fd4e5	-0.20296057
167	0x3d9f98ee	0.07792841
168	0xbe826e5a	-0.25474817
169	0xbd4c07cc	-0.049812123
170	0xb79432bc	-1.76666e-05
171	0x3d47bd53	0.048764538
172	0x3e0ad122	0.1355634
173	0xbd80818e	-0.062747106
174	0xbca558de	-0.020183977
175	0xbe7279a9	-0.23679222
176	0xbdc62b25	-0.09676198
177	0xbe23d3b6	-0.1599873
178	0x3eb5a0c9	0.35474232
179	0xbde0b52b	-0.10972055
180	0x3e75f834	0.24020463
181	0xbe59a045	-0.21252544
182	0x3eb0a1a8	0.34498334
183	0xbb74970b	-0.0037321474
184	0x3e132893	0.14370947
185	0x3e9ce532	0.30643612
186	0xbe33d640	-0.17562199
187	0xbe01cc5a	-0.1267561
188	0xbde9a84a	-0.11409052
189	0xbe59c8dd	-0.2126803
190	0x3e82dd04	0.25559247
191	0x3c5376b8	0.012906723

conv2.weight f4 [64, 64]
0	0xbe00ef72	-0.12591341
1	0x3d599df3	0.053129148
2	0x3d5cacfd	0.053875912
3	0x3e323dba	0.1740636
4	0x3e053649	0.1300899
5	0x3e2bfbcf	0.16795276
6	0x3e6bf39b	0.23042147
7	0xbdc73d8c	-0.09728536
8	0x3dd5ed02	0.10445596
9	0x3bd9488b	0.0066309622
10	0x3e07cd36	0.13261876
11	0x3c9abd7b	0.01888918
12	0x3df42276	0.119206354
13	0xbe291b58	-0.16514337
14	0xbc2178a9	-0.009855428
15	0xbdab4a41	-0.08363772
16	0xbe6e7bd0	-0.23289418
17	0xbe44b98e	-0.19211408
18	0x3e4abecd	0.19799347
19	0xbd858511	-0.06519521
20	0xbbc39083	-0.005968155
21	0xbdf2b0cb	-0.11850127
22	0xbe3334ee	-0.1750066
23	0x3e0b0c9e	0.13579032
24	0x3d1d2315	0.038363535
25	0x3e561db1	0.20909764
26	0xbe039c99	-0.12852706
27	0x3d52e9d5	0.05149253
28	0x3db18b69	0.086691685
29	0x3d9181c4	0.07104829
30	0x3dcfe00b	0.10150155
31	0xbb4bec0d	-0.003111604
32	0x3de9d648	0.11417824
33	0x3e07f69c	0.13277668
34	0xbd0d5044	-0.034500375
35	0x3c933ba5	0.017972777
36	0x3d81f277	0.063450746
37	0x3df26fd9	0.118377395
38	0xbc66da03	-0.014090064
39	0xbbfb617d	-0.0076715336
40	0xbcdfd70e	-0.027324226
41	0xbe6d97d7	-0.23202454
42	0x3d389a92	0.045069285
43	0x3df8ac7f	0.12142276
44	0xbccdf796	-0.025142472
45	0x3dcbeb36	0.09956972
46	0x3e0feaf6	0.14054474
47	0xbde2d13f	-0.11075067
48	0x3e3c4be2	0.18388322
49	0xbe4e3005	-0.20135505
50	0x3d906e3c	0.070522755
51	0xbcea1cb8	-0.028578147
52	0xbbd3e7c7	-0.006466839
53	0xbc8688cc	-0.016422652
54	0xbe36edd6	-0.17864165
55	0xbcd8e5f4	-0.026476838
56	0xbe4b28f7	-0.19839846
57	0xbdd88930	-0.105730414
58	0x3ca40ccb	0.020025631
59	0x3e621a63	0.22080378
60	0xbe4c3a18	-0.19944036
61	0x3cb32874	0.021869875
62	0x3da1d923	0.07902744
63	0x3ca14b38	0.019689187
64	0x3e20b34e	0.156934
65	0xbe20160f	-0.15633415
66	0xbdb46011	-0.08807386
67	0xbe053d4a	-0.13011661
68	0x3cca6d7c	0.02471041
69	0xbe0b586d	-0.1360795
70	0xbdaa9ba2	-0.08330466
71	0xbcdcef63	-0.026969617
72	0x3e2131cd	0.15741654
73	0xbc78ece9	-0.0151932025
74	0xbe5cefbf	-0.21575831
75	0x3e409b58	0.18809259
76	0xbe3079b2	-0.17233923
77	0xbd815c2c	-0.063164085
78	0xbd85af90	-0.065276265
79	0x3b608b66	0.0034262775
80	0x3def6029	0.11688263
81	0xbca6cd32	-0.020361517
82	0xbe1bb202	-0.15204623
83	0xbda73261	-0.08163906
84	0xbe8bc579	-0.27299097
85	0x3d86cac5	0.06581644
86	0xbe46896f	-0.19388364
87	0x3d7ca216	0.061678015
88	0xbdd94b81	-0.10610104
89	0xbbd6bd52	-0.0065533305
90	0xbc14bdc7	-0.00907845
91	0xbdd52b14	-0.10408607
92	0x3dc0272c	0.093824714
93	0xbe307eb4	-0.17235833
94	0x3d813ccc	0.06310424
95	0x3d9380d8	0.07202309
96	0x3e81ccdf	0.25351617
97	0x3e833edc	0.25633895
98	0xbd847f9e	-0.064696535
99	0xbe260cae	-0.16215774
100	0xbe78e0b7	-0.24304472
101	0xbddd21ff	-0.107975
102	0xbe389fbb	-0.18029682
103	0xbe63dd1b	-0.22252314
104	0x3d0a7a24	0.03380789
105	0x3df2614d	0.11834965
106	0x3bfd50a7	0.007730562
107	0x3cbaf72e	0.022822943
108	0xbe46b48e	-0.19404814
109	0x3d29efeb	0.04148857
110	0x3dc650a4	0.0968335
111	0x3d1d631d	0.0384246
112	0xbb4a3318	-0.0030853208
113	0x3c95c09e	0.018280324
114	0xbd177fc3	-0.036987077
115	0xbd62cb09	-0.05536941
116	0xbe524b5a	-0.20536557
117	0x3d5b6100	0.053559303
118	0x3dd90805	0.10597233
119	0x3dc42d0f	0.09578907
120	0xbe488fce	-0.19586107
121	0x3da8c2d4	0.082402855
122	0xbe2305fe	-0.15920255
123	0x3cb87979	0.02251886
124	0x3c4269a8	0.011866011
125	0xbe20b28b	-0.15693109
126	0x3e10405a	0.14087048
127	0x3d0566a6	0.032568596
128	0xbd5954e4	-0.053059474
129	0xbe1b5edf	-0.15172909
130	0x3e24d966	0.16098556
131	0x3d9507df	0.07276892
132	0x3e41ac02	0.18913272
133	0xbdd0e119	-0.10199184
134	0x3e4d8b43	0.20072655
135	0xbceb3a8f	-0.028714446
136	0x3d78d526	0.06075015
137	0xbe2779b3	-0.16355018
138	0x3e0fff92	0.14062336
139	0xbe383bbd	-0.17991538
140	0xbe38b15c	-0.18036407
141	0x3e5d3e01	0.21605684
142	0xbe02d286	-0.12775621
143	0x3dc9df73	0.09857073
144	0x3d9348ee	0.071916446
145	0x3e41e64f	0.18935512
146	0xbe521723	-0.20516638
147	0x3e09da23	0.13462119
148	0x3d3ac50d	0.04559808
149	0xbe3cd4f3	-0.18440609
150	0x3d48c178	0.04901263
151	0x3e2aa2d3	0.16663675
152	0x3ba39cc0	0.0049930513
153	0x3e5b511a	0.21417657
154	0x3bfd9c54	0.007739583
155	0x3d13f489	0.03612188
156	0xbd3896bb	-0.045065623
157	0x3e6a16a3	0.22860198
158	0xbcb30671	-0.021853657
159	0xbe24c183	-0.16089444
160	0xbe32dd6a	-0.17467275
161	0x3d19d71a	0.037558652
162	0xbe279b28	-0.16367781
163	0xbc8e75bc	-0.017390124
164	0xbe28c1d4	-0.1648019
165	0x3bdc95ae	0.0067317104
166	0x3de91151	0.11380256
167	0x3e2e57ac	0.17025632
168	0xbe4b9bbe	-0.1988363
169	0x3c295e52	0.010337429
170	0x3e179289	0.14801992
171	0xbc54b662	-0.012982937
172	0xbdc46309	-0.09589202
173	0xbe080f60	-0.13287115
174	0xbe3ee183	-0.18640713
175	0xbe62aaee	-0.22135517
176	0xbd6cc296	-0.05780276
177	0x3d83d237	0.0643658
178	0x3e56fd89	0.20995153
179	0xbe373333	-0.17890625
180	0xbd06b837	-0.032890525
181	0xbe25b3a6	-0.16181812
182	0x3de265f1	0.110546
183	0xbc59dbd5	-0.013297041
184	0xbcc2498b	-0.023716709
185	0x3d683ece	0.05670052
186	0xbd42df52	-0.047576256
187	0xbc3089a1	-0.010775001
188	0x3df9472a	0.121717766
189	0x3dfbcfea	0.12295516
190	0x3dfe695a	0.12422438
191	0xbd733a74	-0.059381917
192	0xbdc656ae	-0.096845016
193	0x3c0e5d10	0.00868918
194	0xbdd2f78a	-0.103011206
195	0xbe2b11bc	-0.16705984
196	0x3d6277b8	0.055289954
197	0x3d837887	0.06419473
198	0xbd44033d	-0.04785465
199	0x3dab9282	0.083775535
200	0xbdd00e4d	-0.10158978
201	0xbda655f7	-0.08121865
202	0xbb90e950	-0.0044223443
203	0xbe184eff	-0.14873885
204	0x3e3f9b14	0.18711501
205	0x3ce3e759	0.027820276
206	0x3e51a661	0.20473625
207	0x3de10a27	0.109882645
208	0x3cc49e34	0.024001218
209	0xbe35fa35	-0.17771228
210	0xbdb36b4c	-0.087607
211	0xbd2a1bf7	-0.041530576
212	0xbe087aa1	-0.13328029
213	0xbdb825fd	-0.08991621
214	0xbe397a79	-0.18113126
215	0xbe01fed4	-0.12694865
216	0xbb2cbf24	-0.0026359046
217	0xbd988b3e	-0.07448433
218	0x3e1b8f99	0.15191497
219	0x3de5db2b	0.112234436
220	0xbe33dc66	-0.17564544
221	0xbd55e495	-0.052219946
222	0x3d1de2b8	0.038546294
223	0xbc0ae923	-0.008478436
224	0xbe360016	-0.1777347
225	0xbd9be716	-0.076124355
226	0xbaf34483	-0.0018559847
227	0x3e1ec46d	0.15504618
228	0x3e48de19	0.19615974
229	0xbde17b05	-0.11009792
230	0xbe078893	-0.13235693
231	0x3d9baf19	0.076017566
232	0x3dd6e40a	0.10492714
233	0x3ddd08bb	0.10792681
234	0x3d295e27	0.041349556
235	0xbe468f32	-0.19390562
236	0x3df7c720	0.12098527
237	0x3d8788e7	0.06617909
238	0xbd3f3ca3	-0.046688687
239	0xbd904dbf	-0.07046079
240	0x3dbc23a5	0.09186486
241	0xbe4b9618	-0.19881475
242	0x3e50fd08	0.20409024
243	0x3e2936fc	0.16524881
244	0xbe334bdc	-0.17509407
245	0x3dac7e0d	0.0842248
246	0x3e5347a1	0.20632793
247	0x3dde4975	0.108538546
248	0xbdcc5a06	-0.09978108
249	0xbd8cb60f	-0.068706624
250	0xbe304982	-0.17215541
251	0xbe087d94	-0.13329154
252	0xbce714e9	-0.028208213
253	0x3e663d52	0.2248433
254	0xbdcff531	-0.101541884
255	0xbd34d9ea	-0.04415313

conv2.bias f4 [64]
0	0x3c7b3d30	0.015334412
1	0x3be3a907	0.00694764
2	0x39ee0808	0.0004540088
3	0x3ba30ee0	0.0049761385
4	0x00000000	0.0
5	0x3bba3a24	0.0056832004
6	0x3c5374ce	0.012906266
7	0x3c93972a	0.018016417
8	0xbb88463f	-0.0041587646
9	0x3ae21ed4	0.0017251619
10	0xbbf1018f	-0.007354922
11	0x3b754353	0.0037424162
12	0x00000000	0.0
13	0x3c2fbe47	0.010726518
14	0x3c4b4845	0.012407367
15	0xba074c54	-0.0005161215
16	0x38e2afdb	0.000108092754
17	0x00000000	0.0
18	0xbb385f9c	-0.002813316
19	0x3d02605f	0.031830188
20	0x3cd15721	0.025554242
21	0xbb6f8360	-0.0036546811
22	0x3ca212ed	0.019784415
23	0x3d0df730	0.034659564
24	0x00000000	0.0
25	0x3bd7a26d	0.006580642
26	0xbb7a0d9b	-0.0038155082
27	0x3d246919	0.04013929
28	0xbb063431	-0.0020477886
29	0x3d0fbcb0	0.035092056
30	0x00000000	0.0
31	0x00000000	0.0
32	0xbaf98f3b	-0.0019039878
33	0x3ce40146	0.027832638
34	0x3c4d6a5b	0.012537564
35	0x3b8cb152	0.004293599
36	0x3c77bb9f	0.015120416
37	0x3ca90846	0.020633828
38	0x3be786c3	0.0070656254
39	0x3c166193	0.009178537
40	0x3c23c435	0.00999551
41	0x3c47a1cf	0.012184574
42	0x3d0fc86c	0.035103247
43	0x00000000	0.0
44	0x00000000	0.0
45	0x3b476452	0.0030424786
46	0x3d4b1bd5	0.04958709
47	0x3c9ddb7e	0.019269701
48	0x3ccaacd6	0.024740618
49	0x3b93afbd	0.0045070336
50	0x3ce0b396	0.027429383
51	0x3b0a8eb8	0.0021142196
52	0x00000000	0.0
53	0x3d1ad0d7	0.03779682
54	0x3d15c53a	0.036565043
55	0x3aa44eb0	0.0012535658
56	0x00000000	0.0
57	0xbb873c29	-0.0041270447
58	0xbb5174fa	-0.0031960593
59	0x3bbf55a3	0.005839066
60	0x3bd0ac06	0.006368163
61	0x3c2d15f1	0.010564313
62	0x3b256407	0.0025236623
63	0xbc8c85f2	-0.017153714

conv3.weight f4 [64, 64]
0	0xbe19dd4c	-0.15025824
1	0x3e087237	0.1332482
2	0x3d37cca7	0.044872906
3	0xbd7cf3b9	-0.06175587
4	0x3e153dcb	0.14574353
5	0x3d0b7758	0.034049362
6	0x3e37eba0	0.17960978
7	0xbd0cf0c2	-0.034409292
8	0xbe659c84	-0.22422987
9	0x3e4f94ac	0.20271558
10	0x3e569c13	0.20957975
11	0xbe54e876	-0.20791802
12	0xbe2e48ee	-0.17020008
13	0x3d03476e	0.032050543
14	0x3ddff88a	0.10936077
15	0x3cee166e	0.02906343
16	0x3e2e1d38	0.17003334
17	0x3e61524c	0.2200405
18	0xbe4b4fa8	-0.19854605
19	0x3d2866c2	0.041113622
20	0xbddb9b48	-0.10722977
21	0xbdec6495	-0.11542622
22	0x3c71425b	0.014725293
23	0xbd2e9b99	-0.04262886
24	0xbd69e58d	-0.057103682
25	0xbbb32217	-0.0054667103
26	0xbe28f937	-0.16501318
27	0x3e00fdee	0.12596866
28	0x3e2e9b59	0.17051448
29	0xbc6ffe6c	-0.014648061
30	0x3dc525ff	0.09626388
31	0x3d711241	0.0588553
32	0xbe007c32	-0.12547377
33	0xbd32cbc1	-0.043651346
34	0xbb9e9028	-0.004838962
35	0x3d6dd5ac	0.0580651
36	0xbe014294	-0.12623054
37	0x3caa7c78	0.020811304
38	0x3e0cd4da	0.13753071
39	0xbd863cc4	-0.06554559
40	0xbbf2789e	-0.0073996326
41	0xbe25219b	-0.161261
42	0x3dee8d77	0.11648076
43	0x3e6a71e6	0.22895011
44	0xbd64b099	-0.05583248
45	0x3e40c03d	0.18823333
46	0x3d41d95f	0.04732644
47	0x3e463f53	0.19360094
48	0xbe3b09a9	-0.18265404
49	0x3e68220d	0.2266924
50	0xbd2963f4	-0.04135509
51	0x3cd2e0ab	0.025741896
52	0xbe1a3325	-0.15058573
53	0xbc997e6b	-0.018737039
54	0x3dfb31f2	0.12265386
55	0xbdc7459e	-0.09730075
56	0xbe1f287e	-0.1554279
57	0xbe562ffb	-0.2091674
58	0x3e446417	0.19178806
59	0xbe0f287d	-0.13980289
60	0x3e36da3f	0.17856692
61	0xbdd7dacb	-0.10539778
62	0x3e5ba73b	0.21450512
63	0xbdb80be2	-0.089866415
64	0x3e337d7f	0.17528342
65	0x3de75e54	0.112972885
66	0xbe41d1de	-0.18927714
67	0x3d7839f9	0.060602162
68	0x3dd6e20e	0.10492335
69	0x3dd8cdd9	0.10586137
70	0x3c9f570e	0.01945069
71	0xbe4ce927	-0.20010816
72	0xbe5af46a	-0.21382299
73	0x3e117d3c	0.1420793
74	0x3dfa6b09	0.122274466
75	0x3debb1ce	0.11508523
76	0x3dee9560	0.11649585
77	0xbcbb1b29	-0.0228401
78	0x3e6ebe71	0.23314835
79	0x3c98047a	0.018556822
80	0x3e522883	0.20523266
81	0x3e599d9c	0.2125153
82	0x3dc729f9	0.097248025
83	0xbe5cd7e1	-0.21566726
84	0xbded0439	-0.11573071
85	0x3d5c7e5d	0.053831447
86	0x3dc4670b	0.095899664
87	0x3e182e89	0.14861502
88	0xbe2902a3	-0.16504912
89	0xbd408151	-0.046998326
90	0xbe23f745	-0.16012295
91	0x3d94275a	0.07234068
92	0xbdabb6fa	-0.083845094
93	0xbd9b8bc7	-0.0759502
94	0x3e1df6d4	0.15426189
95	0xbd6bf32d	-0.057604957
96	0x3e0b16a5	0.13582857
97	0x3e04d97e	0.12973592
98	0x3d662b8f	0.056193884
99	0x3e4e7435	0.20161517
100	0x3e2f7038	0.17132652
101	0x3debdf0b	0.115171514
102	0x3de2bf9e	0.11071704
103	0x3d0ba9c3	0.034097444
104	0xbe07927e	-0.13239476
105	0x3bf6c6e8	0.0075310357
106	0xbdebc374	-0.11511889
107	0xbe346953	-0.17618303
108	0x3e6c152a	0.23054948
109	0x3dec3684	0.115338355
110	0x3d415209	0.047197375
111	0x3c8ee26a	0.017441947
112	0xbe240aa3	-0.16019683
113	0x3e0fa4d2	0.14027718
114	0x3e100344	0.14063746
115	0xbdc17da9	-0.09447796
116	0x3b744000	0.0037269592
117	0x3e6ff82b	0.23434512
118	0x3e38e5d4	0.18056422
119	0xbe06c743	-0.1316195
120	0x3dd7298c	0.10505971
121	0xbe332a4f	-0.17496608
122	0x3e02e939	0.1278428
123	0xbd1a3e46	-0.037657045
124	0xbe6eae30	-0.23308635
125	0xbd84b10a	-0.0647908
126	0xbd893d4a	-0.06701143
127	0x3c9e5c03	0.019330984
128	0x3c307e86	0.010772353
129	0xbdece55d	-0.11567185
130	0x3d6d5a88	0.057947665
131	0xbd85f32a	-0.065405205
132	0x3d9b9a65	0.07597808
133	0xbdccac36	-0.09993784
134	0xbd4cfc41	-0.050045256
135	0x3e0d0cb5	0.13774379
136	0xbbe3590b	-0.006938105
137	0xbd8b0875	-0.067887224
138	0xbcff3e88	-0.031157747
139	0x3e4066e2	0.18789247
140	0x3e203223	0.15644126
141	0xbdf900a2	-0.12158324
142	0xbd28106e	-0.041031294
143	0xbd9c91d9	-0.07645006
144	0xbd9fb163	-0.07797506
145	0xbe1c105f	-0.1524062
146	0xbe5313ca	-0.20613018
147	0xbd9f020e	-0.07764064
148	0xbe2984da	-0.16554585
149	0x3d2b8c93	0.04188211
150	0x3e2b07ed	0.16702242
151	0x3d37f64d	0.044912625
152	0xbe5bac15	-0.21452363
153	0x3da909c7	0.08253818
154	0x3e11f5db	0.14253943
155	0x3d53d242	0.05171419
156	0x3c839c13	0.016065633
157	0x3e29159a	0.16512147
158	0x3db829ad	0.08992324
159	0x3dff3327	0.124609284
160	0x3cdc4e87	0.026892914
161	0xbddfb3f4	-0.10922995
162	0x3d43272e	0.047644787
163	0x3df36480	0.11884403
164	0xbdd5a54e	-0.1043192
165	0x3e4aa4c3	0.19789414
166	0x3dcb5c13	0.09929671
167	0xbe4a0c04	-0.19731146
168	0x3e4abce9	0.19798626
169	0x3d2452fb	0.0401182
170	0xbd933a08	-0.07188803
171	0x3e04f28f	0.12983154
172	0xbdc02ab9	-0.09383149
173	0xbe2fb0ca	-0.17157283
174	0x3d84a472	0.06476678
175	0xbdf0a5bd	-0.11750362
176	0x3d331403	0.043720257
177	0xbe1e7bc7	-0.15476905
178	0x3d3056aa	0.0430514
179	0x3db2bfcf	0.08727991
180	0x3e0b3789	0.13595404
181	0x3e035485	0.1282521
182	0xbe15536c	-0.14582604
183	0xbe5879b5	-0.21140178
184	0x3dd69f09	0.10479552
185	0x3de77474	0.113015085
186	0x3e18993c	0.14902204
187	0xbe2f437c	-0.17115587
188	0xbe36191f	-0.1778302
189	0x3de000a4	0.10937622
190	0x3e076dba	0.13225451
191	0xbd2f49e5	-0.04279508
192	0xbe364276	-0.1779879
193	0x3cc27f94	0.023742475
194	0x3e430f75	0.19048865
195	0xbe0d6c48	-0.13810837
196	0x3ce71c3e	0.02821171
197	0xbe09c18c	-0.13452739
198	0xbe5634c3	-0.20918564
199	0x3dc158dd	0.094407775
200	0xbd9fe7bb	-0.07807871
201	0xbe20d6d4	-0.1570695
202	0x3dd44056	0.103638336
203	0xbd834981	-0.06410504
204	0x3d49141a	0.049091436
205	0xbdd5c00b	-0.1043702
206	0xbdd23ef4	-0.102659136
207	0x3d7ea2a4	0.062166825
208	0x3e151182	0.1455746
209	0xbd78fbc8	-0.060786992
210	0xbe4bae23	-0.19890647
211	0x3df8af8f	0.1214286
212	0x3ce24684	0.027621515
213	0xbe356fb7	-0.17718397
214	0xbd47e982	-0.048806675
215	0xbc92c43c	-0.017915837
216	0x3d000a30	0.031259716
217	0x3e2d4d65	0.16924055
218	0xbd629d5d	-0.055325855
219	0x3e1995d3	0.1499856
220	0xbdefd178	-0.11709875
221	0xbd31b682	-0.043386944
222	0xbe319841	-0.17343237
223	0xbd0fa870	-0.035072744
224	0x3e0dadfc	0.13835901
225	0xbe3f06d7	-0.18654953
226	0x3e1a0e05	0.1504441
227	0xbccea062	-0.02522296
228	0x3e4415cf	0.19148944
229	0xbdfa76e6	-0.12229709
230	0x3de892f2	0.113561526
231	0xbd4fa8cf	-0.050698098
232	0xbe167ea4	-0.14696747
233	0xbd573497	-0.052540388
234	0x3e29758c	0.16548747
235	0x3dc1e090	0.0946666
236	0xbdf6b3e5	-0.12046031
237	0xbd930a52	-0.07179703
238	0x3db28e50	0.0871855
239	0x3e47a02f	0.19494699
240	0x3d8a4e70	0.06753242
241	0xbe0927f6	-0.1339415
242	0x3c62b4ed	0.013837081
243	0xbe011de7	-0.12609063
244	0x3e6da36a	0.23206869
245	0xbdcbecf1	-0.09957302
246	0x3e240da8	0.16020834
247	0xbdb9f4e7	-0.090799145
248	0x3e2e4f93	0.17022543
249	0xbe1bea3b	-0.1522607
250	0x3cfdbf22	0.030974928
251	0xbe51310c	-0.20428866
252	0xbe1069eb	-0.14102904
253	0xbe43cd95	-0.19121392
254	0xbe2ddbf1	-0.16978432
255	0xbd060d4f	-0.032727536

conv3.bias f4 [64]
0	0x3bfc19fc	0.0076935273
1	0x3c71d7e2	0.014760943
2	0xbb8493d8	-0.0040459447
3	0xbc366a68	-0.011133768
4	0x00000000	0.0
5	0xbc658cd0	-0.014010623
6	0x00000000	0.0
7	0x3c6106d2	0.013734536
8	0xbc017eae	-0.007903738
9	0xba68289f	-0.00088561507
10	0x3ceee834	0.029163457
11	0x00000000	0.0
12	0x00000000	0.0
13	0xbb8d381a	-0.0043096663
14	0xbc474bc6	-0.012164062
15	0xbbc4d667	-0.006007004
16	0x3ba1f389	0.0049423617
17	0x3c9b4ac5	0.018956551
18	0xbd14c200	-0.036317825
19	0xbc37746d	-0.011197192
20	0x00000000	0.0
21	0xbb8e9c6b	-0.0043521426
22	0x3aae44fa	0.0013295703
23	0x3ac82c9e	0.0015272086
24	0xbbe23b70	-0.006904058
25	0x3c4f8962	0.012667032
26	0x00000000	0.0
27	0x3b28677a	0.0025696442
28	0x3c35acc3	0.011088553
29	0xbb82f371	-0.0039963056
30	0xbcbc42e0	-0.022981107
31	0x3b5cfeb6	0.0033721155
32	0x3c31c985	0.010851269
33	0x3bd0e509	0.0063749594
34	0xbb91e52d	-0.0044523687
35	0x00000000	0.0
36	0x00000000	0.0
37	0xbb6b4f36	-0.0035905368
38	0xbc09250b	-0.008370648
39	0x3c787819	0.015165352
40	0xbbcc9384	-0.006243171
41	0x3a56777e	0.0008181258
42	0x3cd57cf7	0.026060564
43	0xba95d047	-0.0011429869
44	0x3d2e30de	0.042527072
45	0xbc1a02ce	-0.009400083
46	0xbc8e0f33	-0.017341232
47	0x3ca758b8	0.020428047
48	0x3c8956b5	0.016764978
49	0x3b124b3c	0.0022322675
50	0x3aaf7d53	0.001338879
51	0x00000000	0.0
52	0x3c23a98f	0.009989156
53	0xbb48cc8c	-0.0030639498
54	0x00000000	0.0
55	0x00000000	0.0
56	0xbc0159df	-0.007894962
57	0xbb906c5f	-0.00440745
58	0x00000000	0.0
59	0x00000000	0.0
60	0x3bdaa7d7	0.00667284
61	0xbc38f28f	-0.011288299
62	0x3cef4256	0.029206436
63	0xbc31b83c	-0.010847148

pool1.att f4 [1, 128]
0	0xbc47430c	-0.012161981
1	0x3df83bb7	0.12120765
2	0x3e4312a3	0.19050078
3	0xbe388e29	-0.1802298
4	0xbd26d7ac	-0.040733024
5	0x3e13ff45	0.14452846
6	0xbdcd3f46	-0.10021834
7	0xbe0325a9	-0.12807335
8	0x3e456e50	0.19280362
9	0x3d93249a	0.071847156
10	0x3de00b07	0.10939603
11	0x3c9c8481	0.019106152
12	0xbdcefc37	-0.101067
13	0xbdcd1a6b	-0.100148045
14	0x3e57af94	0.21063071
15	0x3e588d46	0.21147642
16	0x3d7e488b	0.0620809
17	0xbd90951a	-0.07059689
18	0x3e04d1a4	0.12970597
19	0xbe47d5a9	-0.19515099
20	0x3d118031	0.035522643
21	0xbd22fead	-0.03979366
22	0x3dbe8ea1	0.09304548
23	0xbd29dfa3	-0.041473042
24	0x3dfdbb2d	0.123892166
25	0xbd766628	-0.060156018
26	0xbc57ad2f	-0.013163849
27	0x3d040f54	0.03224118
28	0xbe380ebb	-0.17974369
29	0xbbd6b1ef	-0.006551973
30	0x3df3bcab	0.1190122
31	0xbdf1f2d6	-0.118138954
32	0xbc502957	-0.012705169
33	0xbd87cd87	-0.06630998
34	0xbdea37a2	-0.11436392
35	0x3debbd61	0.115107305
36	0xbe5c6d2d	-0.21526022
37	0x3d2b94a8	0.041889817
38	0xbd509f86	-0.050933383
39	0xbd9d487d	-0.07679842
40	0x3dface54	0.12246385
41	0x3d7c2850	0.061561882
42	0x3db6dea1	0.08929182
43	0x3d30960f	0.043111857
44	0x3dde390e	0.10850726
45	0xbe3c69f3	-0.18399791
46	0x3cbeafa1	0.023277106
47	0x3da23190	0.079196095
48	0xbd4da357	-0.0502046
49	0xbca81b93	-0.02052096
50	0x3e19a3dd	0.15003915
51	0x3e3efc1f	0.18650864
52	0x3e4f82c9	0.20264734
53	0x3e45cf4d	0.1931736
54	0x3d03cce0	0.032177806
55	0xbd41b775	-0.0472941
56	0x3df4d22d	0.1195415
57	0xbe37657b	-0.17909805
58	0x3ddd2c94	0.10799518
59	0x3daf3f0b	0.08556946
60	0xbc16d775	-0.009206642
61	0x3db75c56	0.089531586
62	0xbe3f0128	-0.18652785
63	0x3e275fb2	0.16345099
64	0x3c3e2f93	0.011608022
65	0xbe54edbd	-0.20793815
66	0xbdb5f922	-0.08885409
67	0xbdf29508	-0.11844832
68	0xbe51d494	-0.20491248
69	0xbd10a8cb	-0.035317224
70	0x3da0d914	0.07853904
71	0xbd8395d0	-0.06425059
72	0x3e47bf28	0.19506514
73	0x3d8fd4f1	0.07023037
74	0x3e42a55f	0.19008397
75	0xbcbe76e8	-0.023250058
76	0xbe230e93	-0.15923528
77	0x3daba6b1	0.08381403
78	0xbdf6c716	-0.120496914
79	0xbdaf5dca	-0.08562811
80	0xbdfcde63	-0.123471044
81	0x3e1f9088	0.15582478
82	0x3d8fec39	0.07027478
83	0x3e529598	0.20564878
84	0xbe51ebb4	-0.2050007
85	0xbd7eac6c	-0.062176153
86	0xbd898408	-0.06714636
87	0xbe14827d	-0.14502902
88	0xbd199512	-0.03749568
89	0xbe560e7c	-0.20903963
90	0x3d199557	0.037495937
91	0xbc91feae	-0.017821636
92	0x3c670d9f	0.014102369
93	0x3d2c9b5d	0.042140353
94	0xbb8852c9	-0.0041602594
95	0xbdf70699	-0.12061805
96	0xbdadb850	-0.084824204
97	0x3e3c3b82	0.18382075
98	0x3dbdc3d3	0.09265866
99	0xbe43b1ea	-0.19110838
100	0xbe4abaab	-0.1979777
101	0x3d03a8ac	0.03214328
102	0x3db59d54	0.088678986
103	0x3dfc4e1f	0.12319588
104	0x3d6511f1	0.055925313
105	0xbe39f1f6	-0.18158707
106	0x3e5a2248	0.2130214
107	0x3e19ba04	0.15012366
108	0x3e41662c	0.18886632
109	0xbe0bf7cd	-0.13668747
110	0xbcd79ae8	-0.026318982
111	0x3e0f1cac	0.13975781
112	0xbd966482	-0.07343389
113	0x3d5865a9	0.052831326
114	0xbe10ef42	-0.1415377
115	0xbe39b2f6	-0.18134674
116	0x3e458df8	0.19292438
117	0x3e564b4c	0.20927161
118	0xbdd3ddb7	-0.10345023
119	0xbe1c3f6e	-0.15258572
120	0xbd19f5f5	-0.03758808
121	0x3df70dc1	0.1206317
122	0xbd0f4614	-0.03497894
123	0x3d3077d7	0.04308304
124	0x3db677be	0.08909558
125	0x3e42e1e1	0.19031478
126	0x3e351b5b	0.17686217
127	0xbcf127fd	-0.029438013

pool2.att f4 [1, 128]
0	0x3dcf0314	0.10108009
1	0xbe4129cb	-0.18863599
2	0x3e2c09ed	0.16800661
3	0xbd7fa0da	-0.06240926
4	0xbe4e1ac7	-0.20127402
5	0x3e3edeeb	0.18639724
6	0xbda81da3	-0.08208778
7	0xbdc6444f	-0.096809976
8	0xbe233fe6	-0.15942344
9	0x3e461ffd	0.1934814
10	0xbe3a16f5	-0.1817282
11	0xbd3e0517	-0.046391573
12	0x3914f1ab	0.00014204408
13	0x3c708a04	0.014681343
14	0x3e099124	0.13434273
15	0xbbf84244	-0.007576259
16	0x3e38ac43	0.18034463
17	0xbdf9b330	-0.121923804
18	0xbe56cf23	-0.20977454
19	0x3d101219	0.03517351
20	0x3c562d15	0.013072272
21	0xbe285c3c	-0.16441435
22	0xbe151982	-0.14560512
23	0x3e58075c	0.21096557
24	0xbe56cd4a	-0.20976749
25	0x3e0906cc	0.13381499
26	0xbd564d5a	-0.052319862
27	0x3c541925	0.012945448
28	0x3e408ebe	0.18804452
29	0xbe02493e	-0.12723252
30	0x3d9c2687	0.07624536
31	0xbe289313	-0.16462354
32	0x3e366b6a	0.17814413
33	0x3e5ac87a	0.21365538
34	0xbe14035f	-0.14454411
35	0xbbfc8b92	-0.0077070678
36	0x3e122b99	0.14274444
37	0xbc4113f5	-0.011784543
38	0x3e51cca1	0.20488216
39	0xbde2c816	-0.110733196
40	0x3d75699d	0.059915174
41	0xbe24a5bb	-0.16078846
42	0xbe44f356	-0.1923345
43	0x3de4243a	0.11139722
44	0x3e0c4a0d	0.13700123
45	0xbe109f26	-0.1412321
46	0x3d7a57be	0.061118834
47	0x3b0419a7	0.0020156892
48	0x3e272026	0.16320857
49	0xbe30eb85	-0.17277344
50	0x3e53b340	0.20673847
51	0x3e4e11eb	0.20124023
52	0xbcee9b63	-0.029126829
53	0xbd5fca0b	-0.054636043
54	0x3e41783e	0.18893525
55	0x3e444e1e	0.19170424
56	0xbdc6d650	-0.097088456
57	0x3e302680	0.17202187
58	0x3e0b82c3	0.136241
59	0x3e5bbe94	0.21459419
60	0xbd9648a8	-0.07338077
61	0xbe5be3d8	-0.21473634
62	0xbcb1494e	-0.0216414
63	0x3e4bedb3	0.19914894
64	0x3e25b972	0.16184023
65	0x3e508657	0.20363747
66	0xbe2b9eec	-0.16759843
67	0x3e319b00	0.17344284
68	0xbd14b899	-0.03630886
69	0xbd177736	-0.036978923
70	0x3e06e385	0.1317273
71	0x38e7768a	0.00011037018
72	0x3cca4600	0.024691582
73	0x3de4a378	0.11163992
74	0xbe0473c1	-0.12934782
75	0xbd839344	-0.06424573
76	0x3e0a8bf5	0.13529952
77	0x3ca9b771	0.020717354
78	0xbe4a50fe	-0.19757459
79	0xbd67a726	-0.05655589
80	0xbe1da4b3	-0.15394859
81	0xbc97fa8d	-0.01855209
82	0xbd281895	-0.04103907
83	0x3e57dae3	0.21079592
84	0x3e422151	0.18958022
85	0xbd662911	-0.056191508
86	0xbd3a2d85	-0.045453567
87	0xbe3f0327	-0.18653546
88	0xbe515f57	-0.20446526
89	0x3d1a8c85	0.037731666
90	0xbdeb58ec	-0.1149157
91	0x3bed3dca	0.007240032
92	0xbdc4668e	-0.09589873
93	0xbc9c3acc	-0.019071005
94	0x3d826536	0.06366961
95	0x3e3f1f18	0.18664205
96	0x3d26b38c	0.040698573
97	0x3e052f62	0.13006356
98	0x3d0747a8	0.03302732
99	0x3e519450	0.20466733
100	0x3e5a96f1	0.21346642
101	0x3ce41abc	0.02784478
102	0xbe208727	-0.15676557
103	0x3dcfc760	0.1014545
104	0xbd9a2fd6	-0.07528655
105	0x3e49f1b2	0.19721106
106	0x3e3a9d08	0.18223965
107	0xbe2a2c50	-0.16618466
108	0x3e54755b	0.20747893
109	0x3e3bacd2	0.18327644
110	0xbe447d78	-0.19188488
111	0xbdf66a1f	-0.1203196
112	0xbe4a3901	-0.19748308
113	0x3d0a7bfe	0.033809654
114	0x3e34c6bd	0.17653938
115	0xbd500866	-0.05078926
116	0xbc9378bd	-0.018001908
117	0xbd977cca	-0.073968485
118	0x3c023dc9	0.007949301
119	0x3d8720d9	0.06598062
120	0xbd3e9200	-0.046525955
121	0x3e0f4a61	0.13993217
122	0x3d22fd38	0.03979227
123	0xbcb4fed4	-0.022094168
124	0xbe14bd8a	-0.14525428
125	0x3c14548f	0.009053363
126	0x3de4ed3a	0.1117806
127	0x3e46ec82	0.19426158

lin1.weight f4 [64, 128]
0	0x3dcaa02e	0.09893833
1	0x3d810809	0.06300361
2	0xbd5d63c1	-0.05405021
3	0x3cd0edd3	0.025504028
4	0x3d2738f1	0.040825788
5	0x3d465ed4	0.04843028
6	0x3c4d343c	0.012524661
7	0xbc623a1e	-0.0138078015
8	0xbcc11469	-0.023569303
9	0x3c703143	0.014660182
10	0xbcbbf677	-0.022944672
11	0x3d8ba76a	0.06819041
12	0x3e0275e7	0.12740289
13	0xbd44d7c0	-0.048057318
14	0x3dc4bd57	0.09606426
15	0x3d5417dc	0.051780567
16	0x3dbe723f	0.092991345
17	0x3d733c9b	0.05938397
18	0x3da23d00	0.07921791
19	0xbd0f0e59	-0.034925792
20	0xbd459ba3	-0.04824413
21	0x3c8d0f58	0.01721923
22	0x3dbfba7f	0.09361743
23	0x3d1456ef	0.03621572
24	0x3da71a18	0.08159274
25	0x3d3c1535	0.045918662
26	0x3dc3b9eb	0.095569454
27	0xbcee46f4	-0.029086567
28	0xbd5dc376	-0.054141484
29	0xbcb9895a	-0.022648502
30	0x3db9e1ac	0.090762466
31	0xbceb35a4	-0.028712101
32	0x3c8920ed	0.016739333
33	0x3d6e3f10	0.05816561
34	0x3dc0776c	0.09397778
35	0xbd22bc30	-0.03973025
36	0x3d3ed8a6	0.04659333
37	0x3cabc491	0.020967754
38	0x3cbebd9b	0.02328377
39	0x3b969bec	0.004596224
40	0x3bb87048	0.0056286193
41	0x3c3f51a9	0.011677184
42	0x3dd734e9	0.10508139
43	0xbc42b55e	-0.011884062
44	0xbb18aa7b	-0.0023294974
45	0x3ca2bdc7	0.019865884
46	0x3d665448	0.05623272
47	0x3c1218b5	0.008917023
48	0x3c5f12d2	0.013615327
49	0xbd1b4ef8	-0.037917107
50	0x3d307c60	0.043087363
51	0x3cae8e5a	0.021308113
52	0x3d3fb091	0.046799246
53	0x3d701663	0.0586151
54	0x3d29e1d8	0.041475147
55	0x3dfd43d9	0.123664565
56	0x3c5dad1c	0.013530042
57	0x3d0e13e1	0.034686927
58	0xbd3d298d	-0.046182204
59	0x3d8ccc52	0.068749085
60	0x3d632899	0.05545864
61	0xbc79d88f	-0.0152493855
62	0x3ce9f264	0.028557964
63	0xbd52a6e9	-0.05142871
64	0xbcdbad11	-0.026815923
65	0x3bc33edd	0.0059584216
66	0x3d94148e	0.07230483
67	0x3cfba4fd	0.030718321
68	0x3c8e986f	0.01740667
69	0xbc5b6559	-0.013390862
70	0x3c974d20	0.018469393
71	0x3d841630	0.064495444
72	0x3d7560bd	0.05990671
73	0x3d7675f2	0.060171075
74	0xbdbb5d33	-0.09148636
75	0xbccb5850	-0.024822384
76	0xbcfe9ecd	-0.031081581
77	0x3d5c6212	0.053804465
78	0xbd3b339c	-0.045703515
79	0x3c4b8888	0.012422688
80	0x3d0ddb65	0.03463306
81	0xbd7b102f	-0.06129473
82	0x3d4f36a2	0.05058921
83	0xbdb2351b	-0.08701535
84	0xbad07f37	-0.0015907054
85	0x3c5f43b5	0.013626982
86	0x3bbdcba4	0.005792098
87	0xbcceb192	-0.025231156
88	0x3d2c4ba5	0.042064328
89	0xbdaf053b	-0.085459195
90	0x3c3cd41f	0.011525183
91	0xbdc8b2b8	-0.09799713
92	0xbcf43af7	-0.029813273
93	0x3d2bcb0b	0.041941684
94	0x3c29174f	0.010320499
95	0x3d552993	0.0520416
96	0xbdc28da9	-0.09499676
97	0xbd65795a	-0.056023933
98	0xbd396722	-0.04526437
99	0x3b627f4a	0.0034560733
100	0x3b8c3359	0.004278582
101	0x3d140c8c	0.036144778
102	0xbdc7e4e0	-0.09760451
103	0xbd466cb5	-0.048443515
104	0xbdff494c	-0.12465152
105	0xbdb2220e	-0.08697902
106	0xbc57ce89	-0.0131718
107	0xbd9a5c7a	-0.0753717
108	0xbcafe5b1	-0.02147183
109	0x3cc5a14c	0.024124764
110	0x3b590695	0.0033115495
111	0x3c8c26a3	0.017108267
112	0x3d499cfb	0.049221974
113	0xbd72229e	-0.059115045
114	0xbd4f6364	-0.050631896
115	0xbd5335ac	-0.051564857
116	0xbc99a657	-0.018756075
117	0xbdb0b7a3	-0.08628776
118	0x3c1d9251	0.009617404
119	0xbd8f5367	-0.069983296
120	0x3ad58344	0.001628973
121	0xbce20515	-0.027590314
122	0x3d13c037	0.036071982
123	0xbdb67998	-0.08909911
124	0x3d60cb99	0.054881666
125	0xbdb73fa2	-0.08947684
126	0xbd8651f2	-0.065585986
127	0xbd1a9879	-0.037743066
128	0x3cd8eaff	0.026479242
129	0x3cfecc6a	0.031103332
130	0xbd63b679	-0.05559394
131	0x3d31a2c5	0.04336812
132	0xbd002205	-0.031282444
133	0x3c0822cc	0.0083090775
134	0x3cdfadec	0.027304612
135	0xbd20b01e	-0.03923046
136	0x3c349f79	0.011024349
137	0x3cbbaed0	0.022910506
138	0x3d090c01	0.033458713
139	0xbc968365	-0.0183732
140	0xbd9c2a77	-0.07625287
141	0x3ca396c9	0.01996936
142	0x3c996318	0.01872401
143	0xbdb5a024	-0.08868435
144	0xbbaeffd2	-0.0053405548
145	0xbde22cde	-0.11043714
146	0x3d43ff28	0.047850758
147	0x3c862f85	0.016380081
148	0x3d85defa	0.0653667
149	0x3c8f4a3d	0.017491454
150	0x3d836b77	0.06416982
151	0xbd8706b1	-0.06593073
152	0xbcf18bb9	-0.02948557
153	0x3d7fc5f2	0.062444635
154	0x3ce138f6	0.027492981
155	0xbbf93e60	-0.0076063126
156	0x3d930133	0.07177963
157	0x3cda9eca	0.026687045
158	0xbd1d7dcd	-0.03845005
159	0xbd040cd0	-0.03223878
160	0xbda03281	-0.07822133
161	0x3a23acf7	0.00062437303
162	0xbd8b6274	-0.06805888
163	0xbd2d1e95	-0.042265493
164	0xbdbf6bbd	-0.09346721
165	0xbdabc422	-0.08387019
166	0xbd965427	-0.073402695
167	0x3d36f9ee	0.044671945
168	0x3d5f818b	0.0545669
169	0xbcf08576	-0.029360514
170	0xbdb81b8f	-0.089896314
171	0x3d8f9393	0.070105694
172	0xbd519c21	-0.051174287
173	0xbda45e9b	-0.08025857
174	0xbd25f066	-0.040512465
175	0xbd3708bd	-0.044686068
176	0xbcc0adcc	-0.023520373
177	0xbdca8092	-0.09887804
178	0xbba7287f	-0.005101263
179	0xbd81dbb8	-0.06340736
180	0xbd4679e4	-0.048456088
181	0xbb416d2c	-0.0029514534
182	0xbb9ffba2	-0.004882292
183	0xbd2f76dc	-0.042837963
184	0x3d8a3758	0.06748837
185	0x3d9b4f46	0.075834796
186	0xbc140b01	-0.009035827
187	0x3d0aaa70	0.033853948
188	0xbddd47d8	-0.10804719
189	0x3d42bc60	0.04754293
190	0xbdc12306	-0.09430508
191	0x3d1e7df5	0.03869434
192	0x3dae2b9e	0.08504413
193	0x3dc84c91	0.09780229
194	0x3db21f7d	0.08697412
195	0x3d2a4372	0.041568227
196	0x3d0a5bf8	0.033779114
197	0x3b659433	0.003503096
198	0x3d80d510	0.062906384
199	0x3db7c83c	0.089737386
200	0xbc70c483	-0.01469529
201	0xbc719d06	-0.01474691
202	0xbc685d0b	-0.014182339
203	0x3e1041f3	0.14087658
204	0x3b26117d	0.0025340014
205	0xbd51dae5	-0.051234145
206	0x3df66753	0.12031426
207	0xbcf92ca7	-0.0304168
208	0x3c651760	0.013982624
209	0x3c6bf6e5	0.014402126
210	0xbd41a0d1	-0.047272507
211	0x3db66c35	0.089073576
212	0x3d824d45	0.06362394
213	0x3cf7ed97	0.030264659
214	0x3c97e99f	0.018544016
215	0x3dc7ea9c	0.09761545
216	0xbcef6bd4	-0.029226221
217	0x3c24d7c2	0.010061206
218	0x3da71866	0.081589505
219	0xbd54a094	-0.05191095
220	0x3ddec836	0.10878031
221	0x3dacbf62	0.08434941
222	0x3e009714	0.12557632
223	0xbbbac0e4	-0.005699264
224	0xbd3cb044	-0.046066537
225	0x3dc7911b	0.097444735
226	0x3d952ee3	0.072843336
227	0xbd3e20d2	-0.04641802
228	0xbd73702e	-0.059433155
229	0xbd7a4bc4	-0.061107412
230	0xbc6987c2	-0.014253559
231	0x3dd2c4e4	0.1029146
232	0x3da878f4	0.08226195
233	0x3d4cc884	0.049995914
234	0xbc25ebcc	-0.010127019
235	0x3decd04f	0.11563169
236	0x3dcdd8c4	0.100511104
237	0x3d47ee33	0.04881115
238	0xbccbe5b0	-0.024889797
239	0x3d2e0a7f	0.04249048
240	0x3d2ae7e0	0.04172504
241	0xbcdf5da9	-0.02726634
242	0x3defee25	0.11715344
243	0x3dda6a71	0.10664833
244	0xbb9db5d2	-0.0048129344
245	0x3dc705fc	0.09717938
246	0x3df9c996	0.121966526
247	0xbd27f7d7	-0.041007843
248	0xbd915d62	-0.070978895
249	0xbc7469d0	-0.014917806
250	0x3dcda835	0.100418486
251	0xbd37ac7e	-0.044842236
252	0x3c84b8ae	0.016201343
253	0xbb91b862	-0.004447029
254	0xbd0b3196	-0.033982836
255	0x3db698f9	0.08915896

lin1.bias f4 [64]
0	0xbc583fb5	-0.013198783
1	0x3da5c062	0.08093335
2	0x3dc31469	0.09525377
3	0xbd3a5d99	-0.045499418
4	0xbd9b1075	-0.07571498
5	0x3c0ddb06	0.008658176
6	0xbd8128e9	-0.06306631
7	0xbd881cc4	-0.066461116
8	0xbc818a8c	-0.015813135
9	0xbd6d3e50	-0.057920754
10	0x3abbb990	0.001432227
11	0xbd835973	-0.064135455
12	0xbd2099fa	-0.039209343
13	0xbdb0627b	-0.08612534
14	0x3d463065	0.048385996
15	0x3cd84f9b	0.026405146
16	0x3d81ca31	0.06337393
17	0x3db6963d	0.089153744
18	0xbd9020c8	-0.070375025
19	0x3dbf9ae1	0.09355713
20	0xbd3f5bef	-0.046718534
21	0xbbbe5361	-0.0058082794
22	0x3bccfd6d	0.0062557966
23	0x3d329778	0.043601483
24	0xbd5862d0	-0.05282861
25	0xbbf12fa2	-0.0073604146
26	0xbd436abc	-0.04770921
27	0x3d727fc5	0.05920388
28	0xbd9cfa2f	-0.07664906
29	0x3cdf5687	0.02726294
30	0x3d3021f0	0.043001115
31	0x3d8f343a	0.06992383
32	0x3d06c5aa	0.03290335
33	0x3d3ec28e	0.04657226
34	0x3d92c006	0.07165532
35	0x3d16d4ec	0.036824152
36	0x3d436ba8	0.04771009
37	0xbd66bafa	-0.05633066
38	0xbceb165b	-0.028697183
39	0x3ccbfae2	0.024899904
40	0xbd7f9019	-0.06239328
41	0x3dbf8018	0.09350604
42	0xbcb6d4ea	-0.022318322
43	0x3d2b6c8e	0.041851573
44	0xbd69dc02	-0.05709458
45	0x3d0be0d1	0.03414995
46	0xbd723b05	-0.059138317
47	0x3da871fc	0.08224866
48	0x3caa04c5	0.020754227
49	0xbda5be36	-0.080929205
50	0x3dbf1b81	0.09331418
51	0xbd9c2b22	-0.076254144
52	0x3ce6d562	0.02817792
53	0x3d6ba161	0.05752695
54	0xbd9df2dd	-0.07712338
55	0xbd1168b8	-0.03550026
56	0x3d8888be	0.066667065
57	0x3d61a9a7	0.055093434
58	0x3d8fbb17	0.070181064
59	0xbd9d517c	-0.076815575
60	0x3d7fd4e4	0.062458888
61	0x3d91cbbe	0.07118939
62	0x3da46a31	0.08028067
63	0xbbba0b74	-0.005677635

lin2.weight f4 [32, 64]
0	0x3d90fb17	0.070791416
1	0xbd5129d2	-0.051065274
2	0xbdd73371	-0.105078585
3	0xbd978c99	-0.07399864
4	0x3dceff70	0.101073146
5	0xbe0002ab	-0.12501018
6	0x3c280965	0.010256146
7	0x3d862ab8	0.06551117
8	0xbdbdca61	-0.09267116
9	0x3d84bc18	0.064811885
10	0xbd9685f0	-0.07349765
11	0xbd77d68c	-0.060507342
12	0x3ddfc30a	0.109258726
13	0x3de5ca56	0.11220233
14	0x3baf9334	0.005358124
15	0x3daef508	0.0854283
16	0x3ccc600a	0.024948139
17	0xbc66717d	-0.014065144
18	0x3a701f00	0.0009159893
19	0xbd730b05	-0.05933668
20	0xbb49646e	-0.0030730027
21	0xbc8cae31	-0.017172905
22	0x3d1fa7a2	0.038978226
23	0xbdfb8bed	-0.12282548
24	0xbd6452fd	-0.055743206
25	0xbdd72e98	-0.10506934
26	0xbd6300f6	-0.05542084
27	0xbd95bfc0	-0.07311964
28	0x3d9cdb40	0.07659006
29	0x3da95a5b	0.08269187
30	0xbdc319da	-0.09526415
31	0x3c3833f4	0.011242855
32	0xbd9e6c4c	-0.077355
33	0x3d3e35dd	0.046438087
34	0xbdd424a2	-0.1035855
35	0x3d9d5bfa	0.07683559
36	0x3d3d5054	0.046219185
37	0xbde82478	-0.11335081
38	0xbdd1e173	-0.10248079
39	0x3d7293a3	0.05922283
40	0xbd34977f	-0.04408979
41	0xbda2844d	-0.079353906
42	0xbd8e3db2	-0.06945361
43	0xbd9a3a51	-0.07530654
44	0xbdc4ddc6	-0.096126124
45	0xbdd2cdea	-0.10293181
46	0xbdf54b0e	-0.11977206
47	0x3b15c92c	0.0022855503
48	0xbd8f1971	-0.069872744
49	0xbd2cac25	-0.042156357
50	0x3cc7eafd	0.024404043
51	0x3bf32fa0	0.007421449
52	0x3d1a5558	0.037679046
53	0x3dd59778	0.10429281
54	0x3d4675de	0.04845225
55	0xbdda42b8	-0.10657257
56	0xbde8e8e0	-0.113725424
57	0xbce4b677	-0.027919037
58	0x3dc9293f	0.0982232
59	0x3dde82a2	0.1086476
60	0x3d808a9f	0.0627644
61	0x3d8e36e3	0.069440626
62	0xbd249d1b	-0.04018889
63	0xbb38a9c3	-0.0028177358
64	0x3d39ded5	0.045378525
65	0xbe3d4aeb	-0.1848561
66	0xbc1dcd43	-0.009631458
67	0x3d3f04f0	0.04663557
68	0xbd4afdf6	-0.049558602
69	0x3cae26bd	0.021258706
70	0x3da06aba	0.078328565
71	0x3daca53e	0.08429955
72	0x3d72fd2a	0.059323467
73	0x3d52e04d	0.05148344
74	0x3d91cb22	0.07118823
75	0xbd27aa68	-0.040933996
76	0x3da0c63f	0.078503124
77	0x3db810e7	0.08987599
78	0x3e1ee29c	0.15516132
79	0x3dd34f04	0.103178054
80	0xbe1ea2bb	-0.15491764
81	0xbc80562a	-0.015666086
82	0x3de79e58	0.113094985
83	0xbdcf4fc5	-0.10122637
84	0xbde5d83e	-0.112228855
85	0x3c3f0c6a	0.011660675
86	0xbe16f361	-0.14741279
87	0x3d71f6db	0.05907331
88	0x3d428e1f	0.04749882
89	0xbd73534b	-0.059405606
90	0xbd83ecb0	-0.06441629
91	0xbd107be7	-0.035274412
92	0x3d305921	0.04305375
93	0xbd290aae	-0.04126995
94	0xbdef01bb	-0.11670252
95	0x3dff4fe8	0.12466413
96	0x3d067c1a	0.032833196
97	0x3dd51508	0.10404402
98	0x3c0ce948	0.00860054
99	0xbe1abfae	-0.15112182
100	0x3db4a60d	0.08820734
101	0x3bd0fb40	0.0063776076
102	0x3dae5b80	0.08513546
103	0xbe00aa3e	-0.12564942
104	0x3b2b7b8f	0.0026166176
105	0x3e09a5ab	0.13442104
106	0xbe37c3b2	-0.17945746
107	0x3d5ba431	0.053623382
108	0xba5c9dd0	-0.000841585
109	0xbe34c8a6	-0.17654666
110	0x3d5510ee	0.0520181
111	0x3d6e545e	0.058185928
112	0xbc75ec06	-0.015009886
113	0xbdb53302	-0.088476196
114	0x3cd78548	0.02630867
115	0xbddae662	-0.10688473
116	0xbdcd6d58	-0.10030621
117	0xbde6a5d1	-0.11262096
118	0x3dcc2cc4	0.09969476
119	0xbd7764c8	-0.060398847
120	0xbbbd2139	-0.0057717827
121	0xbcc8d804	-0.024517067
122	0xbd9036a1	-0.0704167
123	0xbd97441a	-0.07386036
124	0x3c559e2b	0.013038198
125	0x3db1914d	0.08670292
126	0x3d65f8aa	0.056145348
127	0x3e171621	0.14754535
128	0xbde6b38d	-0.11264715
129	0x3d131184	0.035905376
130	0xbdf2f334	-0.118627936
131	0xbdcc107b	-0.09964081
132	0xbdc847f2	-0.097793475
133	0xbde989b1	-0.11403216
134	0xbda0a513	-0.078439854
135	0x3dbddee8	0.092710316
136	0xbdefc860	-0.117081404
137	0x3d320a55	0.043466885
138	0x3ce59a77	0.028027756
139	0x3da05cc2	0.07830192
140	0xbd686eb8	-0.056746215
141	0x3df5ad12	0.11995901
142	0xbdac74f2	-0.08420743
143	0x3d8d48e2	0.06898667
144	0xbdf1c8d5	-0.11805884
145	0x3dd7367b	0.10508438
146	0x3d7c0d6f	0.06153625
147	0xbd8380eb	-0.064210735
148	0x3cfeced6	0.031104486
149	0x3c4e8793	0.012605566
150	0x3d6a38e1	0.05718315
151	0x3dc534e3	0.09629228
152	0xbbbf0909	-0.0058299345
153	0xbd8b3201	-0.06796647
154	0xbd7ede3e	-0.062223665
155	0x3df5f970	0.12010467
156	0x3defc84a	0.11708124
157	0xbd81354c	-0.06308994
158	0xbcec892a	-0.028873999
159	0x3de7927c	0.113072366
160	0x3d98ea46	0.07466559
161	0x3d8e341e	0.06943534
162	0x3dc2cbe4	0.09511545
163	0xbd0209ac	-0.031747505
164	0x3d2d987b	0.042381745
165	0x3de0798a	0.10960682
166	0xbd44841f	-0.047977563
167	0x3dadee33	0.084926985
168	0xbde5a25a	-0.11212607
169	0xbd491535	-0.04909249
170	0xbcb0b0d6	-0.021568697
171	0x3d080da1	0.033216123
172	0x3d839a37	0.064258985
173	0x3c9dfc9f	0.019285498
174	0x3dc7889a	0.097428516
175	0x3baeca0f	0.005334146
176	0xbca71704	-0.020396717
177	0x3d8b40f9	0.06799502
178	0x3d0845ea	0.0332698
179	0xbd1d1cc8	-0.038357526
180	0xbdada12a	-0.08478005
181	0x3caf4991	0.021397384
182	0x3d6040b0	0.05474919
183	0x3d05f4bc	0.0327041
184	0x3de1486d	0.11000142
185	0xbdc05bdc	-0.09392521
186	0xbd7fa1ba	-0.062410094
187	0x3d94ae7a	0.07259841
188	0x3c7d6eb0	0.0154682845
189	0x3db099e3	0.086231016
190	0xbdc0de6f	-0.09417426
191	0xbdf3a577	-0.11896794
192	0x3c3a19ef	0.011358722
193	0xbd1888f0	-0.03723997
194	0x3d0483af	0.032352146
195	0x3dc1c681	0.0946169
196	0xbd1aa5f4	-0.03775592
197	0x3d1a4550	0.037663758
198	0xba832c47	-0.0010007703
199	0xbd58399c	-0.052789316
200	0xbd570494	-0.0524946
201	0x3ca53947	0.020168914
202	0x3d8eb4ce	0.069680795
203	0x3d8baaba	0.06819673
204	0xbdaeaa3a	-0.08528562
205	0xbdcd431c	-0.10022566
206	0xbe083bdb	-0.13304083
207	0xbd7ec374	-0.062198117
208	0xbb7fad49	-0.0039013198
209	0x3de9265b	0.11384269
210	0x3d98cfba	0.07461496
211	0x3b86da72	0.004115396
212	0x3d991b93	0.074759625
213	0xbda9a7b7	-0.08283942
214	0xbdec3859	-0.11534185
215	0xb97563de	-0.00023402224
216	0xbddb1d2f	-0.10698926
217	0xbdb69384	-0.08914855
218	0xbe04e9d7	-0.12979828
219	0x3d831f88	0.064024985
220	0xba6f3100	-0.0009124428
221	0x3c6e8f61	0.014560551
222	0x3d9f4ab7	0.077779226
223	0xbd2e7afd	-0.04259776
224	0xbb6d5680	-0.0036214888
225	0x3c93e9d9	0.018055843
226	0xbcd1dc98	-0.025617883
227	0xbdce2ca7	-0.100671105
228	0x3de01d65	0.109431066
229	0x3d450f28	0.048110157
230	0xbe112c79	-0.14177121
231	0x3cb6cdb8	0.022314891
232	0x3d490385	0.049075622
233	0x3d8cc8e4	0.06874254
234	0x3e2b2795	0.16714318
235	0x3d347d61	0.044064883
236	0x3dfc5e46	0.12322669
237	0x3bc442c5	0.005989405
238	0x3db9055e	0.09034227
239	0xbaba576e	-0.001421673
240	0x3da87cdc	0.0822694
241	0xbdc40792	-0.095717564
242	0xbc173415	-0.009228726
243	0x3d87537d	0.06607721
244	0x3da99e3c	0.08282134
245	0xbda3fec9	-0.08007581
246	0xbdbe61b6	-0.09295981
247	0xbcd30348	-0.0257584
248	0xbe31e5b1	-0.17372777
249	0xbd761f65	-0.060088534
250	0x3d71196b	0.05886213
251	0xbda5f2f8	-0.08102983
252	0xbc72f861	-0.014829726
253	0xbd8cf7e5	-0.0688322
254	0xbd47fba7	-0.04882398
255	0x3d8d2743	0.06892254

lin2.bias f4 [32]
0	0x3d83a08c	0.06427106
1	0x3d891537	0.066934995
2	0xbd31ebad	-0.04343765
3	0xbdd39e9d	-0.103329875
4	0x3da2f5cd	0.07957039
5	0xbd936a09	-0.07197959
6	0x3d5f0523	0.054448258
7	0xbd3f66a0	-0.04672873
8	0xbd25aca4	-0.040447846
9	0x3dd5f0ac	0.10446295
10	0x3dfe7cef	0.12426173
11	0xbdcea761	-0.10090519
12	0xbc70c5c8	-0.014695592
13	0x3c96ba24	0.018399306
14	0x3b52eed1	0.0032185803
15	0xbd8f9d7f	-0.07012462
16	0xbded495e	-0.11586259
17	0x3dd89ec4	0.10577157
18	0x3dd639f4	0.104602724
19	0x3de8f835	0.11375467
20	0xbdcebf57	-0.10095089
21	0xbdc97454	-0.09836641
22	0xbcc38430	-0.023866743
23	0x3d7bb73b	0.06145404
24	0x3d429696	0.04750689
25	0x3d99c1d0	0.0750767
26	0xbda07d27	-0.07836371
27	0xbdf9a617	-0.12189882
28	0xbdad2f7a	-0.08456321
29	0x3d7b0bab	0.061290424
30	0xbddf2c74	-0.10897151
31	0x3da006e0	0.07813811

lin3.weight f4 [2, 32]
0	0x3c0a98b9	0.0084592635
1	0x3b6159c0	0.003438577
2	0x3b9bc726	0.004753965
3	0xbe2bd80a	-0.16781631
4	0x3dde58ed	0.10856805
5	0x3db31dc3	0.08745911
6	0xbe504bf5	-0.20341475
7	0xbb2f2b4b	-0.0026728685
8	0x3e185f42	0.14880088
9	0x3d39a711	0.045325343
10	0x3dd1a092	0.102357045
11	0xbdfaa81c	-0.122390956
12	0x3d606f5b	0.054793697
13	0x3e21ad64	0.157888
14	0xbe38abc2	-0.1803427
15	0xbd8ef6f8	-0.06980699
16	0xbe2a8a59	-0.16654338
17	0x3e22a9f8	0.1588515
18	0xbd3b009e	-0.045654885
19	0xbe21e76e	-0.1581094
20	0xbe12339f	-0.14277504
21	0xbb2ac531	-0.0026057477
22	0x3df82c15	0.12117783
23	0xbd8ea5ee	-0.06965242
24	0xbbc47b30	-0.0059961304
25	0x3e6a896b	0.22903983
26	0xbe002949	-0.12515749
27	0xbdfafe99	-0.12255592
28	0xbdb123fe	-0.08649443
29	0xbda2fa8f	-0.079579465
30	0xbd398162	-0.045289405
31	0xbe070a67	-0.13187562
32	0x3e1794d3	0.14802866
33	0xbe51e9af	-0.204993
34	0x3dd47b49	0.10375077
35	0x3de92d5b	0.11385604
36	0x3e2f6593	0.17128591
37	0xbc7c3d29	-0.015395441
38	0x3e1595c3	0.14607911
39	0x3df7ac0c	0.12093362
40	0x3c91be4d	0.017790938
41	0xbd8dba2b	-0.06920274
42	0xbc03e887	-0.008051044
43	0x3dfdcd18	0.12392634
44	0xbe11cb50	-0.14237714
45	0xbac8b243	-0.0015311915
46	0x3e17156c	0.14754266
47	0x3e171a86	0.14756212
48	0xbdba0d14	-0.09084526
49	0xbe2be496	-0.16786417
50	0xbe221373	-0.15827732
51	0x3e3217ed	0.1739194
52	0x3d9ecd80	0.0775404
53	0xbd96f8e8	-0.07371694
54	0xbd85a428	-0.06525451
55	0x3e2adfef	0.16686986
56	0xbe340fa0	-0.17584085
57	0xbd8bc132	-0.068239585
58	0x3e22db2b	0.15903918
59	0xbe1c8008	-0.15283215
60	0x3e304856	0.17215094
61	0xbbf08276	-0.007339771
62	0x3c79ff1d	0.015258578
63	0x3dac8f02	0.08425714

lin3.bias f4 [2]
0	0xbe0f1cb3	-0.13975792
1	0xbe359dd5	-0.1773599
