models/model_sag_pool.pt (torch, 306811 bytes, 15 tensors)

conv1.bias f4 [128]
000000 72 79 34 bb 00 00 00 00 33 dd a6 3c 55 b3 28 3d
       -0.0027538207 0.0 0.020369148 0.04118665
000010 6c 3c ac 3c d5 15 3d 3c 6f b7 3b 3d 64 84 db bc
       0.021024905 0.01154085 0.045829233 -0.026796527
000020 00 00 00 00 00 00 00 00 99 14 fb 3c 00 00 00 00
       0.0 0.0 0.03064947 0.0
000030 65 3a ec 3c 07 b0 d5 bc e5 64 13 3d 77 aa ca bb
       0.028836438 -0.026084913 0.035984892 -0.006184872
000040 88 3f 43 bc c6 80 0f 3c 00 00 00 00 80 67 14 3c
       -0.0119170025 0.008758729 0.0 0.009057879
000050 d8 7d d3 3c 6d 38 8b 3d 2e 46 3b 3c a7 e5 ed 3c
       0.025816843 0.06797872 0.011430306 0.02904017
000060 41 b0 f2 3b d3 c6 9b 3c 4f c3 87 b9 4c 2f 1b 3d
       0.007406265 0.019015705 -0.00025894723 0.037886903
000070 4a 29 bb 3c 00 00 00 00 00 00 00 00 60 f8 07 3d
       0.022846837 0.0 0.0 0.033195853
000080 5f 34 e1 3b 5c 79 1e bd 81 6a 1c 3d 85 a3 c3 3c
       0.006872698 -0.038689956 0.038187508 0.023881683
000090 57 93 26 bd d0 ee 30 3b bf 1e c7 3c 67 74 51 3d
       -0.040667858 0.0026997812 0.024306653 0.0511364
0000a0 c2 3c 0e 3d 72 5e 85 3c 05 a0 a7 3c fe 6e 29 3d
       0.034725912 0.016280387 0.020462045 0.041365616
0000b0 c9 3a b0 3c ff d7 af bc 99 38 80 3d d9 88 9b 3a
       0.021512406 -0.0214653 0.06260795 0.0011866345
0000c0 25 60 f1 bb b6 1e f6 3c dd 65 8b 3c b9 5b 42 3c
       -0.0073661976 0.030043941 0.017016346 0.011862689
0000d0 00 00 00 00 9b 96 29 3c 67 21 a9 3c 14 cd b5 3c
       0.0 0.010350849 0.02064581 0.022192515
0000e0 a0 39 07 3c 00 00 00 00 3e 94 2f 3d 88 b4 eb 3a
       0.008253485 0.0 0.042865984 0.001798288
0000f0 2e 02 1a bd 84 0a a4 3c e7 d7 86 bb 5c b1 40 bb
       -0.037599735 0.020024545 -0.004115093 -0.002940259
000100 cb 45 a1 3c 98 ca b2 3c 5c 2c 02 3c a1 51 7b 3c
       0.0196866 0.02182512 0.007945146 0.015339286
000110 00 00 00 00 1b 8b 32 3c ae 3c 8b 3c 77 fd 79 3d
       0.0 0.010897423 0.016996708 0.06103274
000120 e8 56 3f 3d 2f d0 96 3b 07 94 a3 3c d0 cb 8b 3c
       0.04671374 0.004602454 0.019968046 0.017064959
000130 a3 e5 bb 3c 6b d0 6e 3c 00 00 00 00 1a 25 2e 3c
       0.022936648 0.014576058 0.0 0.010628963
000140 5e 89 be bc 32 aa bf 3c a5 b1 be 3c a3 db 35 3b
       -0.023258861 0.023396585 0.023278067 0.0027749322
000150 b7 52 f2 3b 46 f8 a4 3c 32 96 98 bc 55 1c 88 3d
       0.0073951143 0.020137917 -0.018626306 0.06646029
000160 00 00 00 00 88 a7 b0 3c dc 72 ad 3c 00 00 00 00
       0.0 0.02156426 0.021172933 0.0
000170 22 1c e5 bc ea dd a7 3c 24 01 81 3d 00 00 00 00
       -0.027967516 0.020491559 0.06299046 0.0
000180 20 92 3c bc 00 00 00 00 8b 45 d9 3b 3d 1e bf bc
       -0.011509448 0.0 0.0066306046 -0.023329848
000190 74 45 00 3c 00 00 00 00 00 00 00 00 af 23 a5 bc
       0.007829059 0.0 0.0 -0.020158617
0001a0 00 00 00 00 00 00 00 00 45 4e 42 36 3e da 64 3d
       0.0 0.0 2.8953812e-06 0.055872194
0001b0 03 45 5b 3b a9 ba 6e 3c 74 9b 97 bb fc f8 e3 3c
       0.0033457882 0.01457087 -0.0046266858 0.027828686
0001c0 04 cf 54 3d d6 7c 03 3d 55 dc 9e bb 83 70 52 bc
       0.051955238 0.032101475 -0.004848043 -0.012844208
0001d0 15 7e 20 3c e4 a9 50 3d 00 00 00 00 6f 29 45 bb
       0.009795685 0.05094327 0.0 -0.003008451
0001e0 17 b0 77 3c a7 e8 3d 3d 25 00 c4 3b 96 9b 16 3d
       0.015117667 0.046364453 0.0059814625 0.036769472
0001f0 d9 0d 39 3d d5 f1 92 bc 00 00 00 00 76 ae 98 3c
       0.04517922 -0.01793758 0.0 0.018637877

conv1.lin.weight f4 [128, 3]
000000 a3 67 12 3e 44 2b ee bd dc e6 8d 3e de 72 1d be
       0.14297347 -0.11629346 0.27715194 -0.1537585
000010 9e 77 b9 bc 7e d7 cf bd 84 74 14 3e 38 17 5b be
       -0.022640046 -0.10148524 0.14497572 -0.21395576
000020 73 2f b8 3d 36 d0 aa bd e5 3c 5f 3e d2 e3 c2 bd
       0.08993425 -0.08340494 0.21800573 -0.095161095
000030 1a b0 89 3d a3 a0 31 bd 99 ff 97 3e 3f 6f 0c be
       0.06723042 -0.043366086 0.29687193 -0.13714312
000040 48 e2 15 3c d0 87 8a 3e 31 5b 1a be 0d fa 42 3e
       0.009148188 0.27056742 -0.1507385 0.190407
000050 70 b1 8b b9 0f 2d 99 3c 61 6a 0e be e8 43 c0 bc
       -0.00026644347 0.018698243 -0.13907768 -0.02346988
000060 8f 80 3b be 2d ee 01 be 33 b4 15 be 2c 9c 70 bd
       -0.1831076 -0.12688513 -0.14619522 -0.058742687
000070 c9 8c 43 bb ff 7b 21 be ff 7c 3c 3e ec 06 59 be
       -0.0029838553 -0.15769957 0.18407057 -0.21194047
000080 96 92 ba bc db 32 c8 bd 4e d3 55 be 79 26 46 be
       -0.022774976 -0.09775325 -0.20881388 -0.19350614
000090 0c 3f 6c bc 99 c7 3f 3e b7 61 76 3e 0e a9 95 be
       -0.014419328 0.18728484 0.24060713 -0.2923054
0000a0 ca 13 cf 3d b8 0c c6 bd a2 d0 6e 3e c4 02 e8 bd
       0.10111196 -0.09670395 0.23321775 -0.113286525
0000b0 31 b4 79 3e 8e 61 91 3d fc 04 df 3b dc 0a b1 bd
       0.24385144 0.07098685 0.006806014 -0.086446494
0000c0 fa df df bd b5 01 30 be c2 78 aa 3d 99 c8 a5 3d
       -0.10931392 -0.17188151 0.08323814 0.080949016
0000d0 d2 af ee 3c b9 29 43 3e e0 09 54 be 50 dd 3c be
       0.029136572 0.19058885 -0.20706892 -0.18443799
0000e0 9c 35 d6 bd e1 3c 23 3d b7 30 3b 3e 05 db d7 3d
       -0.10459444 0.03985298 0.18280302 0.105398215
0000f0 b5 09 3d 3e 58 63 47 be 5f 5b 07 be f7 f3 6a be
       0.18460734 -0.1947149 -0.13218449 -0.22944628
000100 d2 bd b4 bc 0b 99 58 3e ca 42 8c 3d e6 1e 0b bd
       -0.02206317 0.21152131 0.068486765 -0.033965014
000110 a2 53 39 3e 53 11 f0 3d 43 55 6c 3e ad d3 5f be
       0.1809831 0.11722054 0.230794 -0.21858092
000120 82 b9 55 be d1 28 23 3e 7b f7 7c 3e 1b 5d 51 3e
       -0.20871547 0.15933539 0.24703781 0.20445673
000130 fd 13 a9 bd d8 7f 81 3e 44 0c 91 be 7c d8 39 3d
       -0.082557656 0.2529285 -0.2832967 0.04537247
000140 91 df 90 3e cf bc 92 3d bd 3f 5d be d9 bc a8 3c
       0.28295568 0.07164919 -0.21606345 0.020597862
000150 76 1f 1a 3e bf 0e cd 3d 65 52 fb 3d 67 99 be bc
       0.15051064 0.10012578 0.12271575 -0.023266507
000160 cc 70 54 be 36 8d e8 bc ce 89 8d bd 0f 52 ab bd
       -0.20746154 -0.028387647 -0.0691105 -0.08365261
000170 c2 c9 1b be 97 95 c6 3d eb 67 00 3e d1 e8 7b 3e
       -0.15213683 0.09696501 0.12539642 0.24600531
000180 25 a0 5a 3e 41 b0 1c be 59 d8 14 3c ed 40 0b be
       0.21350153 -0.1530161 0.009084784 -0.13598986
000190 4e 09 94 3d ff 96 5b bc 31 cf 11 be bd 1a b2 bc
       0.07228337 -0.0134026995 -0.14239193 -0.021741265
0001a0 b9 c7 43 3e 84 3a 0e 3d 89 74 57 3d 7a 9d 82 be
       0.19119157 0.034723774 0.05260137 -0.2551077
0001b0 bd 7c 5c be 4e b6 b8 3d d0 f2 5f bd 07 84 27 be
       -0.21531959 0.09019147 -0.054674923 -0.16358958
0001c0 60 61 53 be 7c 66 98 3d 6e 49 ef 3d 4d ae 7f 3e
       -0.20642614 0.07441422 0.116839275 0.24968834
0001d0 c2 72 3e be da a9 47 3e d3 4b 5c be 32 29 fa bd
       -0.18598464 0.19498387 -0.215133 -0.12214889
0001e0 ef 67 c1 3d 0e ef 8b bd 82 5c 7e bb f0 33 3d bb
       0.09443652 -0.068327054 -0.0038812463 -0.0028870068
0001f0 3d fd 69 3e 7a b4 3d 3e 8d 97 4e 3e b7 0e a5 bd
       0.22850509 0.18525878 0.20175 -0.08059447
000200 eb bc 1b be 99 db 3b bd 18 ee 03 3e 3e 66 53 3e
       -0.15208785 -0.04586372 0.12883794 0.20644471
000210 c6 b0 c5 3d ca 92 65 3e f5 bb 1a 3d 8d a0 b1 bd
       0.096528575 0.22419277 0.037776906 -0.08673201
000220 8d d0 12 3d 18 e5 09 3e 78 7b 37 be ac d5 09 be
       0.03584342 0.13466299 -0.17918193 -0.13460416
000230 cf 8d 8d 3e d5 65 e4 bd 6b 0c 46 3e db c1 4e bd
       0.27647254 -0.111522354 0.19340675 -0.050477844
000240 5e 95 82 3e e4 08 de 3c 1f 4a 4b bc 31 57 9b 3d
       0.25504583 0.027103849 -0.012407809 0.0758499
000250 f2 85 e2 bc 91 f3 12 bd 8a dc 4b 3e 34 32 03 bd
       -0.02765176 -0.035876814 0.19908348 -0.0320303
000260 2f 53 e0 bc b9 87 c5 3d 1c c9 25 3a eb 34 c2 bc
       -0.027383415 0.09645028 0.0006324218 -0.023706874
000270 2b e4 42 be 0c 5f 42 be a4 cb 0f be 8b ea ae 3d
       -0.19032352 -0.1898157 -0.14042526 0.08540829
000280 a0 97 28 3e ab 38 c7 3d e2 a4 0f 3e 76 ce 8e bd
       0.1646409 0.097276054 0.14027742 -0.06972973
000290 cb b5 41 bd 55 26 7a 3e af 20 f5 bb b2 b6 17 bd
       -0.047292512 0.24428685 -0.007480703 -0.037039466
0002a0 65 f4 d1 3d 9e 8f 37 3d 9a 7c 86 bd 1b a6 42 bd
       0.10251693 0.0448147 -0.065667346 -0.04752169
0002b0 24 e1 06 bd dd df e0 bc 83 bf 80 bd 84 32 ce 3d
       -0.032929555 -0.027450496 -0.06286528 0.10068229
0002c0 7e c1 51 3e 5b 45 0f 3e 90 b9 f3 bd d6 86 7c be
       0.20483968 0.13991301 -0.119006276 -0.24660811
0002d0 14 65 7d be 14 6c a3 3d 2b fd 61 3e 89 38 43 3e
       -0.2474559 0.07979599 0.22069232 0.19064535
0002e0 dd 27 76 3e bb b3 88 bd 2e 84 02 3b 4a 30 cd bd
       0.24038644 -0.06674906 0.001991521 -0.10018976
0002f0 44 88 61 bd b5 58 26 3e 05 27 07 3e 3d e4 20 be
       -0.055061594 0.16244777 0.13198479 -0.15712066
000300 30 c9 c3 3d 03 fe 5a 3e f5 c8 67 3d 12 a7 16 3d
       0.09559858 0.2138596 0.056588132 0.036780424
000310 43 4c 08 3e 35 0c 72 bd 1f 24 a7 bd 96 e4 35 bd
       0.13310342 -0.059093673 -0.081611864 -0.04440745
000320 72 20 e7 3d d7 13 bc 3d 08 2e 2e 3e e9 57 32 3c
       0.11285485 0.09183472 0.17009747 0.010885217
000330 f8 17 01 be f3 7d b4 bd 6f 64 62 bd d2 7a 54 3e
       -0.126068 -0.088130854 -0.055271562 0.20749977
000340 27 0d 20 be 61 84 b5 bd f9 7c 27 3e 1c 5b 2d 3e
       -0.15630017 -0.0886314 0.16356267 0.16929287
000350 74 d2 72 bd e5 74 dd bd 73 e8 30 3e 5b 43 fb 3d
       -0.059282735 -0.108133115 0.17276172 0.122687064
000360 31 7f b2 bd da cd 21 3e e0 59 ad bd d2 f9 02 bc
       -0.08715666 0.15801182 -0.08464408 -0.007994132
000370 31 99 93 be 69 e4 21 3e 42 17 0e bd 64 08 ab 3d
       -0.28827813 0.15809788 -0.03469015 0.0835121
000380 ca bd c7 bd 62 03 ad 3c d0 f0 1b 3e 0c 5c 62 3e
       -0.09752996 0.021119777 0.15228581 0.22105426
000390 7f c6 1d 3e 20 d9 19 3e 54 a9 90 3e 2f 23 98 3d
       0.15407752 0.15024233 0.28254187 0.07428586
0003a0 43 b2 26 bd fb 7a f3 3d 67 58 34 be 7d ba b1 bc
       -0.040697347 0.11888691 -0.17611848 -0.02169537
0003b0 1e c4 1d be 34 05 5c 3e b5 45 25 be f4 30 14 be
       -0.15406844 0.2148636 -0.16139872 -0.14471799
0003c0 3d ee 0e be fb a6 77 3d 12 fe 6b bd b0 58 31 be
       -0.13958068 0.06046198 -0.057615347 -0.17318988
0003d0 79 8e b6 3b 7b 80 88 3e c0 0b 21 3e c1 7e 71 3e
       0.0055711833 0.26660523 0.15727139 0.23583509
0003e0 60 ec 58 3e b0 87 2e 3e 02 9d 1b be 4d 24 8a 3d
       0.2118392 0.17043948 -0.15196612 0.06745205
0003f0 91 f0 b9 be d9 a9 8c 3d cc d0 4d be ff 6d 5c 3e
       -0.3631635 0.06868333 -0.20099181 0.21526335

pool1.gnn.lin.weight f4 [1, 128]
000000 75 ca 11 3d 82 ef 2f 3d 0d cd 3d be 0c 3d e5 3d
       0.03559347 0.04295302 -0.18535252 0.111932844
000010 5d fb 0e 3e ac 15 37 3e d5 12 9b 3d cd e1 4c 3d
       0.13963075 0.17879361 0.07571951 0.050020028
000020 c4 77 c3 bd f7 cf 00 be 6e 37 ed bd bb 3d 21 be
       -0.09544328 -0.12579332 -0.11582838 -0.15746205
000030 15 21 bf 3d 2e 3a 80 bd 6c 5e 13 3c e3 71 2f be
       0.09332482 -0.06261097 0.00899468 -0.17133288
000040 c3 20 f8 bd 74 84 11 3e 87 01 20 be 23 d7 ab 3b
       -0.12115624 0.14210683 -0.15625583 0.005244152
000050 31 5f 36 be 7b 2b ae 3e cc 98 0b be e4 f7 53 3d
       -0.1780975 0.34017548 -0.13632506 0.05175008
000060 a2 6c 17 3d c9 50 b9 bc bd a8 98 3d 92 db 82 be
       0.036968835 -0.02262153 0.07454059 -0.25558144
000070 18 a3 53 3e 61 ec 58 3e cb 3e 12 be 58 ee 8b 3d
       0.20667684 0.21183921 -0.14281766 0.0683257
000080 de b9 70 be de 1e 74 bd 17 e8 21 3e 96 b5 b9 3d
       -0.23508403 -0.05959975 0.15811191 0.09067838
000090 1e aa 5d bc 29 1c 02 be 8c bc 0a bd 3c 6a 82 be
       -0.013529329 -0.12706055 -0.03387122 -0.25471675
0000a0 25 7c a7 3b 7f 12 6b 3e 7b 8c 15 3d 44 85 bb 3d
       0.0051112347 0.22956274 0.036510926 0.09156278
0000b0 83 ed 92 3d 67 09 8a bc 6f 81 90 3e 4d 7b 37 3c
       0.07174208 -0.016850187 0.2822375 0.011198831
0000c0 5e d7 50 be c3 0a d4 bc e6 be 9a bd 2d ad be bd
       -0.20394656 -0.025884038 -0.07555942 -0.093103744
0000d0 fe ee fd 3d 3d bc 67 3d 85 cb 81 bc 9e 06 6b bd
       0.123991 0.056576002 -0.015844116 -0.057379358
0000e0 5d bd 46 be 30 16 35 3e 72 e7 6f 3e da 4d 2d 3e
       -0.19408174 0.17684245 0.23428133 0.1692423
0000f0 7b dc c6 3c 23 82 05 3e 1a 6e 3e 3e 81 56 3f bc
       0.024275055 0.13037924 0.18596688 -0.011678339
000100 66 18 02 3e e3 a1 e7 3d 45 2f 10 3d 5c be a6 3d
       0.1270462 0.11310174 0.03520133 0.08141777
000110 85 bb 08 be 69 3a 50 be d0 19 08 3e 2a ee 23 3e
       -0.13352783 -0.20334782 0.13291097 0.16008821
000120 8a 25 c0 3d a7 31 14 be 1a f4 39 3d 05 f7 14 3e
       0.0938216 -0.14472066 0.04539881 0.14547355
000130 18 ce 54 3e dc b4 d7 3d 83 de 15 3d cc 42 7d be
       0.20781744 0.10532543 0.036589157 -0.24732512
000140 2e 6f dc 3c 3c 41 24 3e 32 42 0c 3e 10 90 01 be
       0.026908483 0.1604051 0.13697127 -0.12652612
000150 82 f0 b8 3d 96 94 93 3d 6e 28 78 bd a1 46 88 be
       0.09030248 0.07206075 -0.06058543 -0.26616386
000160 c2 fa 37 3e df d1 14 3d 92 8a 17 3e 40 15 1f 3d
       0.1796675 0.03633296 0.14798954 0.038838625
000170 4c 20 05 be 08 0a f9 bd ae 43 17 be ab 02 10 3e
       -0.13000602 -0.121601164 -0.14771912 0.14063518
000180 08 24 13 bd eb 6e 90 bd 78 74 03 bd e0 e0 73 bd
       -0.035923034 -0.07052406 -0.032093495 -0.05954063
000190 2a 8f 1c be 87 50 16 3e 14 69 ec 3d 65 dd 5e bd
       -0.15288988 0.14679156 0.115434796 -0.054410357
0001a0 6e 4a f6 bd ea 0e c8 3d ad d8 10 3e be e9 8b 3e
       -0.12025915 0.0976847 0.14145155 0.2732677
0001b0 4d 81 ae bb 81 c1 0e 3e 2d a7 09 3d ce 09 43 3e
       -0.0053254724 0.13941003 0.033606697 0.19046709
0001c0 29 5c 5b 3e 66 c9 3d 3e 5c 2e 8f 3d 51 2c 34 3d
       0.21421875 0.18533859 0.06991264 0.043987576
0001d0 58 5c 77 bd 76 a4 3a be 2e af cb 3d 04 ab 38 be
       -0.0603908 -0.182268 0.09945522 -0.18033987
0001e0 38 23 af 3d 78 8e 42 3e e9 c6 a2 3c 52 8e 8f be
       0.08551639 0.1899966 0.019870238 -0.2803827
0001f0 7b 49 1a 3e 00 29 0f bd da 29 6c bd 4b 63 44 3e
       0.15067093 -0.03495121 -0.0576571 0.19178502

conv2.bias f4 [128]
000000 89 17 45 3b de 35 8d 3d 5a c3 6f bc 5c f9 68 bc
       0.0030073842 0.0689504 -0.014633978 -0.014219608
000010 fe 06 1b 3c 07 45 2c bc 79 d8 0c 3d 6b 48 9a bc
       0.009462116 -0.010514504 0.034386132 -0.01883336
000020 34 b1 92 3c 3e 22 70 3d 92 c9 c2 3c ce 34 22 bb
       0.017906763 0.058626406 0.023777757 -0.0024750712
000030 cc 59 30 3b 34 1c ad bc 7b 29 08 3d 98 c1 b0 3c
       0.0026908992 -0.021131612 0.033242684 0.021576688
000040 55 7d 58 3c 41 0d 89 bb 07 9b 31 bc d0 f9 d9 3c
       0.013213475 -0.004182488 -0.010840184 0.026608378
000050 0e d6 5a 3d 99 e6 a7 3b 02 fa be 3c 89 6f b2 3c
       0.053426795 0.005123925 0.023312572 0.0217817
000060 7c d8 52 3b a9 4b 8c 3d b4 3a 84 bb a2 d4 cf 3c
       0.0032172492 0.068503685 -0.0040353183 0.025369946
000070 ed 1b 0a bc 1e db a9 3c 23 2e e2 bc 2a 21 d5 3c
       -0.00842951 0.020734366 -0.02760989 0.02601679
000080 d5 05 51 3c 68 56 7c bc 1f f9 9c 3d 05 aa 77 3c
       0.012757738 -0.01540146 0.076647036 0.015116219
000090 bf 3e 3d bc d8 94 33 bc 6f e2 cc 3c 0f 64 98 3b
       -0.011550604 -0.01096078 0.025010316 0.0046506
0000a0 c2 95 43 3d 26 fe f3 bb 29 56 6f 3c 1f 53 86 3c
       0.047750242 -0.0074460683 0.0146079445 0.016397057
0000b0 b1 e0 7e 3d 96 c8 da 3c a1 21 b7 3b 12 de 11 bc
       0.062226 0.026706975 0.0055887257 -0.008903043
0000c0 35 7a 0f 3c ad 2d 3d 3d 5a aa 63 3c 01 33 0b 3c
       0.008757164 0.046186138 0.013895595 0.008496047
0000d0 70 67 d3 3c 5f 5d e9 bc a4 a2 db 3b 7a 5f 95 bc
       0.025806159 -0.028486906 0.006702738 -0.018234003
0000e0 ba 2d d0 ba 80 d0 23 bc 95 38 d7 3c 63 39 1f 3c
       -0.0015882768 -0.009998441 0.026272098 0.009718272
0000f0 28 c1 da bb 9b 55 41 3c 47 a9 78 3c ba 1d 8f 3d
       -0.006675858 0.011800195 0.015177078 0.06988092
000100 b7 12 36 3c 6c e1 d9 3b e2 cd 66 bc e9 fc 91 3a
       0.01111286 0.006649187 -0.014087172 0.0011137995
000110 a0 c2 3a 3d a4 6e 0e 3c aa 7e 31 bc ce 64 11 3d
       0.045595765 0.008693371 -0.010833422 0.035496525
000120 7a 18 2b 3d 00 53 bd bb 43 09 6d bc fc 26 17 3c
       0.04177139 -0.0057777166 -0.01446754 0.009225603
000130 2d be 59 bc ea fb 45 bc 38 bb ee 3c 5b 87 6d 3d
       -0.01328997 -0.012083987 0.029142007 0.057990413
000140 b3 10 97 bc 81 9d 10 bb 6e b6 28 3d 6a ec 51 3d
       -0.01844058 -0.0022066536 0.041189604 0.051250853
000150 a1 50 fa bb bf 49 4e 3c a9 45 c5 3c bb 28 9d bc
       -0.0076390062 0.012590825 0.024081068 -0.01918446
000160 07 2f 0b bb 89 f3 60 bc 59 5a e2 3c 0a 69 66 3d
       -0.0021237747 -0.013729938 0.027630972 0.056252517
000170 7b c3 53 3c b3 6f 48 3c 92 b7 8d 3c 4a 62 8d 3d
       0.012925024 0.012233662 0.017299447 0.06903513
000180 2d bd 17 3d c5 6b aa bb 51 67 93 bc 41 96 b1 3d
       0.037045646 -0.0052008354 -0.017993601 0.08671237
000190 cf a2 5a bc 1a e1 a7 3b 32 76 96 3d 78 72 91 bc
       -0.013344481 0.0051232697 0.07346763 -0.017754778
0001a0 dc e8 f7 3c ba 17 88 3d f5 9f 8f 3d 51 66 f0 3b
       0.030262403 0.066451505 0.07012931 0.007336416
0001b0 86 28 b9 bc 8b 77 8f 3d 49 da 6a bc 24 5e 9b 3d
       -0.02260233 0.07005223 -0.01433427 0.07586315
0001c0 9a 81 96 3c ca 3a 99 3d 98 8b 89 3d 65 4c d6 3b
       0.018372346 0.07481916 0.067160785 0.0065398687
0001d0 22 c8 a0 ba 23 1b 16 3a d6 cf d7 3c d4 4c cb 3c
       -0.0012266675 0.00057260896 0.026344221 0.024816908
0001e0 c7 d9 8e 3c 00 06 8f 3d 8c 65 14 bc 11 a0 63 bc
       0.017437829 0.06983566 -0.009057414 -0.013893143
0001f0 02 1e 7d bc 1d bb 2a bc 88 94 c7 bb 08 f1 23 3d
       -0.015449049 -0.010420588 -0.0060907044 0.040024787

conv2.lin.weight f4 [128, 128]
000000 cd 18 12 3e 91 b0 0b be cd 6c de bd 78 4e a9 3d
       0.14267273 -0.13641573 -0.10860596 0.0826692
000010 a5 b2 07 bb 50 60 89 bd 36 5c b3 3d 91 f0 1c 3d
       -0.0020705846 -0.06707823 0.08757822 0.03831536
000020 2d 65 d0 3d b3 63 80 3d 39 b2 54 3d 77 31 4a 3d
       0.10175548 0.06269016 0.05192778 0.04936358
000030 b5 fb f5 3d 6c 47 46 bd ab 44 91 3c 94 74 49 3d
       0.120109 -0.048407957 0.017732939 0.049183443
000040 ef b4 ab 3d ed f5 88 bd 86 e5 a5 bd 80 c0 d5 3b
       0.0838412 -0.066875316 -0.08100419 0.006523192
000050 e2 38 8d bd ac 56 3d 3e 17 47 91 3d 42 8c 07 3e
       -0.06895615 0.18490094 0.070936374 0.13237098
000060 e1 c7 07 3e 38 65 c2 3d 59 c5 ef bc 1e fd 96 3d
       0.13259842 0.09491962 -0.029268907 0.07372497
000070 56 d2 12 3e 54 cf 91 3c ff c9 12 3e 89 72 74 3c
       0.1433805 0.017799057 0.14334868 0.014919885
000080 1a 24 d3 3d ce 99 e7 3d c1 91 17 3e f6 87 b1 bd
       0.1030962 0.11308633 0.14801694 -0.086685106
000090 4c 17 1c 3e fc 5a 40 3e 9b ff 30 3d 37 c8 ec 3c
       0.15243262 0.18784708 0.043212514 0.028904064
0000a0 f4 b0 06 bd da dd c6 3d d9 0c 59 3d 29 4c d8 3d
       -0.0328836 0.097102836 0.052990768 0.105614014
0000b0 6d 9b 6d bd f8 89 20 3e 94 7f 1c 3e dc 38 e2 3c
       -0.058009554 0.15677631 0.15283042 0.027615003
0000c0 c4 6a 8c 3d 2d 2a cd 3c 6e d7 d6 bd d0 be ce bc
       0.068563014 0.025044525 -0.10490309 -0.02523747
0000d0 58 92 43 3d f5 7d b8 bb 4e d4 02 be 2e b4 40 3d
       0.047746986 -0.0056302496 -0.127763 0.047046833
0000e0 45 17 ba bc dd cc 47 bd 08 87 73 bc 99 7f e2 3d
       -0.022716174 -0.048779357 -0.014863737 0.110594936
0000f0 3b 81 4c 3e cc 5c 9d 3c 1c 81 0c 3e f7 0e 08 3d
       0.19971173 0.019209288 0.13721126 0.033217397
000100 50 56 06 be 9e 94 0b 3e 4d 55 13 3e 4d b0 b7 bc
       -0.13118863 0.13630912 0.14388008 -0.022422934
000110 1f 54 80 3c 65 c2 a0 bb 37 ea bc bd 18 a4 88 3d
       0.015665112 -0.004905986 -0.092243604 0.066719234
000120 6e 30 60 bd cc 88 ae bc 49 ec 09 be b2 93 29 3d
       -0.054733686 -0.021305464 -0.13469042 0.04140062
000130 e6 82 af bd b9 33 89 3d d2 91 ab 3d ed 48 b8 bc
       -0.08569889 0.066993184 0.083774224 -0.022495711
000140 47 ef 89 3d c1 b1 20 3d ef f1 43 bd b5 a0 d5 3d
       0.06735092 0.03923202 -0.047838148 0.10431043
000150 a6 2c f4 3c 35 72 0d 3d 38 84 4e bd 70 c4 92 bd
       0.029806446 0.034532744 -0.050419062 -0.07166374
000160 77 c7 92 bd cc 87 a8 bd 69 05 93 3d a1 aa d1 3d
       -0.07166951 -0.08229026 0.07178766 0.10237623
000170 d5 d9 33 3e bc b6 0b 3d aa d0 5a bc d3 da db bd
       0.17563565 0.034109816 -0.013355413 -0.10735097
000180 48 a9 be 3b 5d fc 57 3d e1 a0 06 3e ae b9 2a ba
       0.0058185197 0.052730907 0.13147308 -0.0006512654
000190 07 8e 63 3d b8 b2 01 3e 33 d4 92 bd e2 1a de 3a
       0.05555537 0.12665832 -0.0716938 0.0016945268
0001a0 86 a1 d4 bd 31 7b fc 3c 80 13 b1 bd 72 a4 9e 3d
       -0.10382371 0.030820461 -0.086462975 0.07746209
0001b0 ea 14 c8 bd e9 de 15 3e 1d ba e6 bd 85 23 c4 3d
       -0.09769614 0.14635815 -0.11265967 0.09577087
0001c0 ca 7b b1 3d ec 2d 5f 3d 8e 12 4c bd 54 01 27 be
       0.08666189 0.054487154 -0.049822383 -0.163091
0001d0 c5 a8 35 bd 0c d5 a0 bd 94 48 bb 3d 6a 5f b5 bd
       -0.044350404 -0.078531355 0.091447026 -0.088560894
0001e0 c6 e9 be 3d 10 52 fb 3c 9e 59 c3 3d 33 82 01 be
       0.093219325 0.030678779 0.095385775 -0.12647323
0001f0 05 ba 12 be 04 86 6b bd d8 45 55 3c 64 16 ab 3d
       -0.14328773 -0.057500854 0.01301714 0.0835388
000200 27 a0 cb 3c c4 de 0b be d4 37 be bd 6d 58 ca bd
       0.02485664 -0.13659197 -0.09287992 -0.09880147
000210 a7 bb e1 3d bb aa d5 3d 79 91 8a bd 55 50 c6 3d
       0.1102212 0.10432955 -0.06766028 0.09683291
000220 2e 74 fd 3d 5e 36 31 3d dc 9b 3a 3d 80 7b fe bd
       0.12375675 0.04326474 0.045558795 -0.124258995
000230 dd 0f e2 bd 80 c7 35 3d b0 9b 81 3d 73 13 77 bd
       -0.11038182 0.04437971 0.06328523 -0.060321283
000240 8f 09 74 bd 8f 91 c4 bd 9d b9 a7 bb 25 0f 17 3e
       -0.05957943 -0.095980756 -0.0051185624 0.14751871
000250 a5 ab 8b bd b2 19 d5 3d a8 10 dd 3d f3 bb 39 be
       -0.06819848 0.104052916 0.107941926 -0.18138103
000260 76 d8 9b bd 3e 03 91 bd 11 dd 55 3e ab 80 23 ba
       -0.07609646 -0.070806965 0.20885111 -0.00062371296
000270 ff 5e ab bd 44 9e 26 bd 15 42 39 3d 76 08 14 be
       -0.083677284 -0.040678278 0.045229036 -0.14456353
000280 9e f5 23 be 04 f5 1b 3e 8a bc 2a 3e e2 f5 68 bd
       -0.16011664 0.15230185 0.16673484 -0.056875117
000290 2f 69 70 3d b2 7e 7d 3c 82 ea eb bd 79 0b 82 bd
       0.05869406 0.015472101 -0.11519338 -0.063498445
0002a0 75 08 3b bd f0 a0 d4 bd ab 0e c7 bd a7 eb 36 3e
       -0.045662362 -0.10382259 -0.097195946 0.17863332
0002b0 66 ef b5 bd fe 90 04 3d 46 3c 7e bd 4a e2 09 3b
       -0.08883552 0.032364838 -0.0620692 0.002103942
0002c0 df 6a d2 bc e0 7f 82 bd fb d2 ed bd ff c4 06 3d
       -0.025685726 -0.063720465 -0.11612507 0.032902714
0002d0 df 84 37 bd 8b 81 b6 bd f7 d8 53 3d be de 95 3c
       -0.04480445 -0.08911427 0.051720586 0.018294688
0002e0 4f 96 58 bd d2 29 49 bd 6d 96 39 3d 81 09 44 bd
       -0.05287772 -0.04911215 0.045309473 -0.047860626
0002f0 64 e8 65 3e 00 57 d5 bd d5 88 02 be 4b 81 83 bd
       0.22451931 -0.104169846 -0.1274751 -0.06421145
000300 3a a3 f5 bd eb 0c be bd f5 41 33 3d 7d 13 44 3d
       -0.119940236 -0.09279808 0.043764073 0.047870148
000310 2a c4 12 3e 63 e6 42 be 46 40 26 3d 5b 63 1c 3e
       0.14332643 -0.19033198 0.04058864 0.15272276
000320 7b 98 b4 bd 03 a7 13 3d 0c 43 bb 3d 12 7a d6 3d
       -0.08818146 0.036047947 0.091436476 0.10472502
000330 0c 46 89 bd 6f 69 95 bc 78 89 be bd 3f cd 3a be
       -0.067028135 -0.018238751 -0.09303564 -0.18242358
000340 f2 fc 5b bd 86 79 aa 3c 28 90 00 3e d4 40 36 be
       -0.053708024 0.0208099 0.12554991 -0.17798167
000350 42 c1 32 be f2 37 40 3d bf 40 86 bd b7 60 41 be
       -0.17456535 0.046928354 -0.06555318 -0.1888455
000360 4a 4a dd 3d 31 ef d2 3d 91 ec 3a bd ff 81 8f 3d
       0.10805185 0.102995284 -0.045635764 0.07007217
000370 30 dd fe 3d 8d 0b 5a 3d c1 f8 b2 3d 26 19 02 3e
       0.12444532 0.053233672 0.08738852 0.12704906
000380 70 e1 9a bd 7d e3 ba bc 4e 79 8d 3c 1e a7 ff 3d
       -0.0756253 -0.022813553 0.017269757 0.12483047
000390 83 10 c6 bd c4 ec f0 3d 3e 8f fb bd 1c 80 af bd
       -0.09671118 0.117639095 -0.12283181 -0.08569357
0003a0 e5 bb fa bd b2 8a c2 3d 7e f9 72 3d bd 1d f4 bc
       -0.12242869 0.0949911 0.059319966 -0.029799337
0003b0 b6 81 e1 bd 8a 79 24 be e2 8b a2 bc 13 31 bc bd
       -0.110110685 -0.16061988 -0.019842092 -0.09189048
0003c0 a4 a6 9b bd 8a a1 10 be 46 c9 de bd e7 15 ac bd
       -0.076001436 -0.14124122 -0.108782336 -0.08402615
0003d0 aa 13 15 be 9f 86 3a bd 5c 95 c9 bd 57 93 81 3d
       -0.14558282 -0.04553854 -0.09842941 0.06326931
0003e0 f7 75 b3 bd d2 b1 45 3d 5b ab d7 3d 4e ac f7 bc
       -0.087627344 0.048265286 0.1053073 -0.030233528
0003f0 84 dd 66 3a 5a 83 e8 bd 3d 45 82 3d b6 de aa 3d
       0.0008806812 -0.11353178 0.063608624 0.0834326

pool2.gnn.lin.weight f4 [1, 128]
000000 b7 45 e6 ba db 0b 5a be df 42 83 bd 0d 7c 2e 3e
       -0.0017568384 -0.21293585 -0.06409239 0.17039509
000010 6f 77 91 bd 6a 3a 73 bd 87 30 58 be 7d 2c c6 bc
       -0.07102858 -0.05938188 -0.21112262 -0.024191136
000020 6f 49 f7 bd 11 4e 0b bd 31 0d 5d be 5b d2 a1 3d
       -0.12074553 -0.034009997 -0.21587063 0.0790145
000030 2b b7 6c 3d d8 c3 91 3d ed 82 c7 3d 6c 38 34 3e
       0.05779187 0.07117432 0.09741769 0.17599648
000040 1f c5 4d be 6c dd 58 3d ee 5a ee 3d 02 1b 22 be
       -0.20094727 0.05294554 0.11638437 -0.15830615
000050 36 50 28 bc fc 38 bd bb 9c 32 b6 bd 24 5e c6 bd
       -0.01027303 -0.0057746153 -0.08896372 -0.09685925
000060 2f d3 4b 3d 7f 9d 08 bc f6 14 06 3c c7 e8 50 bd
       0.049761947 -0.008338331 0.008183708 -0.051003244
000070 5b ce 4c 3e 48 bb 3a be ce a3 c9 3d 61 3b 76 be
       0.20000593 -0.18235505 0.098456964 -0.24046089
000080 7f ba da bd f7 77 2a 3c 48 91 05 be 4b eb 0f be
       -0.106801026 0.010404578 -0.13043702 -0.14054601
000090 7e 0e 79 3c 2a da 1e 3e 4b 67 9c bd 31 67 07 3e
       0.015201209 0.1551291 -0.07636889 0.13222958
0000a0 2f 31 04 3d f8 05 43 3e c4 31 0b be fc cc 26 bd
       0.032273468 0.19045246 -0.13593203 -0.040722832
0000b0 52 c4 7c bd 2f d8 13 be 6a 7c 0a bd f1 76 98 3d
       -0.061710663 -0.14437936 -0.033810057 0.07444561
0000c0 be e9 2d be 7b a2 20 bc 5c 1a 91 bd ee 4d 2d be
       -0.16983697 -0.009804363 -0.07085106 -0.16924259
0000d0 1d 77 c7 bd be d1 1b 3e 9f 82 2a be bf d2 92 3d
       -0.09739516 0.15216729 -0.1665139 0.07169103
0000e0 9c e9 ce bc 9f 1a 45 bd 95 09 60 be 47 79 d1 bd
       -0.025257878 -0.04812109 -0.21878655 -0.1022821
0000f0 33 a1 8c bc 2f ac 81 bd fb 9a 13 3e 99 fa 96 be
       -0.01716671 -0.063316695 0.14414589 -0.29488066
000100 71 24 ad bd a6 f0 13 3e 17 a9 c5 bd a8 b5 9b 3c
       -0.08454216 0.14447269 -0.09651392 0.019007519
000110 62 75 28 bd eb 2f 49 bd 1f ba d9 3d 80 15 6e be
       -0.04112757 -0.049117964 0.10631203 -0.23250389
000120 02 e0 0a bd d4 58 57 be 7f 8d 85 3d 04 ce 00 3d
       -0.033905037 -0.21029979 0.06521129 0.03144647
000130 e3 69 1f 3b 97 8b 0c 3e 9c 94 cf bd 5c 9a f9 bd
       0.0024324588 0.13725124 -0.10135767 -0.12187645
000140 15 38 46 3e 5a 44 8f 3d 17 3f 48 3d 50 05 d0 bc
       0.19357331 0.06995459 0.048888292 -0.025393158
000150 83 35 30 be 50 27 10 be ca 77 40 3e f1 23 c2 3c
       -0.17207913 -0.14077497 0.18795696 0.023698779
000160 2f a8 30 bc 7e 30 fa 3d 30 02 6d be ee 50 17 bd
       -0.010782286 0.122162804 -0.23145366 -0.036942415
000170 57 e9 f0 3d b1 8c 44 be 91 b6 b0 bd 57 75 91 be
       0.11763256 -0.19194295 -0.08628572 -0.28409836
000180 17 82 38 be 8f ee c7 3d d9 a0 10 3e 4f c8 b9 bd
       -0.18018375 0.09762298 0.14123859 -0.09071409
000190 b8 d8 21 be 94 29 da bd 00 9f 25 be d8 7b fd 3d
       -0.15805328 -0.10652462 -0.16173935 0.12377137
0001a0 79 eb 41 bd 4f 7b 21 be 96 d6 96 be f0 39 f6 bb
       -0.047343705 -0.15769695 -0.2946059 -0.007514231
0001b0 33 f3 d1 3d 48 46 3d be f1 c7 3b 3e cd 1b e7 bc
       0.10251465 -0.18483841 0.1833799 -0.028211499
0001c0 0a ab 3d bd aa 94 90 be af a3 0e 3d 9a 44 12 bb
       -0.046305694 -0.28238422 0.03482407 -0.0022318722
0001d0 b7 87 d2 bc 1f 54 84 bd 64 30 7e be fd 8a 15 be
       -0.02569948 -0.06461357 -0.24823147 -0.14603801
0001e0 89 38 22 be db 3a d0 bd c5 2a 2d 3e 1e 54 3e 3e
       -0.15841879 -0.10167476 0.16910847 0.18586776
0001f0 bc 25 44 3d 71 70 3b 3d a9 f4 09 3e 26 0c af 3d
       0.04788755 0.04576153 0.13472237 0.08547239

conv3.bias f4 [128]
000000 e1 00 11 3c 2a c6 63 3c 27 0a 09 3c 80 a3 55 3c
       0.008850307 0.013902226 0.008364237 0.01303947
000010 63 5c 87 3c 48 68 10 bc f5 1f 5e 3c a7 6d 80 bc
       0.016523546 -0.008813925 0.013557424 -0.015677286
000020 d4 cf 5c 3c dc 7a 94 bc d5 18 d7 3c 25 f7 aa 3c
       0.013477284 -0.01812499 0.026256958 0.0208698
000030 fb c7 ad 3c 0d 71 4d 3c 89 ea 2f 3d c4 b6 6f bc
       0.021213522 0.01253916 0.04294828 -0.014630977
000040 63 a2 f1 ba 43 57 26 bc 3b c6 08 3c 95 5d 8b 3c
       -0.0018435236 -0.010152641 0.008348043 0.017012397
000050 07 60 ec 3c 3a 04 05 3b 5b 5e aa bc fc 26 91 3c
       0.028854383 0.0020296709 -0.020796945 0.017718785
000060 a1 3c 66 3c ef e1 83 3b d5 d7 94 bb 06 43 73 3c
       0.014052541 0.004024736 -0.0045423307 0.014847523
000070 e8 c8 1f 3b 13 c6 8a ba c9 45 4b bc 99 75 51 ba
       0.0024381224 -0.0010587595 -0.012406775 -0.00079902407
000080 4f 82 c6 3c d1 af 06 3b d6 62 2c 3c a3 37 44 3c
       0.024232058 0.0020551572 0.010521611 0.011976155
000090 cc 9c 96 3c cb bc 8d 3c 48 4a b2 3c 01 a5 ac 3c
       0.018385313 0.017301938 0.021763936 0.021074774
0000a0 77 4a 84 bc ff 83 17 3d e4 9d ac 3b 4e 60 fe 3b
       -0.016148789 0.036991116 0.0052678455 0.0077629453
0000b0 6f 35 d0 3c c8 e4 80 3a 5e 85 3c bb 00 3c 37 bc
       0.025416104 0.0009833807 -0.0028766016 -0.011183739
0000c0 df 0e d7 bb 5b cd 43 bc 08 94 85 3c 02 85 cd 3c
       -0.006563052 -0.011950816 0.016305938 0.025087837
0000d0 95 df 25 3c 1c b1 25 bb 83 6d 97 bc 57 32 56 3b
       0.010124107 -0.0025282567 -0.018484836 0.0032683813
0000e0 5e 34 80 bb 70 de 81 3c f7 e3 e6 3c d8 3e 36 3c
       -0.0039124927 0.015853137 0.028184874 0.011123382
0000f0 a1 4d 20 bc 78 d7 14 3c 1b 7d 02 3d 84 35 91 39
       -0.009784133 0.009084575 0.03185759 0.00027696427
000100 4c e8 65 3c 92 1f 20 bc 34 5d 49 3c 0c 4f 6a 39
       0.014032435 -0.009773152 0.012290288 0.00022345426
000110 c6 e3 37 3b a0 a5 97 bb 6e 68 f0 bb d6 33 60 bc
       0.0028059348 -0.0046278983 -0.0073366677 -0.013684234
000120 cd 3d 27 3d 19 1e 6e bc 67 dc 18 bb f9 0e 78 bc
       0.040830422 -0.014533543 -0.002332473 -0.0151402885
000130 f1 21 a4 3c 81 1b eb 39 b1 c7 93 3b f1 c1 77 3c
       0.020035716 0.00044843185 0.004509889 0.015121923
000140 3c e3 8d bc 79 80 7b 3c db 54 ae 3c 8a d3 fd 3b
       -0.017320268 0.0153504545 0.021280697 0.0077461647
000150 bd 3f 97 ba fa c2 86 bc 5f 5d f5 bc 68 be 8f 3c
       -0.0011539381 -0.016450394 -0.02995175 0.017546847
000160 21 6b 9d 3b fa d5 f9 3c 05 2d d0 3b da fc 76 bb
       0.0048040305 0.03049754 0.006353023 -0.0037687332
000170 ff 02 0f ba 4d 01 0f bb e5 dc ae 38 ff a3 14 bd
       -0.00054554635 -0.0021820844 8.3381114e-05 -0.03628921
000180 0e 79 06 bd 0e c2 9c 3c 83 c9 6c 3c 28 01 f9 3c
       -0.03283029 0.019135501 0.014452341 0.03039606
000190 2a e9 19 bc 25 3a 74 ba 6e 8e 6d 3c 3d c5 da bb
       -0.00939397 -0.00093165255 0.01449929 -0.0066763447
0001a0 19 70 a8 3c 33 65 f1 3c 08 d5 a2 bc 1c fa 6e bc
       0.020561265 0.0294672 -0.019876972 -0.014585998
0001b0 71 40 21 bc 04 bb ce 3c 57 e4 20 bd 59 3d db bc
       -0.009842024 0.02523566 -0.03928026 -0.026762651
0001c0 9c ce b2 3c 52 2d d8 3c 91 d6 3b 3d 6d 19 0d 3d
       0.021827035 0.026388798 0.045858923 0.034448076
0001d0 06 66 0b bb ed 3e c3 bc ae 7d 2d 3c 5d 56 ca 3b
       -0.0021270528 -0.023833716 0.010589046 0.006174846
0001e0 b0 30 98 bb 6e d2 3f bc 58 f6 4d 3b ac ef 8a 3c
       -0.004644476 -0.011707885 0.003142735 0.016959988
0001f0 c9 c6 dd 3b 8b 8a 41 bc de a7 26 3c 13 1d 85 bb
       0.006768082 -0.011812816 0.010171859 -0.004062304

conv3.lin.weight f4 [128, 128]
000000 b3 63 37 3d 9b 60 97 3d 37 29 1a be 54 44 0a 3c
       0.044772815 0.07391473 -0.15054785 0.008439142
000010 48 d2 19 bc f6 5d f0 3d 9e 8d 15 be 5a e4 91 3d
       -0.009388514 0.117366716 -0.14604804 0.07123633
000020 cb 92 e9 3d 95 76 85 bd 3c e4 95 3d 0f ef 3c bd
       0.11404952 -0.06516758 0.07318923 -0.04612642
000030 ee 0d 1f be 6b 3a 2a bb 2f 20 e7 3a 32 65 d3 3d
       -0.15532658 -0.0025974761 0.0017633493 0.10322036
000040 47 3e f7 3d ef 5e b0 3c a6 8e e8 bd 07 9a 9a bd
       0.12072425 0.021529643 -0.11355333 -0.0754891
000050 7e 53 b3 ba d9 c0 ab bd ea 52 08 3e 93 16 28 3d
       -0.0013681499 -0.08386392 0.13312879 0.041037153
000060 65 3f 6c 3d 67 8a 66 3d b6 da 73 bd fb 43 2c 3d
       0.057677645 0.056284335 -0.05953475 0.04205702
000070 13 cd 93 3d 94 61 6d bd 63 81 34 be e8 33 ed bd
       0.07216849 -0.057954386 -0.17627482 -0.11582166
000080 50 d5 ae bb e3 29 58 3d cf 3e 2c 3d f7 14 f6 3d
       -0.0053354874 0.05277432 0.042052086 0.120157175
000090 22 44 8f 3c c2 aa d1 3d c5 70 45 bd f7 da 72 bd
       0.017488543 0.102376476 -0.04820325 -0.059290852
0000a0 b5 54 02 be 4f e7 1c 3e c2 56 88 3c 70 18 de 3d
       -0.12727626 0.15322612 0.016642932 0.10844505
0000b0 bc ae eb bd a5 4f d1 bc 19 9a 8b bd 80 38 7f 3d
       -0.11507937 -0.025550673 -0.06816501 0.062309742
0000c0 cc cd e4 bc 90 6c f1 bd 4c 34 25 be 1b e8 2a be
       -0.027930163 -0.11788285 -0.16133231 -0.16690104
0000d0 06 4e 49 3d 5a ff c5 bc c7 e1 2a be f8 1a c8 3b
       0.049146675 -0.024169613 -0.1668769 0.0061067306
0000e0 a8 70 b3 3d 09 42 ee 3d 1a 03 6c 3d 1b a1 96 bd
       0.08761722 0.11633689 0.057620145 -0.07354947
0000f0 2d 51 cc bd e3 85 1f be c2 bb 0e 3e 4c 9b 2c be
       -0.099764206 -0.15578417 0.13938811 -0.16856116
000100 8c 3d d2 bd 7b 79 6b 3c 05 ef 10 be 3d 5e 0b be
       -0.102656454 0.014372225 -0.14153679 -0.13610168
000110 7d 93 34 bd 17 a5 23 be d8 4f 6d bd 99 7d 19 bc
       -0.04408597 -0.15980946 -0.057937473 -0.009368324
000120 ea 57 4f 3c 3a 25 a5 3c 3c 06 a9 bd 70 d6 3b be
       0.012655238 0.020159353 -0.08253142 -0.1834352
000130 b0 2c 5f 3d d9 2e 46 3d ad bc d6 bd 3b f6 41 3d
       0.054485977 0.04838452 -0.10485206 0.047353964
000140 13 82 91 bc ac 8c bf 3d 3d 43 21 bd 9b 16 ca bd
       -0.01776222 0.09353003 -0.039370764 -0.09867593
000150 22 c5 f3 3d 14 0f 9a bd ac 7e 67 bc 7b 0f de 3b
       0.119028345 -0.07522407 -0.014129322 0.0067767478
000160 ca 01 9f bc 52 47 69 3d d4 b7 88 3d f8 bc 8f bd
       -0.019410033 0.056952782 0.066756874 -0.07018465
000170 d6 f7 72 b9 7a 06 00 be 6c 57 06 bd 50 de 62 3d
       -0.00023171245 -0.1250247 -0.032798216 0.055387795
000180 4f 98 0f be 17 8d fc ba 30 c8 01 3e 38 b9 11 be
       -0.14022945 -0.0019268122 0.12674022 -0.14230812
000190 21 27 53 3d 8d b8 50 bd df 95 48 be 50 c6 ca bd
       0.051550988 -0.05095725 -0.19588421 -0.09901106
0001a0 36 4b d2 3c e0 cb cc bd 73 d3 6d 3c 5a e6 f3 bc
       0.025670629 -0.099998236 0.014515745 -0.029772926
0001b0 b9 86 8f ba 9a 97 0a 3d 00 6a 3e bd b2 06 20 be
       -0.0010950185 0.033835985 -0.04648781 -0.15627554
0001c0 79 37 50 bd 28 ce 35 bc 65 21 12 3d 31 8d 10 3e
       -0.050834153 -0.011096515 0.03567638 0.1411636
0001d0 de 7a cb 3d a4 73 ec 3d 01 3c 0f be 95 1b 97 3c
       0.099355444 0.11545494 -0.13987733 0.01844577
0001e0 46 9e 88 bd 13 33 12 be 67 a9 07 3e f9 a8 b8 3c
       -0.06670813 -0.14277296 0.13248216 0.02254151
0001f0 3f 04 8f bc 0f 55 a9 3d f8 d1 99 3d 60 a2 d4 bd
       -0.01745808 0.08268177 0.075107515 -0.10382533
000200 e1 0c da bd 26 63 45 be f7 23 a8 bd cf c9 f4 bd
       -0.10646988 -0.19276103 -0.08209985 -0.119525544
000210 4a a3 a5 bd d0 95 40 bd 06 ca f1 3d 71 2c c7 3d
       -0.080877855 -0.047017872 0.11806111 0.097252734
000220 9d 67 dc bd 8a e4 56 3d 0c ab 85 3d 3e a4 c2 bb
       -0.1076195 0.052464046 0.06526765 -0.0059399894
000230 a8 c2 8a 3c 6d ec a5 3b 8e 5e 51 be af 55 f2 bd
       0.016938522 0.0050635845 -0.20446226 -0.11832749
000240 cb f1 c1 bd b6 a5 f7 bd a6 0c f5 bd 7a 6f 75 3d
       -0.094699465 -0.12092154 -0.11965303 0.059920765
000250 d3 3e 2e 3d 15 75 0d be f6 ec ec 3d 10 62 07 3e
       0.042540383 -0.13814195 0.11568634 0.13221002
000260 6e e5 48 3c aa fa 47 be fc e7 25 be 16 1b 83 3c
       0.012261732 -0.19529215 -0.16201776 0.016004127
000270 5a 2a ec bd fe 68 da 3d e6 35 3d be 45 f7 e5 3d
       -0.115315154 0.10664557 -0.18477592 0.112288035
000280 35 c9 fa bd 93 b0 ff 3d ad f5 30 be 5f d1 a6 bd
       -0.122454084 0.12484851 -0.17281218 -0.08145403
000290 07 6f e8 bd 05 cb ab 3d 07 72 74 bd 91 3d 00 3d
       -0.11349302 0.08388332 -0.059679057 0.031308714
0002a0 8a c7 e0 b9 98 bb 5b bd 86 59 1f bd 1d de b0 3a
       -0.00042873278 -0.0536457 -0.038903736 0.0013493929
0002b0 0d 97 39 3d df 24 8f bc 1b 59 c3 bc bf 36 3f bd
       0.04531007 -0.017473636 -0.0238462 -0.04668307
0002c0 f5 bd 63 bd 21 b0 33 be cb 2d 0a 3e ea 48 db bc
       -0.05560108 -0.17547657 0.13494031 -0.026768167
0002d0 d9 8a 0e 3c 8b 73 e4 3d 52 20 01 3e d0 67 e7 bd
       0.008700096 0.111548506 0.12609985 -0.112990975
0002e0 51 da 25 bc 83 d6 28 be 67 ff 14 bd 40 fe 02 be
       -0.0101228515 -0.1648808 -0.036376383 -0.12792301
0002f0 59 de bc bd 02 6c 27 3d c6 65 f9 3d f5 81 e2 bc
       -0.09222097 0.04087449 0.12177615 -0.027649859
000300 e1 85 0f be a1 f6 a4 bc 4a b8 ac bd e9 98 7e bd
       -0.14015914 -0.020137133 -0.08433588 -0.062157545
000310 f3 8c 01 be 12 f4 f2 bd 74 ba 01 3e 5a 54 0e be
       -0.12651424 -0.11862959 0.12668782 -0.13899365
000320 6d 14 34 be 9c 08 1b 3e 2b 34 7a 3d 63 a3 1f be
       -0.17585917 0.15140003 0.061084908 -0.15589671
000330 01 d3 57 bd 33 f0 58 3d bd 33 1a be e7 26 fa 3b
       -0.052691463 0.052963447 -0.15058799 0.007634032
000340 95 c6 67 3d 2a 0d e2 3d 46 b5 2a be 89 6e c5 3d
       0.056585867 0.11037667 -0.16670713 0.096402235
000350 68 95 98 bd f4 5d e5 3d ea 53 b6 3d f8 5e c5 3d
       -0.07450372 0.11199561 0.08902724 0.096372545
000360 de fd b4 3c 17 f7 9c 3c 7f c3 e1 3d 88 c6 94 bd
       0.02209371 0.01916079 0.11023616 -0.07264429
000370 ed 0c 8d 3d 83 cb 14 3d 0c c0 85 bd 88 e0 23 be
       0.06887231 0.036326896 -0.06530771 -0.1600362
000380 a5 c6 49 3d 36 f7 4b bd e2 99 19 bd 7e 6c b4 bd
       0.049261708 -0.049796306 -0.03750027 -0.08809756
000390 af 21 42 bd d4 20 99 bd 8f ee 10 3d e2 45 fd bd
       -0.047395404 -0.074769646 0.035383757 -0.12366845
0003a0 07 04 28 3d 73 89 89 bc f7 92 5b 3d 63 8c 7b 3d
       0.041019466 -0.016789174 0.053606953 0.06141318
0003b0 07 61 b5 bc a2 b5 91 3d 18 82 0e be 4a ca 48 3c
       -0.022140993 0.07114722 -0.13916814 0.012255261
0003c0 19 85 cd bd 51 c1 12 3d 79 c9 3b be cd 64 e0 3d
       -0.10035152 0.035828892 -0.18338574 0.10956726
0003d0 28 b5 a3 bc 14 3c fc bd d3 22 7b 3d 25 ff 13 3d
       -0.019983843 -0.123161465 0.061312508 0.036131997
0003e0 83 2a 06 be b9 6c eb 3c 7e 14 af 3d ea 29 f8 bd
       -0.13102154 0.028738366 0.085488304 -0.121173695
0003f0 24 79 f3 bd a6 96 ae 3d 8b e0 c5 bd 1d 2c f0 3b
       -0.1188834 0.08524828 -0.09661969 0.0073294775

pool3.gnn.lin.weight f4 [1, 128]
000000 e7 89 b5 bd 7f 5a 3f be 6c a7 dc bc 99 a1 7e bb
       -0.088641934 -0.18686865 -0.026935302 -0.0038853644
000010 e3 11 70 bd ed d7 72 bd ca 4b 4d be 6d 8d 43 3e
       -0.058610808 -0.059287954 -0.20048442 0.19096918
000020 dd 1c fa bd 93 6d 3c 3e 2f f4 e9 3d b9 13 8d bd
       -0.122125365 0.18401174 0.114235274 -0.068885274
000030 10 c2 4e be ed 3e e4 ba c9 e0 a4 bd f2 95 59 3d
       -0.20191216 -0.0017413773 -0.08050687 0.053121515
000040 14 1e 67 3e 6e ac 00 3d 3d 88 26 3e 60 94 5e be
       0.22570068 0.03141444 0.16262908 -0.21736288
000050 79 e3 36 be 60 93 0b 3e a5 6f 5a 3d 1a 5c 42 be
       -0.17860211 0.13630438 0.05332913 -0.18980446
000060 35 96 c2 bd 8e cf 64 3e b5 4a 37 3d 56 dd b7 bd
       -0.09501306 0.22344801 0.04474898 -0.08977763
000070 e8 51 dd bc 3e 56 40 bd 03 23 15 3e 99 3b b9 3d
       -0.027016595 -0.046957247 0.14564137 0.090445705
000080 31 a5 b2 3c b5 0d 0b be 8e 8b dd bd ec 2e e4 bd
       0.021807285 -0.13579448 -0.108176336 -0.11141762
000090 e4 f2 ce bd e8 84 62 be b2 cd 23 be 84 9d 5e bd
       -0.101049215 -0.22121012 -0.15996435 -0.054349437
0000a0 df 34 c4 3d 31 02 31 be 88 05 8a bd 2b ea 93 3d
       0.09580397 -0.17285992 -0.06739336 0.07222398
0000b0 cf f4 33 be 3e 95 95 3d 67 b5 30 3c 0f 38 be 3d
       -0.17573856 0.07303856 0.010785437 0.09288036
0000c0 3d 84 0d 3e 0f 84 10 3e c7 a9 75 3c 1f ce 4e 3d
       0.13819976 0.14112876 0.014994091 0.05048954
0000d0 fa 3f 88 bc 8d 5e 4a be 93 47 3c 3d af 8d 57 bc
       -0.016632069 -0.19762631 0.045966696 -0.013156339
0000e0 77 6e 0a 3c a5 8d 18 be a8 94 b6 3d 6a f0 46 bc
       0.008449188 -0.14897783 0.08915073 -0.01214228
0000f0 ad b9 13 3e 25 dd 65 3a 25 b1 7f bd b5 b2 34 3e
       0.14426298 0.000876861 -0.062424798 0.17646296
000100 34 94 2b 3c f9 89 28 3e 2e 14 44 be 86 dc 3b 3e
       0.010472346 0.16458882 -0.19148323 0.18345842
000110 22 71 30 bd 66 0c 05 3c c4 17 e3 3d 0c 01 8a 3d
       -0.04307664 0.008120632 0.11088517 0.06738481
000120 1a 7c 1e be a6 55 27 3e 95 32 ed bd 0e e9 2b 3e
       -0.15477028 0.16341266 -0.115819134 0.16788122
000130 ab 8c 39 be 54 de 6e bd 3e af 2d be b1 26 4e 3d
       -0.18120067 -0.058317497 -0.16961381 0.050329868
000140 11 5c 1b be f8 65 30 be 0b 7a 2f be b7 76 b1 bd
       -0.1517184 -0.17226398 -0.171364 -0.08665221
000150 2d 46 b7 3d af 65 9a 3d ca a8 aa 3d 56 60 1d be
       0.08948932 0.07538926 0.08332975 -0.1536878
000160 92 41 3a 3e 0f b7 62 be cd 03 31 be 45 ae f0 3c
       0.18189076 -0.22140144 -0.17286606 0.029379973
000170 63 9d 18 3e bc b4 09 bd a3 a3 5b 3e 88 0f 3e 3e
       0.14903788 -0.033619627 0.21449141 0.18560612
000180 85 5d c6 3d 13 83 4c be 71 40 4c be 88 71 a7 bd
       0.09685806 -0.19971876 -0.19946457 -0.08175951
000190 fc 4f b6 3d 41 30 08 bd 44 89 9a bd d4 dc d2 bd
       0.089019746 -0.033249144 -0.075457126 -0.10296026
0001a0 d7 cd 54 be bc b0 3c be 45 4c 30 3e 87 79 49 be
       -0.20781647 -0.18426794 0.17216595 -0.19675265
0001b0 36 a0 4e be 87 ba df bd c1 2e 2d 3e c5 df 48 3e
       -0.20178303 -0.10924249 0.16912366 0.19616611
0001c0 79 46 dd bd 0d dd 44 be 7e 04 58 bd 6b 68 e2 bb
       -0.10804457 -0.19224949 -0.05273866 -0.0069094202
0001d0 29 ea 9b bd 90 8e 25 3e c8 04 a8 bd 39 fd c8 3d
       -0.07613022 0.16167665 -0.08204037 0.098139234
0001e0 d6 d0 4a 3e e3 2e 25 3e 1b 27 16 3e f4 0b 44 be
       0.19806227 0.16131167 0.14663355 -0.19145185
0001f0 19 7d 8e bb 37 62 46 3e e2 9d 1d be 00 72 ce bd
       -0.004348409 0.19373403 -0.15392259 -0.100803375

lin1.weight f4 [128, 256]
000000 ab 20 03 3d 30 fe 7a bb 4f 1b 5d bd f2 62 07 3d
       0.032013576 -0.003829848 -0.05398112 0.033053346
000010 56 9d c8 3c 99 ca 53 bd 97 68 01 3c 1c 28 3a bd
       0.024489086 -0.051706884 0.007898471 -0.045448408
000020 58 a9 ce 3b e6 d3 10 bd 08 e8 e2 bb 2f a4 8f bc
       0.0063068084 -0.035358332 -0.006924633 -0.017534344
000030 f5 f0 0a 3d e4 c4 ec bc 26 9f 5d 3d ca cb 62 bc
       0.0339212 -0.028902479 0.054106854 -0.013842532
000040 95 6d 85 bb cd 6e ec bc 82 05 0c bd 9b 0c 43 bb
       -0.004071901 -0.028861428 -0.03418494 -0.0029762152
000050 ea 54 fa ba c0 23 21 bd 8b 91 72 3d ee 15 3b bd
       -0.0019098793 -0.039340734 0.05922083 -0.04567521
000060 a9 c9 8c bb 7c 14 62 3d fa d9 90 bc 14 29 86 3b
       -0.0042965007 0.055195317 -0.017682064 0.0040942524
000070 4a 1f 17 bd 88 16 53 3d 6c 39 49 3d 43 a7 66 3d
       -0.036895074 0.05153516 0.049127027 0.056311857
000080 12 b8 fb 3c 69 07 19 bd f1 81 e0 bc 44 01 1d bd
       0.03072742 -0.037360583 -0.02740571 -0.038331285
000090 02 12 3f 3c 6a 6c fa bc fc 21 f3 3b 68 15 89 3d
       0.011662008 -0.030569274 0.0074198227 0.06693536
0000a0 41 ff 27 bd a2 95 7d 3d 7c 62 56 bd 2f 97 a8 3c
       -0.041014913 0.06191028 -0.052340016 0.020579902
0000b0 04 85 02 bd 6c fa a2 3c d1 cb 10 bd 37 e3 ef 3b
       -0.031865135 0.019894801 -0.035350624 0.0073207873
0000c0 56 80 35 3d 13 9d 40 3d db e0 28 bd 30 7a 4c 3d
       0.044311844 0.047024798 -0.041230064 0.049921215
0000d0 01 c8 44 3d 4a ef 50 bd f0 ee 75 3c 58 42 4c bd
       0.0480423 -0.051009454 0.01501058 -0.049867958
0000e0 52 98 33 bd 61 61 b6 3c 25 b9 4b 3d 54 42 06 3c
       -0.043846436 0.02226323 0.049737114 0.008194525
0000f0 bf 11 99 ba 50 8d 6c bd c9 85 b8 3b 58 85 54 bd
       -0.0011678262 -0.057751954 0.005631183 -0.05188498
000100 5e 8c bb bc 54 49 85 bc 15 38 5d bd 4c b5 22 3d
       -0.02289408 -0.016270317 -0.054008562 0.03972368
000110 41 57 3a bd 15 04 1c bd 47 83 bd bc 6d 39 c4 3b
       -0.045493368 -0.03808983 -0.023133887 0.005988291
000120 ff 50 c2 3c f2 a1 a7 3b bc 00 86 3c c0 6f 0a bd
       0.023720263 0.005115741 0.016357772 -0.03379798
000130 26 88 4f bd 30 9b d9 ba 14 ba 4b 3d 98 59 8a bc
       -0.05066695 -0.0016602036 0.049738005 -0.016888425
000140 93 21 4b bd 53 69 5f 3c 28 d3 7c 3d b5 5c 92 3b
       -0.049592566 0.013635951 0.06172481 0.004466618
000150 b0 60 1a bd a4 30 8e bc 3c af 50 bd 79 4f 70 3c
       -0.037689865 -0.017357178 -0.050948367 0.014667385
000160 36 a7 2a bc 36 8c 2f 3d 4f 59 22 bc 8f 36 0a bc
       -0.010415843 0.042858325 -0.009908988 -0.008435859
000170 84 90 71 3b 46 75 05 3d 3a 4c 47 bc f9 d9 af bb
       0.003685982 0.032582544 -0.01216417 -0.0053665605
000180 77 d3 2f 3c 9c 45 1c bd ba 87 34 3d fb 1b 5a 3d
       0.0107315695 -0.038152322 0.04407475 0.05324934
000190 5f 68 5d bc 08 33 31 bd 68 5e 30 3b 7c 9a 30 3d
       -0.013513654 -0.043261558 0.002691174 0.043116078
0001a0 a0 70 a8 bc 1c 26 8f 3c 72 d9 3e 3d 12 cb b9 3c
       -0.020561516 0.017474227 0.04659409 0.02267984
0001b0 da 46 c6 bc c0 19 c3 bc 99 f0 e6 bc b6 c2 2a 3b
       -0.024203707 -0.02381599 -0.028190898 0.0026055998
0001c0 72 6d 6d bd 24 c8 2d 3d db 57 9b bb 5f b5 8a 3b
       -0.057965703 0.042427197 -0.004740698 0.004233047
0001d0 ac 00 12 3d cb 1c 4f 3c 23 b4 1b 3d c3 bd e7 3c
       0.035645172 0.012641142 0.03801359 0.028288728
0001e0 0a e1 8a 3b 83 fc e4 bb 80 d0 9d bb f8 d3 32 bd
       0.0042382525 -0.0069881096 -0.004816115 -0.04365918
0001f0 22 2c 0c bb f8 5c e3 bc 52 f1 42 3d 65 2e 75 3d
       -0.002138861 -0.027754292 0.047593422 0.0598587
000200 f4 26 ce 3c 8f 9d 3c 3d e8 3a 98 38 5a 4c f6 3c
       0.025165059 0.046048697 7.258897e-05 0.030065704
000210 59 72 e0 bc 28 dc 58 3d 8c 0d b9 bc 79 f7 a0 3b
       -0.027398275 0.052944332 -0.022589467 0.0049123135
000220 cf 89 1f 3d fe 9b 27 3a c6 0a 70 3d 8d fb c1 3c
       0.038949784 0.0006393789 0.058604024 0.02367952
000230 4d 09 48 3d ac 56 7f 3d 40 e0 69 bd df 6f d1 bc
       0.048836995 0.062338516 -0.057098627 -0.02556604
000240 06 6c 23 bd 08 53 5e bd 68 5e d3 3c 12 6e 28 bc
       -0.03989794 -0.054278404 0.025801852 -0.010280149
000250 13 57 3e 3d c4 f9 58 bb 46 04 29 bd a8 8b f4 bc
       0.04646976 -0.0033107856 -0.04126384 -0.02985175
000260 44 2a f3 bb f0 e2 4b bd 17 ae 09 3d f9 30 4b 3c
       -0.00742081 -0.04977697 0.03361329 0.012401813
000270 39 6e 76 bd 74 95 2d bd a0 53 bb 3c 16 03 7c b9
       -0.06016371 -0.042378858 0.022867024 -0.00024033742
000280 c3 b4 eb 3a 30 7c 5e bd 2e 35 a9 bc 7e 4c 20 bc
       0.0017982948 -0.054317653 -0.02065524 -0.009783862
000290 8c 8c 0b 3d c6 7d 7d 3d 03 be 49 bd 97 01 fb bc
       0.034069583 0.061887525 -0.049253475 -0.030640407
0002a0 cf 3f ac 3b bb cb 7c 3c 03 65 a3 bc 26 ae 09 3d
       0.00525663 0.0154294325 -0.019945627 0.033613347
0002b0 67 98 71 3c ee 81 d4 bc 48 fe e8 bc 15 13 65 bd
       0.014745808 -0.025940862 -0.028441563 -0.0559264
0002c0 8b 83 d4 3b 41 a4 9c bc fa 2c 2b bd 30 e9 36 bd
       0.0064854077 -0.019121291 -0.04179094 -0.04465598
0002d0 87 f4 00 3d ca bb 6c 3d a9 f1 8a 3c c8 19 32 3b
       0.0314832 0.057796277 0.016960936 0.0027176011
0002e0 93 13 83 3c 79 5b 5d 3d b9 54 d1 bc 12 5b 35 3d
       0.016000545 0.054042313 -0.025553094 0.044276305
0002f0 2f 77 65 bb 00 0d 24 bd e5 29 8c 3c 6e 95 77 3b
       -0.0035013666 -0.04005146 0.01710982 0.0037778276
000300 3d d7 b9 bc c7 e3 6c 3d d5 88 11 3d fc c0 21 3d
       -0.022685641 0.057834413 0.035530884 0.039490685
000310 ba fa 64 3d 4d 37 6a bc 17 20 14 3d 78 61 2d bd
       0.055903174 -0.014295411 0.036163416 -0.04232928
000320 56 4c 6e 3b 18 e0 33 bd 52 97 cd bc 76 c8 b9 3c
       0.0036361418 -0.043914884 -0.02509657 0.022678595
000330 77 91 37 3d 2a 16 48 bb 2a c4 71 3d 7d 8a c4 bc
       0.04481646 -0.003053079 0.059024967 -0.023991818
000340 e6 aa 0d 3d db ac b5 bc 7c f4 7c bc b6 75 aa bc
       0.03458681 -0.02217715 -0.015439149 -0.020808082
000350 1f 0e 4d bc dc b3 db bc 01 8b 18 bc bc f9 a1 bc
       -0.012515574 -0.026819162 -0.009310485 -0.019772403
000360 06 32 3e 3b 03 b4 82 bd 78 98 48 bd 4a ce c3 bc
       0.0029021516 -0.06381991 -0.04897353 -0.023902077
000370 36 61 71 3d c2 c1 55 bd 85 65 32 3d ee 3b 21 bd
       0.0589306 -0.052186735 0.043553848 -0.039363794
000380 bf 4f 02 3a 8d 4f 69 3d ee 80 49 3d 6f b3 f5 bc
       0.00049709895 0.05696063 0.049195223 -0.029992787
000390 5e c5 25 bd 8e bd 62 3d 5b b9 62 3d 5e 9a d7 bc
       -0.040471427 0.055356555 0.05535255 -0.026318725
0003a0 5b 38 5b 3d 57 b5 9a bc 07 9e 12 3d e8 dc 04 3d
       0.05352054 -0.018885298 0.035795238 0.032437235
0003b0 1d 18 bf bc 7a 08 8e bc c2 ed cb bc b0 53 5c bd
       -0.023326928 -0.017338026 -0.024893645 -0.053790748
0003c0 12 3b 6b 3d e1 68 c1 bb e1 63 84 bc f0 48 9c bc
       0.05742938 -0.005902395 -0.016160907 -0.019077748
0003d0 c4 58 bb 3c 31 91 cf bc b8 40 12 bd 5c 0b 69 3d
       0.022869475 -0.025337787 -0.03570625 0.0568956
0003e0 13 b0 44 b9 ce 39 2f 3d c0 e4 b0 bc 08 55 af bc
       -0.0001875761 0.042779736 -0.021593451 -0.02140285
0003f0 92 7c 0f 3d 17 92 d4 bc 72 d9 74 3d ee aa e9 bc
       0.03503091 -0.025948567 0.059777685 -0.028523888
