models/model_max.pt (torch, 597789 bytes, 12 tensors)

convs.0.weight f8 [61, 128]
000000 d7 c2 01 ca da 52 c6 bf e1 7a f3 6c f7 28 bb 3f
       -0.17440352309815552 0.1060938492769128
000010 d1 05 68 ac 96 6c b2 3f 5c cc e3 4b 41 9b c5 3f
       0.07196943005694513 0.168800508552155
000020 0f 3c 1d d3 0b b9 7a bf 45 38 8c 70 d6 d7 9d 3f
       -0.006524130048844347 0.029143667811745173
000030 99 06 65 3a a8 e4 c0 bf 89 58 29 32 33 e3 82 3f
       -0.131978062165264 0.009222412079150881
000040 52 7e 06 03 8f 36 5a 3f 99 9a 3b 89 91 0c 8e bf
       0.0015999218559058681 -0.014672410011781255
000050 ad da 1d 8c 6d 88 b8 bf 8a 49 58 52 37 84 c7 3f
       -0.09583172484222287 0.18372241516824445
000060 bc c5 00 e9 ca 12 c7 bf c4 8b ec eb 44 70 b5 3f
       -0.1802610051832242 0.08374434242118328
000070 f6 e6 3c 89 7d 46 c4 3f 5a 9b 8f c5 97 84 ad 3f
       0.15840119553632065 0.05765222822792877
000080 93 6c 42 ec 9c 49 a9 bf 32 02 e7 eb 01 14 a3 bf
       -0.04938974746729587 -0.037262020155598555
000090 be d2 78 cc 7c 02 bc 3f 32 ed b9 84 43 21 9b bf
       0.10941295616141652 -0.026494078613251655
0000a0 9b 1c 68 4f 1d 06 a6 3f 4a ca ca 9b ce 75 c4 3f
       0.043015399878691706 0.1598451863006452
0000b0 3f c4 c7 aa 10 58 c3 3f a4 8c 1c 18 bd 53 c1 3f
       0.15112503374942496 0.135368000767902
0000c0 43 3e 31 f9 e8 a4 a7 bf d7 f8 55 8c a2 2c b1 3f
       -0.0461800388517273 0.06708732534568483
0000d0 a6 1b 35 c2 f4 24 af 3f e7 cc 23 5f ad b3 9a 3f
       0.060828827578510755 0.026076039249301266
0000e0 06 5c a2 7b e3 a6 c0 3f 21 8f e1 f9 ea 12 be 3f
       0.13009303604914652 0.11747616386997752
0000f0 33 bf 48 9c 24 80 a9 3f 40 6d 00 5c 83 89 c4 3f
       0.04980577857747761 0.16044656746167085
000100 20 6c a4 0d 74 28 af 3f 35 bb d4 81 25 53 c1 3f
       0.06085550943881679 0.13534993018535038
000110 8f 1d c7 6c 3e 71 83 3f 8b 3b 43 d2 59 f4 8e bf
       0.009493339247355318 -0.015114499787527233
000120 df fd ee ff 53 05 c6 3f d3 3e 77 36 1c 92 b9 bf
       0.17203760144000932 -0.09988571481448653
000130 0e fa 01 f3 b0 b2 be bf 25 60 de 0d 6e a6 c0 bf
       -0.11991411145024974 -0.13007903744869612
000140 16 f4 f5 fb 05 77 c4 3f 35 64 0f d4 ed 02 cb 3f
       0.1598823051716926 0.2110268865060633
000150 df 48 eb ee a1 80 b7 bf 5c 1f b3 5f f9 0c be bf
       -0.09180652697549217 -0.11738546930712118
000160 48 9e 6f fc e9 0f b8 bf cb 75 bb ba 88 0c 4a 3f
       -0.0939928284930086 0.0007949512123236966
000170 80 9e f6 57 d7 56 b7 bf 7f b2 f9 b5 f4 e1 bf bf
       -0.09116884133856651 -0.12454156344183252
000180 6e 50 7f d3 ec f4 89 3f af 3b a9 6c 51 38 af 3f
       0.012674188808809297 0.06097654773167648
000190 e2 24 43 15 80 c3 c0 bf 20 74 4a b8 f9 5d 88 bf
       -0.1309661964244589 -0.011897993980989396
0001a0 42 16 d0 f6 fb c7 c3 3f a2 a3 8d a4 c7 40 8b bf
       0.15454053450973687 -0.013307151517169494
0001b0 ab 8b 08 ab 4d 6c c2 3f 08 7f fc 9a 4b c6 c7 bf
       0.14393015719641986 -0.1857389933365925
0001c0 90 2f e5 eb 70 09 c5 3f 70 1a ce 5e 37 a3 b0 3f
       0.16435061949084373 0.06499048294618048
0001d0 57 01 f5 07 65 f4 a4 bf 2a 9b b7 c6 9a cf b6 bf
       -0.04092708322650889 -0.08910529471868914
0001e0 5f e5 84 72 f4 fc ac 3f 5c d1 a1 04 5f 20 c0 3f
       0.05661739252031838 0.12598788953949736
0001f0 92 8d 9c 86 f7 26 b6 3f 68 23 5b fc 29 8f bd 3f
       0.0865320876733249 0.1154657593825853
000200 1d bb bc 31 89 42 aa bf 12 a6 50 a3 ee 71 a1 3f
       -0.051288878747405266 0.03407235854713177
000210 35 de 7e 5d 3b 62 b9 3f 09 23 d3 a5 e5 74 9d bf
       0.09915514977080238 -0.028766239400996905
000220 ff 84 27 b9 6c 4a a9 3f 07 bd 05 f9 7b 13 c6 bf
       0.049395940400936304 -0.17246961268708835
000230 8c b0 96 ef f4 2e ba bf fa 61 24 48 83 71 b5 3f
       -0.10227900361377545 0.08376331816942431
000240 40 b2 d1 3e 38 7b b0 3f ba 60 c4 47 02 ae bb bf
       0.06438018354101249 -0.10812391521574485
000250 df b4 d9 d2 6e e8 bd bf d7 0c 56 16 e0 46 cc bf
       -0.1168278946658634 -0.22091294375068202
000260 07 df 52 1c 89 88 a0 bf cb f6 cf e7 a1 34 b2 3f
       -0.032291683871731584 0.07111560735207971
000270 f1 7c 9d 9c 21 92 cd bf 84 ae 68 72 d3 c9 c0 3f
       -0.2310220732424351 0.13115923963902187
000280 d8 f4 16 9e 89 55 cc bf cc ac 25 95 2c 4a ca 3f
       -0.22136039942953434 0.20538861544205245
000290 13 d6 14 34 ac e2 b6 bf 2d 53 46 0c 89 81 bb 3f
       -0.08939625045317028 0.10744530248332458
0002a0 b1 ea 79 80 24 b7 c4 3f 63 cf 1a d6 cb e7 ba bf
       0.1618390681577089 -0.1050994298664683
0002b0 de da bf c6 93 00 9d bf 9f b5 0d 62 b2 7e bc bf
       -0.02832251453943512 -0.11130823987851678
0002c0 af 95 f0 0d a4 95 90 3f 16 db 5f 36 ea b1 aa bf
       0.016195834494416136 -0.05213863290548752
0002d0 78 64 49 c2 52 25 be 3f 41 2b aa c0 d4 1e b5 bf
       0.117757008012079 -0.08250169471481873
0002e0 f8 1a e8 d6 df d8 79 bf d7 89 77 e6 07 92 9f 3f
       -0.006310343144383827 0.03083050102385151
0002f0 1a 38 c2 14 7f d4 b4 bf cc 09 02 54 b9 b1 c0 3f
       -0.08136743790439063 0.13042370416594762
000300 74 17 17 e5 24 84 b0 3f 0b 48 b6 04 31 4d c0 3f
       0.06451635926268101 0.1273556969650261
000310 a6 f2 1f 48 85 35 c2 bf b3 08 b6 78 cf 0c ae bf
       -0.14225832006186073 -0.05869148586772734
000320 fb ad 2a f4 29 4e c1 3f 0a ce c6 62 57 74 ba bf
       0.13519787237360945 -0.10333772813356049
000330 67 f8 2e 87 08 d3 9a bf 61 c3 2b b2 90 7e c2 bf
       -0.026195653201050464 -0.14448746394875925
000340 f0 4f bc 6b 3f 5f c1 3f f2 3d 16 b4 a4 1e a9 3f
       0.13571923027541244 0.04906191538168149
000350 af 49 ac 96 03 b2 c2 3f fb f0 96 d7 4b f7 c5 bf
       0.14605755669670148 -0.17160938288532876
000360 8f 31 ee da 1f fd a2 3f 47 a2 60 55 2d 05 a9 bf
       0.03708743617525833 -0.04886762301641006
000370 58 98 d9 48 48 9b bd 3f 05 fc 6b 25 5a 61 7e bf
       0.11565067080081926 -0.007417060979377337
000380 12 34 f8 8a ea e7 6e 3f 05 a6 5b 1b aa c6 b0 bf
       0.0037726956286463576 -0.06553137939376803
000390 d4 35 ee 40 f2 77 c4 bf dc f0 b7 70 18 87 9e bf
       -0.15991047068057063 -0.02981222331980936
0003a0 e6 41 80 58 53 07 bd 3f ea f4 79 35 36 51 c0 3f
       0.11339302931469994 0.1274783860316469
0003b0 71 2d 7d 9d 5a 24 bb 3f a9 67 f8 d4 08 0f c4 bf
       0.10602346749253912 -0.15670881651823024
0003c0 f9 e5 f1 7b fb bf c9 bf f0 95 18 23 ed fc 73 bf
       -0.20117133666990109 -0.004879881207249678
0003d0 4d 1a 8b d8 0f b2 c0 3f c0 77 62 2b 9e 47 b8 bf
       0.13043401788145773 -0.09484280165858561
0003e0 9b 94 c5 d2 53 a6 b7 bf c2 99 30 f9 3e 4d c2 3f
       -0.09238170524402493 0.1429823605296417
0003f0 71 91 ad b9 b1 d1 ba bf 60 cd 99 15 84 68 b7 bf
       -0.10476218016771612 -0.0914385369049362
000400 4d 22 11 52 90 6f b7 3f e7 9f 32 ca bd a7 bd 3f
       0.0915460777624812 0.11584078012913289
000410 99 c0 0e 20 38 92 c3 bf 12 1c ce 7e 0b 72 c6 3f
       -0.15289975705446038 0.17535537425666853
000420 43 c4 74 cf 17 f8 46 bf 35 1b 70 f8 6d c6 b6 bf
       -0.0007009617101286853 -0.08896529498461521
000430 b8 2f d9 1a 2d 94 af bf 9d 76 19 4b 4a 13 ae 3f
       -0.061677369620695754 0.05874092261067896
000440 6c f0 11 cb a8 f2 a6 3f c6 50 19 ab 14 87 b7 bf
       0.044820093907191744 -0.0919049184533974
000450 03 90 26 13 56 54 c0 3f 6f ad e7 d2 e1 08 b8 3f
       0.1275737374791107 0.09388553046271907
000460 16 0d 4d b1 ce 9c b3 bf de 71 d6 47 bf 63 b6 bf
       -0.07661144093167524 -0.0874595213303517
000470 0e 84 0b 41 25 41 c2 bf 46 f0 7c ca 8f 8a be bf
       -0.14261308361076924 -0.11930178350024886
000480 61 a1 3e d1 a7 b5 be bf 15 b9 f1 0f 35 7a ae bf
       -0.11995934351455652 -0.05952611751205176
000490 2a 0a 63 1e 7b db c2 3f 39 57 eb ea ad 71 43 3f
       0.14732302650198054 0.0005933856208126593
0004a0 36 b1 ac 66 de f0 c5 3f 32 a5 0b 0b 6d 6c 9d bf
       0.17141323102385692 -0.028733924674189733
0004b0 83 ce 32 ba 68 05 b4 3f 1e c7 31 65 34 db a9 bf
       0.07820753618107727 -0.05050052390369174
0004c0 73 63 7c 0f 6b ad b1 3f 1e 02 20 6b 17 3d c4 3f
       0.06905240181039378 0.15811436396326511
0004d0 53 ea fd f6 8e 15 c4 3f c6 74 96 ec 6a 01 c0 3f
       0.15690791187428718 0.12504326393255932
0004e0 88 44 3f 93 5e 7c b8 3f 89 4d d0 70 3e 17 b2 bf
       0.09564772696400514 -0.07066717390289602
0004f0 d4 c5 58 57 d8 2c c0 3f 44 61 90 33 04 91 c3 bf
       0.12636856331805169 -0.15286304967663444
000500 da 36 bd 52 1a bd 94 bf dd ae c1 2f 80 46 a2 bf
       -0.020252620029444703 -0.03569412787405011
000510 4d 5e e9 a8 e0 b7 74 3f 69 f8 ac 03 b1 36 a6 bf
       0.005058171822916413 -0.0433860127436539
000520 23 a4 62 13 71 dd a0 3f 5b f5 ac f1 d0 0d bf bf
       0.03293946611058398 -0.12130456829341567
000530 2a a2 fe d7 5b c9 a4 3f 01 0c 70 57 2d c8 c4 3f
       0.04059874545720661 0.1623589207593739
000540 02 8d 4e 25 8c de b2 bf 52 06 f2 d4 16 cc a9 bf
       -0.07370830450831892 -0.05038520192557584
000550 49 8f c7 c0 9b ff 7d bf 28 d0 27 0b 06 cb 9a 3f
       -0.007323845300991235 0.02616509860122576
000560 10 74 5a 62 80 4e b5 bf 35 48 05 c1 20 08 c2 3f
       -0.08322908784107619 0.14087304520450208
000570 37 fe 08 57 14 ed be bf e8 c6 8a 12 07 d9 b2 bf
       -0.12080504536515312 -0.07362407877624444
000580 fd 1e 24 4f 4f 01 c6 bf 7a 0b 65 57 fd e8 a0 bf
       -0.171914971964945 -0.033027569692896955
000590 05 fe d1 7c e3 85 82 bf 6b 15 b0 3e 91 ce c0 3f
       -0.009044434782707897 0.131303935632029
0005a0 25 bd 46 4c 53 73 bf bf 4e fb fb f8 9f 58 b1 3f
       -0.12285347568716938 0.0677585585471949
0005b0 ae b1 04 c0 76 5d bb bf 07 59 97 06 6b 51 bf bf
       -0.1068948954386488 -0.12233609114568732
0005c0 96 14 4d a7 30 26 aa 3f e5 3f b2 90 7d 0e 71 bf
       0.05107261698007297 -0.004164209832325104
0005d0 ef df 0a db d5 a6 bb 3f 4a 0a c8 54 b5 c1 c0 bf
       0.10801445577351364 -0.13091150893895281
0005e0 bc 79 eb a0 c0 53 c1 bf 65 b1 dd ea a2 39 c2 bf
       -0.1353684221021022 -0.14238392322603058
0005f0 17 7e b0 8b d6 e8 c1 3f a9 a5 0b 84 4d 0d 94 3f
       0.13991815396092086 0.019581996139924538
000600 28 a3 4c 7f b2 df c1 3f 81 b6 9d 99 e7 21 78 bf
       0.13963919845380102 -0.005891709029908322
000610 3f 93 07 35 c2 26 95 bf 56 88 09 7c de 9b a0 bf
       -0.02065566490809378 -0.03243918670774863
000620 09 e0 4c 1a 8e 3f c0 bf d0 61 ea bf 7e fd b9 bf
       -0.12693954738801974 -0.1015242785018764
000630 37 bd a3 1e ac a1 b6 3f 1e 1d f9 af 5e 50 8a 3f
       0.08840442417180304 0.012848605866692394
000640 d7 cb 7f c1 05 65 93 3f aa 28 0b eb e7 43 b9 bf
       0.018940057692770153 -0.09869241226548078
000650 3b fe 04 b5 b3 a2 9e 3f 1b 77 70 4d 02 7c b9 3f
       0.02991753380160687 0.09954847708328567
000660 ca d9 50 21 4a a9 ba 3f f1 f4 bf 37 14 11 b0 bf
       0.10414565385222044 -0.0627606044872271
000670 4c 2b f6 b5 f9 6e c5 bf 85 6f d1 6c a3 62 bf 3f
       -0.16744920143932018 0.12259885222141349
000680 cd 3a c1 62 c1 20 93 3f f8 3c 02 28 d3 fc b5 3f
       0.018679639484896527 0.08588905073905895
000690 3f 87 00 be cd 03 b8 bf 74 37 9a 19 06 9a c2 3f
       -0.09380803955766924 0.14532543420903787
0006a0 e3 b8 c4 08 64 15 98 bf 55 e0 cd ee 1c 63 b9 3f
       -0.02351909926908825 0.0991685946481778
0006b0 01 6d b8 89 6b e1 ba 3f 02 12 a4 67 58 31 c5 3f
       0.10500213730158593 0.16556840000716028
0006c0 6e e4 67 41 e0 dd c2 bf 5b 4d 1d 88 bf 8d b9 bf
       -0.14739611810344705 -0.0998191554365823
0006d0 9f 50 9b 66 93 33 b5 3f 71 08 59 0d 84 b8 bb bf
       0.08281823401495324 -0.10828423810838374
0006e0 01 70 99 e3 24 44 c1 bf 23 a4 7d 96 81 61 b0 3f
       -0.13489209283113726 0.06398782657710504
0006f0 36 6d 44 70 0c 85 b7 bf 48 a0 8d 5e 46 49 c6 3f
       -0.09187391034031553 0.17411117188317093
000700 51 fe 77 7c 7f 3e ac bf 42 2f 3d 98 2a fb c1 bf
       -0.055164321845947335 -0.14047748979134594
000710 7b da 8a 57 89 f1 b7 bf ff 2d e3 8d 82 aa 80 3f
       -0.0935293043829492 0.008137721972523158
000720 15 60 c4 da 8c dd c3 3f b6 81 a0 b7 d0 a9 85 bf
       0.15519867593752737 -0.010577803233957944
000730 d5 fe f5 0e 7e 41 c0 bf 66 54 52 22 ca 0b c5 bf
       -0.12699866991532952 -0.16442228961810484
000740 0c 08 45 40 5b 3b c6 3f e4 ab dc bc 81 0a b4 bf
       0.17368641508261395 -0.07828532086266154
000750 ae 30 aa 28 56 95 c0 3f 1f 65 81 5a 22 e8 9c bf
       0.12955739007555195 -0.02822927167321609
000760 bc bb 97 da 27 c0 af 3f 04 20 f0 5b 45 17 73 bf
       0.06201290648811361 -0.004660864767181753
000770 5f 6c 77 27 09 4b c2 3f c7 00 3b b7 d9 f5 c5 bf
       0.14291490962100092 -0.171565260379799
000780 74 e0 5e 83 7b 40 b5 3f cc 2d fe 2b 66 0e c2 bf
       0.08301517445841161 -0.14106442592706825
000790 7b 18 fe 36 b5 89 a8 bf 7e 52 c9 b6 5a 1f c4 bf
       -0.047925627673110115 -0.15720685887449187
0007a0 02 47 d0 16 83 c4 ae 3f 9e bd e4 34 8d 9a bc bf
       0.06009301808820845 -0.11173327008577025
0007b0 08 a8 7f da 9a 42 c2 3f ce fd fa 7f f7 24 b7 bf
       0.14265762013320704 -0.09040781855127664
0007c0 fd ad cf 3d 97 d4 c2 bf bf 29 ce d3 20 50 c3 bf
       -0.14711275594832776 -0.1508828195768057
0007d0 6b f0 a2 7a da af b4 3f 2e ee 6a 25 07 7b b7 bf
       0.08080831045202934 -0.09172100699918737
0007e0 76 b2 8a d7 74 c4 c3 3f 3f 18 a7 80 7e be bf 3f
       0.15443287395955324 0.12400046006141084
0007f0 14 30 c4 cf 64 1d b9 3f 90 59 f1 eb 50 fa b4 3f
       0.09810476372166504 0.0819445205719147

convs.0.bias f8 [128]
000000 bb d6 13 db 55 40 6c bf 66 90 db 11 f5 d1 96 3f
       -0.0034486462469612545 0.02228529855246144
000010 97 b3 13 55 f1 cb 8b bf c7 cd f0 fc b6 10 90 3f
       -0.013572583588450189 0.01568876189067028
000020 0e 91 3a 71 af ab 7a 3f 3e a8 dc 53 26 b1 73 3f
       0.006511388131603247 0.004807615010387121
000030 c0 64 09 f3 34 b1 9d bf c5 ef 9a a0 c7 16 98 3f
       -0.028996302922995154 0.023524398019375576
000040 27 68 6c 61 48 5c 8f 3f 40 31 fa f2 15 6e 82 bf
       0.015312734101417714 -0.008999034383372462
000050 10 8e a3 42 c9 18 92 3f 1e 31 4b c4 18 53 95 3f
       0.01767267674666867 0.020824801426713717
000060 19 df a1 53 d3 30 95 bf ab 1b d8 23 dd 00 93 bf
       -0.02069406698180307 -0.01855798274302926
000070 cc a7 68 c3 43 cd 86 3f fa 78 5c 30 c4 ec 6a 3f
       0.011133698845771443 0.0032867271246593806
000080 18 7c 63 07 d2 30 a4 3f 59 90 34 d2 4f 3b 90 3f
       0.03943497028534909 0.01585125656596662
000090 15 83 e1 6f ca 8c 86 bf cf 15 d6 a3 ba f3 70 bf
       -0.01101072458203726 -0.004138688147013749
0000a0 c6 50 34 60 76 b7 77 bf 06 09 c0 5a 7c db 9a 3f
       -0.005790197759115217 0.026227896727513154
0000b0 5b 3f c8 f0 5a 52 8e 3f f9 90 4e c5 7b d9 90 3f
       0.01480551764782916 0.016454633634240576
0000c0 b2 c4 94 38 5e aa 76 bf 01 79 86 de fb cb 83 3f
       -0.005533569384440872 0.0096664120945289
0000d0 d2 36 98 09 18 09 9c 3f dc 83 69 51 c6 b6 89 3f
       0.027378440461737714 0.012555646285536008
0000e0 fd 08 8f af 36 10 8a bf 4a e5 2d 60 51 78 59 3f
       -0.012726237518908773 0.0015545649227689134
0000f0 b4 db c8 01 1e e1 72 bf 6a e2 81 ff 24 b2 a4 3f
       -0.004609219755869743 0.04042163485514012
000100 d9 be c1 63 48 c2 86 bf 06 8b e2 6d 5d 5f 98 bf
       -0.011112752479874132 -0.02380128844437037
000110 a4 5c 48 be 43 89 61 3f 2f c5 ac 21 bc 87 90 bf
       0.0021406481848874215 -0.016142787509300035
000120 ab 6e 66 c1 99 3d 85 3f fa 02 31 44 49 1d 70 3f
       0.010371400084117374 0.003934179493683793
000130 84 52 8f c7 e1 6e 83 bf ca e0 63 32 4c 94 82 3f
       -0.009488834288199806 0.009071917808327962
000140 0e 4f 68 bf 67 99 90 3f 39 04 2b 94 b2 4f 87 bf
       0.016210194642623903 -0.011382479807595757
000150 e7 e8 ca 41 a1 38 95 bf c7 c9 a8 8d 67 5a 97 3f
       -0.02072383846346151 0.022805803319167397
000160 7a 43 69 ee 8f 80 88 bf 0b 87 e1 03 6b 83 67 bf
       -0.011963962996704092 -0.0028702821864933273
000170 95 2d 94 9e c0 df 6b bf 15 2c 39 09 fc 64 81 bf
       -0.003402591905460726 -0.008493393928025875
000180 ec f8 2d 79 f0 10 93 3f e6 ec b5 8a bb 4b 87 bf
       0.018619305988516396 -0.011374917193043687
000190 7b f8 c5 0b ac d9 61 3f 54 fe c9 85 49 79 8b 3f
       0.0021789894364579432 0.013414930720727337
0001a0 83 d8 1e e5 00 21 95 3f 96 5c 49 11 1c 65 90 3f
       0.020633710846333485 0.0160107026625523
0001b0 0d a8 c3 bb 5b 60 70 bf 9e 64 71 ff aa 85 77 bf
       -0.003998144468122089 -0.005742710075616801
0001c0 5b 4d a4 a0 d3 3d 7f 3f ed 35 54 da 62 e1 82 3f
       0.00762732188219969 0.009218952453489993
0001d0 b4 97 b4 c3 f8 1d 7e bf 3b ca ea 27 92 f9 83 3f
       -0.00735280202505877 0.00975336250607938
0001e0 65 4f bc e6 0e 4a 83 3f f1 f2 8c 82 e8 92 9d 3f
       0.00941859857224587 0.02888072296922223
0001f0 51 e9 40 95 22 1e 97 3f 70 8f fc 84 4f f5 52 bf
       0.02257589374514996 -0.0011571194226655777
000200 51 dc 8f a3 25 60 97 bf 3d 82 97 a6 0b 0c 80 3f
       -0.022827709301023017 0.007835474988440722
000210 f6 ba 8d 5d ac e4 8c bf ca 42 63 a4 b4 4a 61 3f
       -0.014108034710913025 0.002110817734412106
000220 e1 00 2a 38 a0 c6 73 3f 65 06 0e b2 82 ec 8a bf
       0.004828096253391063 -0.013146420534897627
000230 6f 0a 03 b4 46 e8 82 3f f3 9a 6f 42 16 6e 6b 3f
       0.00923209416248946 0.003348391986480842
000240 a9 c4 8b 49 0f 0a 93 bf f1 14 b6 0f 3e 04 89 bf
       -0.018593062271013015 -0.01221512303778602
000250 20 45 1e e9 ea e2 82 3f 6e 94 e1 2c 05 b6 7c bf
       0.009221873511509104 -0.007009525505144427
000260 56 c2 54 b2 c6 44 94 bf a9 32 f2 8c 6d 69 91 3f
       -0.019793610224214518 0.017003738143602707
000270 c8 6c af 72 eb 6f 78 bf ca 0d e1 ef 58 80 74 3f
       -0.005966109961231321 0.005005214128746835
000280 1a a5 e8 3a ed 3e 9a bf 06 e4 85 b2 83 4b 82 3f
       -0.025630671234613357 0.008933094869222568
000290 8f 75 4a f4 d0 49 9f 3f e7 ed 4a c3 e2 6a 8e bf
       0.030555024061518273 -0.014852305970058445
0002a0 fe ef 87 e6 62 16 90 3f 45 9d 02 7b 02 05 85 3f
       0.01571039707231136 0.010263461474393618
0002b0 34 ca c9 5a 2a 50 72 bf de e4 ec 2c 4a 92 9c bf
       -0.004470982978647831 -0.027901801101710137
0002c0 79 45 22 0e 5e 6b 94 3f 96 cb c8 99 2b e1 49 bf
       0.01994082413927376 -0.0007897818464413949
0002d0 6e 21 63 24 23 61 9c bf 5f 9e 8b 73 13 40 8c bf
       -0.027714299293422888 -0.013794090236344645
0002e0 6a a2 a3 48 52 17 83 bf 51 b0 8b c4 ce b3 84 3f
       -0.009321825830242509 0.010108580945107944
0002f0 06 cc be 7e ee a2 7b 3f 74 14 86 a3 cd 64 23 bf
       0.006747180577735717 -0.00014796266783548599
000300 c1 99 fc 42 ee ca 8d bf cb 76 22 db 5e a5 60 3f
       -0.014547215861580367 0.0020319798141617876
000310 29 68 6a 93 84 91 8f bf e4 87 9c 8c 14 7b 90 bf
       -0.015414272068756745 -0.01609451397155927
000320 2e 3c ba 1e d2 1d 5a bf d1 99 df 84 25 4c 70 bf
       -0.0015940238908205384 -0.003978869017350965
000330 8f 3e 43 46 b2 43 7d 3f d4 83 a5 73 d7 8c 9b 3f
       0.007144638428328811 0.026904455598358926
000340 a5 bb ae af b1 75 95 bf 3c 22 5e 61 ba b6 7a bf
       -0.020956779811679777 -0.0065219192964681115
000350 28 09 da 50 af 1a 70 bf ea f5 a0 5b bc 8c a1 bf
       -0.00393169863457591 -0.03427685373797458
000360 05 6f 80 f1 24 64 a0 bf c1 99 8a 0d eb 43 82 bf
       -0.03201404045122839 -0.008918606138945575
000370 0f 51 62 4d 8f 10 99 bf 0b 5d d3 43 c5 ad 85 3f
       -0.024477233026645225 0.01058534730184004
000380 ff 60 30 42 fb ab 7c bf 26 0c 94 33 45 21 57 bf
       -0.006999951819146809 -0.0014117408557588
000390 19 86 a6 ab ec c9 74 bf be 50 db 4a da e1 80 bf
       -0.0050753827039513805 -0.00824327984756967
0003a0 3d 17 8d 9f d3 de 4a bf 5e 5a c1 1d 8b 4e 78 bf
       -0.0008200200382837208 -0.005934279845027561
0003b0 04 44 01 11 0d bb 8a bf 4c 9c 52 b4 20 fd 3d bf
       -0.013052084046792707 -0.00045759247252380865
0003c0 3e e1 65 5e f6 c3 7e bf f8 f7 e1 b4 0f c0 89 3f
       -0.007511103036783871 0.012573359210588095
0003d0 6b 67 2d db fc 12 3e 3f 8d e4 04 b3 0d 9c 90 3f
       0.0004588954281438048 0.016220296908816812
0003e0 c5 31 9f d9 f0 42 63 3f 38 d7 d2 75 1d 88 89 3f
       0.0023512558081846013 0.012466650160017786
0003f0 a1 31 f1 d8 21 93 92 3f e8 a4 2a 7e 45 37 52 3f
       0.018139389864062164 0.0011118105545995741

convs.1.weight f8 [128, 128]
000000 4c b8 17 18 d6 25 47 3f e9 90 8c b0 d0 4d c1 bf
       0.0007064147359281485 -0.1351872312599263
000010 19 32 54 ae 9c bb b0 bf a5 f5 34 3f fd 13 ab 3f
       -0.06536273246838 0.05288688084190633
000020 38 c1 5f 92 7c ee bc 3f 14 00 29 5f f4 b8 c2 3f
       0.11301401685318957 0.1462693657540518
000030 de bc 0e 1b 80 86 c2 3f 96 28 95 97 8d b4 a6 bf
       0.1447296268574751 -0.04434626078962471
000040 65 54 7e 41 85 7f c6 bf 45 1a 6e 69 78 c3 b3 3f
       -0.17576661775516125 0.07720139097191588
000050 38 88 a5 ce 8c ca bc bf b1 9f 07 4b ce ae c6 3f
       -0.11246566815455672 0.1772096506458616
000060 b0 6a 7f e8 43 e3 a9 3f 6a 1e 28 4c 3d 9a c9 3f
       0.05056202138049082 0.20001951426114611
000070 11 b5 15 e3 df 32 80 bf 9a 4b 00 32 97 1e a7 3f
       -0.007909535520151086 0.04515526280751843
000080 e8 19 d5 71 39 18 a9 bf 97 a3 a2 ac c1 2b b1 bf
       -0.04901294245296467 -0.06707392182091919
000090 cd d8 e8 8d a2 ad ac 3f 30 15 3c aa f4 44 b5 3f
       0.056012229750579935 0.08308343082542957
0000a0 27 de 1b 0a f9 d1 8e bf 26 ea 17 c2 dd 11 ab 3f
       -0.015048928853032951 0.052870683615726485
0000b0 af e1 74 dc c3 15 a7 bf 4f 05 18 97 25 85 a4 3f
       -0.04508792940254424 0.04007832974822156
0000c0 38 9a e2 15 0e c3 a0 3f 53 ea af f8 89 7e a9 3f
       0.032738151713875785 0.04979354058010146
0000d0 02 89 06 92 d9 f6 b6 bf 48 97 fa 04 6b f8 8b 3f
       -0.08970413031650895 0.013657413567965584
0000e0 b4 b8 b7 ea 4c f4 c6 3f 2f 4a de ec f7 42 b2 bf
       0.17933045826743454 -0.0713343575755878
0000f0 c9 c3 8f 27 6e 17 8a 3f cd 3b 6e a0 dd 49 b6 3f
       0.0127400022338139 0.08706460158121772
000100 e1 da a4 6d a2 77 94 bf 84 db 62 58 96 8f c5 bf
       -0.019987619344841504 -0.16844443622332161
000110 2e 9f b9 ae 47 75 bc bf 77 98 ce 3d 9e 18 a7 3f
       -0.11116455093144559 0.045109696430970674
000120 e4 aa 20 6c 3f 0a c0 bf fc 4c de 85 c6 31 b9 3f
       -0.12531273631733264 0.09841576355238496
000130 b4 a7 86 e5 ce d4 b7 bf 78 c7 e6 ea 80 32 bb 3f
       -0.09309094527875922 0.1062393735399193
000140 ff c1 6c b7 3e be b2 bf c2 3c a6 ee e8 46 b2 bf
       -0.0732154081167735 -0.07139449907684806
000150 a5 8a 29 aa ae 29 b5 bf 6f e8 1c 16 d9 4f ca bf
       -0.08266727117874469 -0.20556176738483908
000160 79 37 82 0a f9 4a c1 3f 8c 91 20 3a be e0 99 bf
       0.1351004887878238 -0.025271389291576393
000170 e4 95 25 f4 b2 2a bc bf 22 4d 29 f0 ae 1c ae 3f
       -0.1100265356122559 0.058812586609429354
000180 dd 6a f3 77 ab 5c bf 3f 1e 46 af e8 c9 b9 ab 3f
       0.12250777891624005 0.05415183034314118
000190 59 57 8b d5 cf d5 5d 3f 25 3c 7d 5a 2b 23 a3 bf
       0.0018209962492412217 -0.03737769584278564
0001a0 45 63 6b 2f a9 21 a2 3f 8e 78 cf 77 bb 79 c1 bf
       0.0354130621323692 -0.13652747488135158
0001b0 a1 58 28 49 43 dc a9 3f 4b 8f e0 4e ef 5c a4 3f
       0.0505085970691408 0.03977153623443871
0001c0 17 98 be 48 14 77 a6 bf 73 6f 3f a9 d4 ca b3 3f
       -0.04387725246424184 0.07731370098139027
0001d0 34 45 97 4c 3c be b0 bf a7 e5 15 cf 4f ec c0 3f
       -0.06540276403327 0.13221166240309154
0001e0 0a 72 d3 64 80 3b b4 3f a0 8a e5 46 4d fb c0 bf
       0.07903292142459165 -0.13266912423849408
0001f0 95 13 53 16 a0 f4 ad bf c9 93 ce 90 5c af ba 3f
       -0.058506968236122926 0.10423830542875047
000200 d3 ed 3c c9 79 3d 97 3f 4e a7 c6 9d df 0b b9 bf
       0.022695448787301075 -0.0978374252505578
000210 f1 fd 75 ce 0a 09 ac 3f 55 32 f4 5b 19 d5 c0 3f
       0.054756486609217954 0.13150326719223196
000220 49 47 a3 c4 c3 36 a0 3f f4 3f de 95 da 5a c0 bf
       0.031667821649206625 -0.12777263944417394
000230 07 93 b0 ff a5 cc ab 3f 28 0d 7a b4 20 82 c5 3f
       0.05429571863377274 0.16803368389455753
000240 5b 7c e5 cb 76 35 bd 3f 07 00 ad 10 ed 67 c6 3f
       0.11409704664173274 0.1750465709137645
000250 d9 c1 25 fa e5 40 a3 3f 3f 51 8d fc e4 b4 b3 3f
       0.037604510102827234 0.07697898069210839
000260 5a eb d3 2f f3 ff c8 bf dd fc f4 db 85 0e b8 bf
       -0.19531097255079538 -0.09397160167735615
000270 ab 2a 3b 54 70 54 a4 3f d1 72 c7 42 fe ef aa bf
       0.03970671680652534 -0.05261225285696514
000280 c3 46 18 a3 52 7b b0 bf eb 21 ba dd 81 35 aa 3f
       -0.06438175660903327 0.051189478222173644
000290 73 34 7a 43 18 f3 c0 bf 7b 0e d9 98 b2 84 c2 3f
       -0.13241866392891985 0.1446746107413793
0002a0 46 7c cc 7f 89 0b 7c bf 47 84 45 f8 ce cb 88 bf
       -0.006846940141968244 -0.012107483817716992
0002b0 a7 4b ad 5f 73 4d c7 bf 6b 3c 62 4e 1e ec bf 3f
       -0.18205110713696834 0.1246966306082286
0002c0 99 0e 0c 1c ec 65 c1 3f ee 7d 74 2e a6 04 b0 3f
       0.13592292184340662 0.0625709403434411
0002d0 57 a2 30 9e ec 40 b9 3f 40 bf 0c 98 89 23 97 3f
       0.09864691602764118 0.02259650221384324
0002e0 0e 2b f4 e7 77 0c b9 3f f7 df 24 d8 a5 e8 b9 bf
       0.09784650242742662 -0.10120617415384446
0002f0 37 6f c2 11 0b 9c 95 bf a1 d3 2e 31 55 51 c4 bf
       -0.02110307021995014 -0.15873207952031712
000300 e2 8b 5f 36 4d 3c c0 bf 74 bc 89 22 8a ab bf 3f
       -0.12684025912230285 0.12371123641217868
000310 cb b5 03 e5 59 50 b3 bf a4 82 1c d3 75 94 c7 3f
       -0.07544481125997675 0.18421814735576902
000320 60 5a 93 ca 5f 87 bb bf 6b f4 2b 5f 1e af 86 3f
       -0.10753439613049798 0.011076199798021066
000330 09 0f a1 bc 0b ee b2 3f 5b ea 4b af 84 df c0 3f
       0.0739447913666106 0.13182123717691038
000340 cd 70 a4 e3 21 ee bb bf a9 ee b3 57 0a 15 c9 3f
       -0.10910236175226658 0.1959546020733474
000350 34 cd 62 0c d5 2d bf bf ff ce 5d ed c4 4d 87 bf
       -0.12179309418097689 -0.011378801816796178
000360 50 31 c3 e4 7e 48 b6 3f 78 b0 28 d5 66 57 ae bf
       0.08704369626065511 -0.05926057197606921
000370 18 b8 81 10 99 b7 c0 3f 51 66 66 f0 02 ba a0 3f
       0.13060296350471456 0.032669154973700494
000380 7c 17 be e6 20 17 b3 3f 2d 80 dd 43 81 3b a4 bf
       0.07457166322100578 -0.039516486677485176
000390 eb c1 4e b8 f5 b6 b3 3f e3 25 d1 71 10 0e ba bf
       0.07701049565981292 -0.10177710322127313
0003a0 ef ad 53 43 38 b4 c7 bf 83 ba 13 9b 7c bf c4 bf
       -0.1851873711342331 -0.16209371158716487
0003b0 2a e3 63 e0 8a 59 c3 3f f0 14 80 d9 e3 40 c0 3f
       0.1511701198249054 0.1269802867902068
0003c0 47 7d 47 7f 2f 3d b5 3f 84 23 7b d9 1b a2 bd bf
       0.08296486718562789 -0.11575483378977763
0003d0 c5 5d b6 83 cc e8 b8 3f 86 1f 43 79 75 10 76 3f
       0.09730222907670967 0.005386790162624671
0003e0 1e 6c 66 ae 73 f1 93 3f b9 d7 6b 02 2b b6 bf 3f
       0.01947575332597406 0.12387341317284396
0003f0 ca 48 6d 8d f5 ae b8 bf 82 bc ed 47 98 c4 b9 bf
       -0.09641966536335925 -0.10065604930945152
000400 43 d6 e2 78 c2 a4 bd 3f 6a 59 fa 97 9b 7b a1 bf
       0.11579528285332068 -0.03414617757987311
000410 b1 52 ff 5b 68 57 ae 3f 24 0f de 5c 32 f6 9a bf
       0.05926061747564882 -0.02632979099099865
000420 1f db 09 5c 1f fe 71 bf b3 a6 e5 0c 8e f2 bf bf
       -0.004392740724702886 -0.12479484381551735
000430 92 c2 de 96 22 17 b6 bf 3e 59 7b 53 a2 33 b5 bf
       -0.08629051383355549 -0.08281912363176944
000440 ae 55 9e 7f 23 95 b7 3f d8 8f 8d 86 76 98 81 3f
       0.09211942544637594 0.008591581326704942
000450 3e 59 38 ae 27 c2 c3 bf ab 8d 7d 63 62 32 c6 3f
       -0.15436264044610398 0.1734126077454737
000460 d2 bc 9e 34 bd df b2 bf 3f ec 70 66 33 3d 94 bf
       -0.0737264874903645 -0.019764712455281105
000470 cf 72 25 18 bd cb be bf d4 11 56 64 49 9e a6 bf
       -0.12029630507954468 -0.044176381586143926
000480 00 5e be 10 7b 48 57 3f 94 e8 fa c9 1c e6 b5 bf
       0.0014210893450349316 -0.08554248744158804
000490 63 e3 66 b1 af 1b b2 bf 64 b9 94 9e ad ba ba bf
       -0.07073495942212342 -0.1044109832916767
0004a0 30 a1 95 95 a1 c1 be bf 32 e4 f4 0e 3d 55 7d 3f
       -0.1201420774647246 0.007161367902250014
0004b0 96 02 54 5d 7a 6a 90 3f b6 54 54 28 c9 11 c8 bf
       0.01603118128423605 -0.18804277867517322
0004c0 b6 36 f4 44 5d cd b7 bf 39 91 b3 85 d9 75 a0 3f
       -0.09297736104437146 0.032149121829009926
0004d0 d6 a3 8f 1a 60 9a c7 bf 44 f4 96 37 82 79 ad bf
       -0.18439866349151995 -0.057567662511680356
0004e0 df 3c 8a fb 5b b2 b5 3f 35 9d 1e f5 ab 88 a8 bf
       0.08475279704201764 -0.04791772238905382
0004f0 a7 f3 59 37 44 f8 bc 3f be 11 f4 25 cd 8b b0 bf
       0.11316324569084078 -0.06463319946858001
000500 f3 25 02 a2 76 6c b6 bf f3 1f a0 8c 42 7c aa bf
       -0.08759252028735158 -0.05172927824611397
000510 c5 ee 45 1b e5 06 54 3f e0 5c 30 5a 21 49 a7 3f
       0.0012223470085634275 0.04547981477679186
000520 a5 cb 98 53 92 21 b7 bf 66 48 0d b6 4f 49 ba 3f
       -0.09035601178110982 0.10268114275575754
000530 45 d9 53 4a ee 14 9e bf 47 62 16 fa d0 34 af bf
       -0.029376719748108533 -0.060949831512691115
000540 51 15 cf a1 f3 73 c0 3f 3f 44 17 e7 5f 93 c4 3f
       0.12853856468988537 0.16074751647696137
000550 b5 60 f5 a7 b1 b1 ad 3f de c5 22 5c 92 16 b9 bf
       0.057996322396037504 -0.09800066708955721
000560 76 d0 fa ff 07 12 90 3f 8b 8e b3 64 97 4d c9 3f
       0.01569378375889171 0.19768040101108783
000570 8c fc 17 71 01 06 a2 3f 46 53 d0 7d b7 33 90 3f
       0.03520206933534906 0.01582228379637065
000580 57 77 1a 9a 4c 97 a4 bf 92 a7 e8 fd 3e 08 bd bf
       -0.0402168214907152 -0.11340707491822702
000590 e5 f0 d0 fd 63 6e bf bf 7e 6c 95 4d 30 b0 b1 3f
       -0.12277817675289134 0.06909467596180893
0005a0 de 1d c9 29 ed c6 9f bf ef fb 48 94 f2 a1 b4 3f
       -0.031032281566039426 0.08059612388841207
0005b0 a1 1d 12 d3 c2 5c b4 3f 2a 71 83 d0 c8 80 c0 bf
       0.0795404210385784 -0.1289301889545496
0005c0 49 2f c5 99 84 ec c2 3f e8 bc 73 8b 00 22 c2 3f
       0.14784295566857455 0.14166266259369498
0005d0 a9 ff f2 ad 82 2b 98 bf 4d 12 90 79 ee 7d 93 3f
       -0.023603479258553915 0.019035078210452295
0005e0 54 d9 db fc b4 86 bf bf 91 b1 32 00 74 e3 b5 3f
       -0.12314921544370822 0.08550190930208702
0005f0 e8 bb ce de eb d3 b1 3f af 67 ad 6b 8a ee ba bf
       0.0696399134601361 -0.10520234230844382
000600 f7 8b 63 25 84 1b b9 bf d8 b3 6d 4a 4b bc be bf
       -0.0980761138230689 -0.12006064002134964
000610 ed 23 53 0f 13 60 b3 bf aa b6 38 9e e2 e0 b2 3f
       -0.07568472980632608 0.07374397623854159
000620 60 86 7c af b4 ea aa bf 7c e2 34 05 8b ef 77 bf
       -0.052571913167650974 -0.0058436804277383035
000630 56 fb 41 b6 cc 61 a7 3f 8c 86 29 7e b8 78 af bf
       0.04566802716089195 -0.06146790065828353
000640 5b 75 ac 7d a3 12 b5 bf 16 2e af 75 2f a6 c0 bf
       -0.08231565302090386 -0.1300715756063801
000650 d7 0c ec 47 c2 3b bd 3f 2c cd 30 15 c1 05 c3 3f
       0.11419309860143599 0.14861310515116466
000660 ff 11 8a 98 2e c0 c0 3f 92 52 10 f7 95 d0 ad 3f
       0.13086492965898341 0.05823200837054289
000670 7f b1 31 4f a0 fe bf 3f 8d f8 77 04 72 c0 b2 3f
       0.12497903760385574 0.07324898346993987
000680 12 f2 02 fb bd a1 91 3f 3b e0 f4 3a 16 92 bd 3f
       0.0172185596900239 0.11551035823220072
000690 e1 77 36 d7 03 d0 be 3f b3 c8 fe b3 f6 9c 99 3f
       0.12036155704706132 0.02501283143619366
0006a0 4e 24 32 48 ad bc 91 3f f7 a5 f3 44 d2 8b c3 bf
       0.01732130768917655 -0.15270450941834188
0006b0 32 3f 8e a2 bb f3 a5 3f 89 30 48 33 3a 83 b7 bf
       0.042875159829348766 -0.09184612037660335
0006c0 5b ba 00 59 7f e5 82 bf d6 cc 9b 4a 9e e3 9f bf
       -0.009226794150973541 -0.03114173250555726
0006d0 13 e3 3f 11 90 79 c3 bf 4e b9 1f 3a e1 cc aa 3f
       -0.152147301123272 0.05234435877342723
0006e0 ef e4 08 22 f4 f7 be 3f 20 e2 c5 b3 5f 5f 9c 3f
       0.12097097235609387 0.027707572314712547
0006f0 30 6e 5c f9 23 e8 a0 3f ac ea 3c c3 44 e6 c2 3f
       0.03302109164198119 0.1476522401151973
000700 b2 4e 6d 0c 28 18 bf 3f 30 13 c9 d0 e8 3b c1 3f
       0.12146234801667324 0.13464079088785175
000710 a6 a1 39 05 70 9c ae bf d7 aa 1e 56 f5 75 82 bf
       -0.059787274015266775 -0.009014050188701201
000720 c0 67 6b fd 39 76 c0 3f 56 80 31 09 9d 6c a5 bf
       0.12860798715592914 -0.041844279644238355
000730 7c e4 b8 6b 3a 08 c2 3f 81 75 fb 26 0e e6 c2 bf
       0.14087610492586922 -0.14764573005133388
000740 de 66 a0 b8 87 d4 bb bf 49 2d d0 c3 e1 f2 b7 bf
       -0.10871170289501772 -0.09354983358951076
000750 bc 23 ab b2 22 c2 bf 3f 14 a9 39 62 2a 05 c2 bf
       0.12405602323555248 -0.14078264042047606
000760 1d 34 ae 6c 8a da af bf 18 79 70 cd 00 8c a0 3f
       -0.06221420838037537 0.032318139150662784
000770 e0 60 fd 43 5d 7a b6 bf 5c 4a 91 ee 94 05 b8 3f
       -0.08780463132768856 0.09383517097857336
000780 c7 5c 93 03 6b bf b0 bf 8b f5 d6 c1 ab 41 b5 3f
       -0.06542080724044573 0.08303330881513753
000790 ce 3f 81 82 66 f9 a0 bf 4a 83 91 e0 1d cb c1 3f
       -0.03315277426793238 0.13901113000158666
0007a0 8c e3 7e b0 25 7b a3 3f 7e dd ea 24 80 dd a0 bf
       0.03804891376007111 -0.03293991518642779
0007b0 bd 91 63 5c ab 17 10 bf 8a 08 69 7e 22 2b b3 bf
       -6.138785747428813e-05 -0.07487693391979824
0007c0 62 a0 56 a5 45 6c b6 3f 43 1a dd e8 9c 5c 7a bf
       0.08758960043508204 -0.006435978821008495
0007d0 d3 48 d8 f8 93 47 97 3f 82 ff 8c 56 30 c0 ba bf
       0.022733985961232172 -0.10449506867462158
0007e0 c6 78 cf 05 29 76 a0 3f ac 79 89 5c a8 7b b0 bf
       0.03215149112632924 -0.06438686618046202
0007f0 f9 f1 0b d3 b5 49 ab 3f 84 a1 06 61 45 08 c1 3f
       0.05329673959019838 0.13306491124718545

convs.1.bias f8 [128]
000000 d7 b6 44 ed 06 c8 82 3f 9f b6 dc 8c 6e e7 6f bf
       0.009170583835465802 -0.0038945349869184544
000010 bd 3a 0d 80 14 30 83 3f eb 9a aa 9f b6 73 77 bf
       0.00936904922278125 -0.00572558724767334
000020 97 39 5d f0 57 00 8f 3f af 04 02 5a b5 03 98 3f
       0.015137373946029693 0.02345164644112135
000030 e2 65 aa 3c 96 5f 7a 3f 35 b8 b8 09 af 88 81 bf
       0.0064388149864042805 -0.008561484798601618
000040 7b 3c cc fd 47 5a 81 bf 2b 37 a3 2c 0e b3 89 3f
       -0.008472979004663586 0.012548552262525789
000050 a3 70 f6 55 09 15 6f 3f 17 a7 bf 7c 53 ad 7f 3f
       0.0037942106570892516 0.007733656046164736
000060 2c 8d b6 34 22 d2 7f bf bf f6 ae 9c 39 ed 8a bf
       -0.007768758408391901 -0.013147783369159225
000070 c9 50 39 c6 13 2a 91 3f 02 80 fd b7 2e 98 7c bf
       0.016762074445367845 -0.0069810700368577745
000080 10 de a0 b3 ef a9 7a bf a4 a8 9a 77 74 a2 66 3f
       -0.006509720167791069 0.0027630114317008393
000090 27 16 8f 8f c8 5b 70 bf 47 ce 4f 0c 46 34 87 3f
       -0.0039937815099100665 0.011330172777866866
0000a0 20 fd 47 7d e3 c0 8b bf ba 43 8e 9d b3 7c 6e bf
       -0.013551499615458484 -0.003721571742467647
0000b0 96 68 fc 79 93 4e 83 3f 89 1b 9c 61 35 7b 51 bf
       0.009427215728966137 -0.001066972856678313
0000c0 07 dc ce 19 ed c3 89 3f 46 99 9e ee 8f 7a 98 bf
       0.01258073077211287 -0.023905037821941442
0000d0 d9 66 24 02 a8 ed 93 3f ea f9 3b 96 2a ab 69 bf
       0.019461274271725813 -0.003133376290747271
0000e0 ea 43 83 76 b4 5f 8d bf d5 43 70 9e 25 b4 89 bf
       -0.014342698923799763 -0.012550634286556598
0000f0 bf e2 4b a7 84 4d 95 3f f3 12 e0 64 2b 72 6f bf
       0.020803520880664502 -0.0038386199512409013
000100 6c 01 01 3e 40 7b 80 bf 96 d1 d2 9c 8a 7e 97 3f
       -0.008047582523545947 0.022943654844043225
000110 1d 8d 35 28 90 6a 95 bf 9e 55 52 38 a9 e3 76 bf
       -0.02091431851785074 -0.005588208213472083
000120 93 5f 7c 31 56 12 62 3f 20 1b bc 09 8e 99 ff be
       0.002206009241387316 -3.0135940149579534e-05
000130 14 f3 99 b3 f3 26 5d bf cc 4e 94 01 6a 48 77 bf
       -0.0017793064020274517 -0.005684293829535125
000140 7f a0 e7 c3 94 ac 85 3f 84 33 cd ac 00 77 4a bf
       0.010583078602351968 -0.0008076432510307628
000150 74 35 7c 89 f9 46 5e 3f b1 84 74 cd 03 23 81 3f
       0.0018479763875263984 0.008367566783422072
000160 26 b2 f6 fa 8a 31 50 bf 33 32 3e 49 b7 bf 5a 3f
       -0.0009883744458917348 0.0016326227095958656
000170 88 77 f3 de b0 24 60 3f 3d 88 47 31 c5 98 84 3f
       0.0019706205854239135 0.010057011190785054
000180 7b 08 e7 06 17 58 6c bf dc 50 51 0c 7e 1a 47 bf
       -0.0034599733109824094 -0.0007050624341311778
000190 0b a9 cd e4 59 01 73 bf 89 12 2b 61 63 b2 80 3f
       -0.004639960429680077 0.00815274849208804
0001a0 e9 9a 0e 93 5b f2 7c 3f a7 b8 1a 9a f6 49 72 3f
       0.007067067825949216 0.004465068139024953
0001b0 f9 a0 e9 d9 20 96 7d bf 07 07 e9 55 32 d1 5d 3f
       -0.0072232516527963525 0.0018198958929506752
0001c0 c5 a6 3e a5 05 72 94 3f 69 ad c7 02 82 5a 87 3f
       0.01996620961259656 0.011403098783339076
0001d0 83 14 71 52 1e 88 2f 3f a4 4f 18 03 5e 91 8a 3f
       0.0002405678762632848 0.012972578496409266
0001e0 74 8a 56 b0 4f f0 64 bf 1f a1 2a 6d 0c ce 8b 3f
       -0.0025559955999637177 0.013576600152490457
0001f0 72 24 63 c8 89 b4 95 3f 94 f4 ab c8 f1 89 72 3f
       0.021196511130970604 0.004526085346467163
000200 45 24 7b 43 04 ab 66 bf b3 e5 26 ee 50 b4 73 bf
       -0.0027670939706223884 -0.00481063474074388
000210 13 d7 e8 d7 0f df 94 bf 6b 31 e6 75 8b 49 81 bf
       -0.020382163575241096 -0.008441056762216367
000220 ce 84 20 eb aa 82 81 bf e7 cf 9b cd a4 b1 71 bf
       -0.008550010014064215 -0.004319804918612369
000230 c2 22 d9 3b 37 7b 80 3f 7a 04 5c 67 5e f9 89 bf
       0.008047515405580245 -0.012682664422302137
000240 15 13 b5 88 f5 b6 62 bf 53 4b f1 1a 9a f2 8e bf
       -0.002284507330531214 -0.015111164042684122
000250 2b 36 78 42 41 bf 72 bf f3 59 ad d5 9b 95 5e 3f
       -0.004576926155562637 0.0018667241881381552
000260 e4 5b f6 db 22 25 80 bf 66 d4 85 fc 01 26 71 3f
       -0.007883331620900998 0.00418663764900371
000270 c2 1c 3a 4c b4 5b 8f 3f 7a a6 ce 73 63 5b 85 bf
       0.015311630798591106 -0.010428215953498954
000280 14 58 80 9f b5 d9 65 bf db 39 8c 64 5f 4c 54 3f
       -0.002667288525127107 0.0012389117784469192
000290 11 bd 96 a5 40 37 82 bf 7a 90 52 eb 69 8a 53 3f
       -0.008894448331231904 0.00119266837763468
0002a0 52 97 05 64 a6 38 58 bf 41 b6 d5 2e be cd 73 bf
       -0.0014783501538544086 -0.004834883596556206
0002b0 c5 4c 7b 91 27 e3 85 3f de 1e 47 d3 d9 a9 80 3f
       0.010687169196364707 0.008136464843928545
0002c0 a4 b5 55 06 27 a1 7d bf 85 c3 d5 7c c2 ed 64 3f
       -0.0072337650684465606 0.0025547789179473667
0002d0 77 10 b8 06 0d f3 47 bf 07 8d c2 b1 ec ce 5d bf
       -0.0007308782200543669 -0.0018193541973595144
0002e0 78 51 89 6d 44 03 6d bf e6 a7 24 c7 c1 89 69 3f
       -0.003541597030826956 0.003117445442645017
0002f0 08 50 e4 cb 8a a3 78 3f b4 31 f1 6b 07 e9 7c bf
       0.006015340970652268 -0.007058171263519975
000300 b3 55 7c 2f d4 a0 81 3f fd 39 64 93 9f c9 8c bf
       0.008607537936351805 -0.014056441007167736
000310 9a cd 68 d3 3b f7 81 3f c3 9a 52 ac c4 df 7c 3f
       0.008772342099382869 0.007049339537082036
000320 e6 fc 42 91 eb 32 90 3f 2f 90 5d 26 18 02 69 bf
       0.015819245091503918 -0.0030527564694456037
000330 18 bc d7 d9 c0 dc 68 3f d4 3a 77 2a c0 dd 98 bf
       0.0030349508876876923 -0.02428341159048382
000340 44 f6 7e 02 84 7e 3c 3f 84 da 4c 69 c1 6d 81 bf
       0.0004347870149067105 -0.008510123277671207
000350 8b 2c 47 92 88 0b 6d bf 16 65 ba 91 97 06 8d bf
       -0.003545538655293228 -0.01417272962071307
000360 55 7f f0 f9 f0 4d 81 3f ec 5a d0 e1 b0 74 79 bf
       0.008449442508264996 -0.0062148007828202005
000370 eb 3c f5 68 46 a4 5f 3f 04 81 fc 5c 80 c0 7c 3f
       0.0019312560651377163 0.007019521159037593
000380 85 1d 10 11 9f b3 8c bf 7d c3 d3 da c6 66 7f bf
       -0.014014475544185565 -0.007666374947107421
000390 1d 8d 63 d2 aa 8c 9a bf 61 1b 7e da c8 32 39 3f
       -0.025927228060834574 0.0003844967236478672
0003a0 36 99 8e 07 63 e8 32 3f 48 7a 59 96 85 6e 7d 3f
       0.00028850953781968684 0.007185479951287883
0003b0 7a b5 6f cc a7 06 6e 3f 3c 77 8a 8a b8 81 72 bf
       0.0036652829471594513 -0.004518242706266492
0003c0 ac 5c 69 b5 3f db 65 3f 83 65 97 c6 31 53 7e 3f
       0.0026680225667337822 0.007403559147371455
0003d0 70 b6 3b 63 5f 99 81 3f 36 fb a2 88 7f a2 87 bf
       0.008593316284044777 -0.011540409428901204
0003e0 63 80 72 bd e4 09 67 bf 49 7a de 2b 0e 6e 56 3f
       -0.0028123347834281705 0.0013690126793119031
0003f0 c1 85 a5 da 89 dd 59 bf 1b 57 d1 59 86 5f 7b bf
       -0.0015786977988557634 -0.006682896430978659
