models/model_mean.pt (torch, 597803 bytes, 12 tensors)

convs.0.weight f8 [61, 128]
0	0x3fc941f69a17f2d2	0.19732553981875484
1	0x3fcbc39544ca165c	0.21690622195108034
2	0xbfbd1b8ee6cfee49	-0.11370175490440561
3	0x3fc5313082f4d9ee	0.16556364435537269
4	0xbfbbed3f7992f754	-0.10908886640660614
5	0x3fa234bac920c954	0.035558545161978344
6	0xbf8fcaf7e8445d90	-0.015523850227096486
7	0x3fa0bc2dcde25336	0.032685691244444134
8	0x3fcd488a88902a24	0.22877628009912698
9	0xbfb0a74ce9324473	-0.06505280202169832
10	0x3fc141c5b3baca5a	0.13481971050130676
11	0xbfa3bed348ac607d	-0.03856525671125242
12	0x3fc619661ca33049	0.17265011213601358
13	0xbfa5f97d40828e2e	-0.042919077038530026
14	0x3fb81f62c0e43a33	0.09422890862718063
15	0x3f9196c3ef98a4d2	0.017176686762614697
16	0x3fb0cbd6b5d5521f	0.06561033191003006
17	0xbfa625a4e07ca75e	-0.0432559513122459
18	0xbf723a4f850c23a6	-0.004450140594379903
19	0xbf9c7aafb883fe07	-0.027811761509836355
20	0xbfc20291cf91778a	-0.14070341715972418
21	0xbfb99ab146ac7720	-0.1000166699927516
22	0x3f4ab9efc7a5f33a	0.0008156224060225988
23	0x3fa5f70e44a26a18	0.04290051067183159
24	0xbfca94d4e10716a1	-0.20766697871856812
25	0xbfbcac960893ee6d	-0.11200845441265424
26	0x3f91a1a9b8bf8a98	0.01721825780976846
27	0xbfc70db8408e0ddc	-0.1801061930856197
28	0xbfa95a3beb7a503b	-0.0495165562580557
29	0xbfcb633c224507aa	-0.21396590874979654
30	0x3fcdc4ddf5e697ce	0.2325704050719523
31	0xbfb4f668a4fd0766	-0.08188489940678564
32	0x3fca8503bc774fbc	0.20718428327984195
33	0xbfa6e057e7560593	-0.044680354108105245
34	0x3f8518f8b41e1b42	0.01030153560328773
35	0x3fa40f5a794b2dc9	0.039179637247424966
36	0x3fb57b0ffd401a4c	0.08390903408881306
37	0x3fcb7a58602be16f	0.2146711797320324
38	0xbfa1de6d44dc4f9c	-0.034900107055505475
39	0x3f8f7f8f0d7f2ac6	0.015380017852199567
40	0xbf9c6285eacd48ad	-0.027719585853738838
41	0x3f9b82c6799a383e	0.0268660556526401
42	0x3fc296a95bbe5fb8	0.14522282581014934
43	0x3fc48b3b557a53ca	0.16049901651117998
44	0x3fa032bfe9d7bcde	0.03163718919301471
45	0xbfbe998d2ca84060	-0.11953050937904797
46	0x3fc5403ad9c65890	0.16602264054808247
47	0x3fb63e77b35b19c8	0.0868906796341441
48	0x3f9425ccd5c1571d	0.019675446077903936
49	0xbfc77461e9a6b001	-0.1832392111658692
50	0xbfce01f8fe07bf86	-0.23443519977399435
51	0xbf682a8336fa2fbf	-0.00294995906717152
52	0xbfb0e0b7bd3a8400	-0.0659289204582052
53	0x3fb593dfd531ab96	0.08428763346607435
54	0xbf96b378dda17d31	-0.022169006850501553
55	0x3fc1b99bf82c98cc	0.13847684495812584
56	0x3fc01519865979cd	0.12564391193423177
57	0x3fb161f9887b1312	0.06790122587251471
58	0x3fc94c003b58af31	0.19763186357283183
59	0xbfc8ef4cc68cec84	-0.1948028535351548
60	0xbfb0252b9263b4ae	-0.0630671722789937
61	0xbfbb97cc037cf8e0	-0.10778498730812514
62	0xbf92ceb6cc63ee44	-0.018366676545140473
63	0x3f8013314d18a392	0.007849106946268756
64	0x3fbede41cd2f8d1c	0.12057887324731492
65	0x3f9ebd827ba120a4	0.03001979713033677
66	0x3fcb62692c874721	0.21394076036681844
67	0xbfc5f8aff7a4fb37	-0.1716518363191086
68	0xbfc27aa8903429cf	-0.14436823884200442
69	0xbfc6a67be067c29f	-0.17695568520823188
70	0x3fcd4c81144fc63b	0.22889722339418647
71	0xbf841fdc84b265cf	-0.0098263957973356
72	0x3fb84aab6260d95e	0.0948893656903684
73	0xbfcb1ec3e2df1224	-0.21187637880042687
74	0xbfbc76cd2cd5b249	-0.11118776650045804
75	0xbfb0c6d19b62a522	-0.06553373378359997
76	0xbfc48daae901f298	-0.1605733525974713
77	0x3fc2342d5fbdfac9	0.142217323063923
78	0x3fc117526ba8d73c	0.13352422959149546
79	0x3fb22df33cb266e7	0.07101364356858718
80	0xbfc44bdeba5aaccb	-0.15856536959959153
81	0xbfb344009a2b4f72	-0.07525638355155964
82	0x3faa43c2b213995a	0.051298221814976855
83	0xbfc2997bbcf62dcf	-0.14530894018785864
84	0x3f9f7f0bb8a56f7c	0.03075807871333279
85	0xbfb5d7ba96bcf380	-0.08532301120881236
86	0x3fb6680b4f20b24d	0.08752508813695066
87	0xbfca873e805e6251	-0.2072523237991555
88	0xbfa3b03178a29bd1	-0.03845362279508147
89	0x3fbdf1a7c449e58b	0.11696861784175476
90	0xbf9cbb3878c81d5f	-0.028057939884118862
91	0xbfbf3294f4a145e8	-0.12186556789790581
92	0x3fc662aa2bc0bf87	0.17488600860951584
93	0x3fa6b1d88f23c8e9	0.04432560679733106
94	0xbfc88d0514f0d4e7	-0.19180358431336872
95	0xbfa48dc8f71ce822	-0.04014423386111356
96	0x3fb56548a40394fd	0.08357671741721968
97	0xbfb57b4bb595e5b1	-0.0839125936817229
98	0xbf8a4042d364d822	-0.01281788070319229
99	0xbfce3e5e02ccf9fa	-0.23627829682114038
100	0xbfa52e79f00d7783	-0.04137021117524766
101	0xbf9a6ff39035bf8f	-0.025817685772778595
102	0x3f6e2cc31c4b6565	0.003683453631634736
103	0xbfc6a295f9d0bb91	-0.17683672616973614
104	0x3fb21a1ba35dfbbe	0.07071087587790623
105	0xbfc856c93502302b	-0.19014849746997817
106	0xbfcb563ed5a9ed7f	-0.21356950218965307
107	0xbf9a52b7bc596b5e	-0.025706168051651594
108	0xbfccbf83a71739cd	-0.2245945516464886
109	0xbfc7a2724f7430fe	-0.18464497451385137
110	0x3fbba3710dbdec9f	0.10796267114158063
111	0x3f83717c9d669977	0.009493802598467422
112	0x3fbf708b927741a0	0.12281105352236077
113	0xbfb7cd89a352f964	-0.09298000562100622
114	0xbfc8382ca794c5a2	-0.1892143076197899
115	0xbfc01455d46d6e22	-0.1256205832713571
116	0xbf9e77f2329e328f	-0.029754433001971278
117	0xbfb7fb5969406157	-0.09367903537384357
118	0xbfc2d887c62d7117	-0.14723298241268232
119	0xbf9956be150e6b39	-0.024744958911109925
120	0x3f9aaafb33f46e1a	0.02604286675078358
121	0x3f7c11dd8443b652	0.006852975177236669
122	0xbfae78714fd2ee2d	-0.05951265429891026
123	0xbfc7c15dd18b588e	-0.18558857661873102
124	0xbfc7ed0c29c02294	-0.18692161596870405
125	0xbfc5ef0db2042748	-0.17135783378790337
126	0xbfc0e08a9b792737	-0.1318524607798339
127	0xbfca00bc313f4307	-0.20314743427891122
128	0x3fc2f6443548c4ac	0.14814045526285236
129	0xbfa1f3fa723716cc	-0.03506453174808896
130	0x3fc375360a307f97	0.1520144986870917
131	0x3fac2f8962e06e01	0.055050175971896216
132	0xbfc32679cda55192	-0.1496116880540624
133	0x3fbf4cfc43275caa	0.12226845397468603
134	0xbfa8e3bb66aa3aca	-0.048612457544654555
135	0xbfb1567b87162633	-0.06772586868296386
136	0xbfc2c5a3a495414d	-0.1466564706447663
137	0xbfc67ba0eb29c037	-0.17564784510204998
138	0x3fa9e1acf26916cf	0.050549892989278804
139	0xbfa3c2aa8c7a5ca0	-0.038594560287657176
140	0x3fb19bebe59a1894	0.06878542285457662
141	0xbfc28f2d7689337d	-0.14499443328750408
142	0x3fc0ca3ebbd2f54f	0.13117202921959367
143	0xbfc099c19e59a1cc	-0.1296922705835314
144	0xbf9f3d72e8baa22d	-0.0305078463121921
145	0x3fa2e4f335a16049	0.03690300016086263
146	0x3fb7599ccd90c8f9	0.09121112841311065
147	0x3fc241dee21b21d4	0.14263521232920928
148	0x3fc499f077675fd6	0.16094785528434724
149	0xbfc1ee92281bd768	-0.14009310682711917
150	0x3fa6c40b7710bc1e	0.04446445301470468
151	0xbfb3745f5b1ee2b1	-0.07599445318818245
152	0xbf93d37906cb84b4	-0.019361392059072016
153	0xbfc0ed559dff23bc	-0.13224287237815513
154	0x3fc4995b5a5514ba	0.16093007956275135
155	0xbfc09928a999a5a4	-0.1296740368009469
156	0x3fb82c576fc3768b	0.09442659834481952
157	0x3fafca8bf6fb0e08	0.06209218397046007
158	0x3fad653eaa4ed630	0.057413061418099764
159	0xbfb87412580a26dd	-0.09552111291318562
160	0x3fc48e50c3bf5ee6	0.16059312398896636
161	0x3fa3e0ec262dd283	0.0388253971677033
162	0x3f974606989bb4d0	0.022728064598528885
163	0xbfc3edf7a5f9bb58	-0.15569968799851597
164	0x3fb2fcad13ba6552	0.07416803104060435
165	0xbf9b2446ae321668	-0.026505569822367653
166	0xbfb4b88fc62accde	-0.08094118679109694
167	0x3fc36cd0b8dec3fb	0.1517582800566116
168	0x3fa42afd7e722bb8	0.039390489278125995
169	0xbfb90650c15a6aaf	-0.0977526161245048
170	0xbfb6e48444673301	-0.08942438764570328
171	0xbf8147a8620f9345	-0.008437457554416059
172	0x3fb941315f438195	0.09865101409696415
173	0xbfa71d95ecec14f5	-0.04514759556881557
174	0xbfb9ce9cbb4618c5	-0.10080890247454295
175	0xbfaefa33ea778364	-0.06050264584678791
176	0xbfc0e5241c789aca	-0.13199283018294344
177	0x3fb02166a44c8cb8	0.06300965796667668
178	0x3fc181416572a0dd	0.1367570634222436
179	0xbfc54a684c229857	-0.1663332340005492
180	0x3fa502669d22cf89	0.04103394191898164
181	0x3fb75d8c872e3f8f	0.09127119350728051
182	0x3fa0672da72d7ac4	0.03203718820326665
183	0xbfb01b85602fa786	-0.06291993711752583
184	0x3fb79b7ffd0f2b47	0.09221649101452299
185	0x3fb7c4d93128c7ac	0.09284741830995696
186	0x3fb0e9a7961c46b3	0.06606528677755356
187	0xbf9fca9f0da43b92	-0.031046376426327855
188	0xbfa7f432e5b9f0f4	-0.04678496412540936
189	0x3f935adf549290ba	0.018901338135621094
190	0xbf9ff5d1c050e1f1	-0.031211163867029105
191	0xbfaaf507df60c4bf	-0.05265068628103497
192	0x3fbce94b19ee6579	0.11293477423750699
193	0x3fc36f700b05493f	0.15183830774419424
194	0xbf91e91c1bcc78e7	-0.01749080581350251
195	0xbfa440f1f27b92ac	-0.03955799183839778
196	0x3f651eca8163b2ff	0.0025781588729983924
197	0xbf859ad4c0a472d5	-0.010549223069170758
198	0x3fa5bf61b8acce70	0.042475751679742824
199	0x3fa95993d049d6b3	0.04951154630263712
200	0xbfc48a4b19a54809	-0.16047037842014358
201	0xbfb0b10a31cc6301	-0.06520141330510044
202	0x3fc30b7432cac613	0.14878704528887052
203	0x3fb19e9b351fc911	0.06882638976074797
204	0xbf81ff3d2f32cf42	-0.008787611010440014
205	0xbfbb44f7a1ee9039	-0.10652110770621527
206	0xbfbbac02d9a50e51	-0.10809343160240671
207	0xbfc441fbd2affb11	-0.15826366221877966
208	0xbfad7c8d9010e448	-0.057590888820819475
209	0x3fae8c77319d17b2	0.05966541748652733
210	0x3fbcd6f01a57509e	0.11265469210713028
211	0x3fb4e1eeed61de8c	0.08157246871439322
212	0xbfc3fd894e6a3ed2	-0.1561748154531331
213	0xbfbb3318f519b303	-0.10624843582054315
214	0xbf9c8d5a95e8101f	-0.02788297214466706
215	0x3fc5e0683330bdd8	0.17091085910349935
216	0x3f9a2be17e711084	0.02555801710356366
217	0xbfa76d2d4edef7b2	-0.045754829290202706
218	0x3fb2b65ade4d9a5e	0.07309501578638719
219	0xbfb13a2d9351e338	-0.06729397627522082
220	0xbfbd467d25a206d8	-0.1143568245770682
221	0x3fc081a27b908b1e	0.12895613702229353
222	0xbfb490eeb8d9ce71	-0.08033649456938875
223	0xbfa2225b6188889e	-0.03541837277977432
224	0xbfc67f5ab98c4019	-0.17576154766038668
225	0x3fbe4565ba62ad66	0.11824641991068105
226	0x3fc12246b6aa171d	0.13385852736626527
227	0x3fb07be5e7fea3f5	0.0643905345338139
228	0xbfbf89a5a3e0a3a4	-0.12319407702365354
229	0xbfc651d313a94e3f	-0.17437208614374985
230	0xbfc25e0eb71a4378	-0.1434954065375924
231	0x3fc0dd2ed87c5561	0.13174996920194373
232	0x3fb5b714f23496d0	0.08482485688417829
233	0x3fc307d5c9153d1e	0.1486766082621011
234	0x3fb7b1d22628892f	0.09255708152389695
235	0x3fa6e50ae0e1b03a	0.04471620555054341
236	0xbf5c58d8cc2ee3ec	-0.0017301671184510826
237	0xbfc132e6762e8b5c	-0.1343658520755423
238	0xbfc3603a1bf04065	-0.1513741146486637
239	0xbfc52723ccbf3c4a	-0.16525695321476724
240	0x3fb283f2e7d5fc21	0.07232587966971994
241	0xbfb634dab0fe8684	-0.08674399205349387
242	0xbfa2348e185d7e08	-0.03555721328188716
243	0xbfba07b3590e31d5	-0.10168000148968954
244	0xbfa07be2aef959e0	-0.03219517122186111
245	0xbfbfd59cc024c8cf	-0.12435321513183627
246	0xbfbd8dd0adc8e1ec	-0.11544517748632871
247	0x3fae01ac259b43c9	0.05860650977195509
248	0xbfaae2657a6830b9	-0.05250851744867319
249	0x3fbbec22da3ede63	0.10907190159093143
250	0xbfad0534a7218daa	-0.056680341150037464
251	0xbfc096f097d7ae28	-0.12960631765541675
252	0xbf9febda95442b25	-0.03117314849900334
253	0xbfb5ecd3cd44f70c	-0.08564494859180288
254	0xbfabacea6434ccd2	-0.0540536162683566
255	0xbfc5878434d2f0e4	-0.16819813327118205

convs.0.bias f8 [128]
0	0x3f8384115129b0b3	0.009529242791551295
1	0xbf5a0364fd0141e8	-0.0015877233709212738
2	0x3f8b1d54aa36cf89	0.013239537663004135
3	0x3f723f4ebbc7512e	0.004454906037114887
4	0xbf55b03017413773	-0.0013237447392557527
5	0xbf758b6fc470a9f1	-0.00525993022078318
6	0xbf58663e00088dc2	-0.0014892201871895415
7	0xbf48fb58af93d3d4	-0.000762384704244052
8	0xbf4c6676a52e2e8d	-0.0008667067835274753
9	0xbf710f9fbe87293f	-0.004165290833450463
10	0xbf897d1ec497419d	-0.01244567906806609
11	0xbf8e511339cae726	-0.014803075982274882
12	0x3f47588127ba3ad4	0.0007124548569253605
13	0x3f72f68db227939d	0.004629662990258601
14	0x3f7ba7eb65eee331	0.006751937412382601
15	0x3f590feb58f0fbdb	0.001529674369308279
16	0x3f593bfe46ef37fe	0.0015401824164089635
17	0x3f6e393bea8fdcef	0.0036894006957442975
18	0xbf9477928877ce2d	-0.01998738248762615
19	0xbf6b90b728d15815	-0.00336490414933178
20	0x3f8ab9b275dc1395	0.013049501630584529
21	0x3f856759add4a7f3	0.010451031319991677
22	0xbf7691e4361049ab	-0.00551022667879623
23	0xbf7e8b775f0ccb36	-0.007457224172685175
24	0x3f38f06a54d5f321	0.0003805408094519781
25	0xbf99054064872361	-0.02443409551213749
26	0xbf479655efdb903c	-0.0007198257078155977
27	0x3f810a59182cb9fe	0.008320518541578
28	0xbf78ee5e25bb5e07	-0.006086700213664204
29	0xbf6db8c6c30ebb80	-0.003628147322579378
30	0xbf52257b1cd5b63f	-0.0011075689575038709
31	0xbf71970a466ca5ed	-0.0042944337244903265
32	0xbf6ce6d786a970de	-0.0035280427448879234
33	0x3f655a03441acbac	0.0026063979902004233
34	0xbf5ffd4f4ae9b61f	-0.0019524835912777606
35	0x3f7bec1f0085ec58	0.006816979505283781
36	0x3f8ec520017d11b4	0.015024423642565711
37	0xbf708c3026bd6d59	-0.004039943781971666
38	0xbf67c72616ea87dd	-0.002902578729234924
39	0xbf5ca210fa131cae	-0.001747623995741947
40	0x3f66b133c12494e1	0.002770043452204094
41	0x3f61e5aa6437bc22	0.0021847084005837273
42	0x3f623f1dccf10688	0.002227361873821835
43	0x3f847d27889f92c9	0.010004338128007178
44	0x3f55e58b408fb756	0.0013364658245751024
45	0xbf8036712432d2c1	-0.00791633979529516
46	0xbf80eddfd7466661	-0.008266209370776769
47	0xbf7905665c7f17bf	-0.006108665322193062
48	0x3f73d97320c3240b	0.0048460480867982365
49	0xbf872b86fd2d728c	-0.011313490487446808
50	0xbf5af7fd082e65f7	-0.0016460391059126536
51	0x3f439fb4d02dfc9b	0.000598872459121841
52	0x3f354e71b6ff3289	0.0003251102089023924
53	0xbf44b18638e45e1d	-0.0006315141088490437
54	0x3f845da1ac149517	0.009944212974526452
55	0xbf6cf31b74c7847d	-0.003533891320544101
56	0xbf1bb4cf8b830b72	-0.00010569111589390863
57	0x3f703b2ccbd3cfec	0.003962683663520022
58	0xbf806f490e1369ea	-0.008024760000286475
59	0x3f866ab8a802bd55	0.01094574225166293
60	0xbf6f53a6800b8582	-0.0038240673023756675
61	0xbf906ed5493dbec0	-0.0160477949097515
62	0xbf5dcca1a3f6e179	-0.001818807460820164
63	0xbf705c706e9f734a	-0.003994406879397181
64	0xbf326e6e785621cf	-0.00028124043486646167
65	0x3f75e1792b7d50ca	0.005341981239173241
66	0x3f77e4df83793a22	0.005833504772069039
67	0xbf73c2c305857b29	-0.0048244112043381105
68	0x3f9313173265a44a	0.01862751240824804
69	0xbf65d693db6294fd	-0.0026657951194289918
70	0xbf646193c5cc5ff4	-0.0024879347023549717
71	0x3f6035122c433cbb	0.0019784312190505838
72	0xbed5f1b10a4d9638	-5.231882970279477e-06
73	0xbf6dfc41fbe871a2	-0.003660324931173701
74	0xbf67c1bebd371767	-0.0029000020383333383
75	0xbf735397accabba0	-0.0047183918765502375
76	0x3f8a2d29fcd140cd	0.012781456020235638
77	0x3f31e3d5c7708aab	0.00027297944274288594
78	0xbf12ee09d13528c2	-7.2211598582647e-05
79	0xbf88041a6cec3ea9	-0.01172657627969838
80	0x3f62e62fba633451	0.0023070270718564064
81	0xbf9091be220def46	-0.016180964306371302
82	0xbf7be2bb828b176a	-0.006808025799449039
83	0x3f6480a03f7848ee	0.0025027398912779086
84	0x3f8ca01cec6d77e4	0.013977266278455809
85	0x3f7ff03d0cc7e988	0.007797468639632384
86	0x3f8199f89f3e6f2b	0.008594457969415345
87	0x3f76341466df091e	0.005420760817232554
88	0x3f7ffd0ccb1a16d2	0.00780968663605615
89	0xbf80096b8fc1237d	-0.007830467533624258
90	0xbf65eb61c03a57c0	-0.002675715369899273
91	0xbf5e08b0a8ca54ff	-0.0018331265629616953
92	0xbf74f157b182828d	-0.0051129746936175
93	0x3f6a2c02050cd855	0.0031948127219961022
94	0xbf71c766af092485	-0.0043405543406801516
95	0x3f5786ea7c1061f0	0.0014359750641742518
96	0xbf6d7c0128f94367	-0.00359916903088513
97	0x3f93643b5e46e97b	0.018937041882716592
98	0xbf76c2f4f6de97cc	-0.005557019130639728
99	0x3f7f82f025b5fe13	0.007693231654570381
100	0xbf781ad5a4ed1ff8	-0.005884966419053221
101	0x3f71bd52e9447fa8	0.004330943939095201
102	0xbf8921e3a5af7215	-0.012271669858756199
103	0xbf78918888738eac	-0.005998166400988641
104	0xbf9002457ec5b00e	-0.015633664953767883
105	0xbf665478409504da	-0.002725825183603631
106	0x3f74b53ffd0bed63	0.005055665926870875
107	0xbf73387d16e34998	-0.00469254363106799
108	0xbf74b78c54e883b3	-0.005057857676121924
109	0x3f72018c4981fad6	0.0043960075346365
110	0xbf632eae99056411	-0.002341595660408043
111	0x3f8f75dc671fadd2	0.015361520669066406
112	0xbf7284ec4d2e720c	-0.004521296551413655
113	0xbf73955bedee83ec	-0.004781111811923627
114	0x3f7093cc309722bf	0.004047200790815607
115	0x3f708043281c27fb	0.004028570490627099
116	0x3f73e7cc42c40ef0	0.004859731572881762
117	0x3f89ae46d199b9f6	0.012539437552928395
118	0x3f53d962d6bb8037	0.0012114968512193633
119	0x3f7935da0db72c8e	0.006154872676641733
120	0xbf883718826235de	-0.011823836783402205
121	0x3f82e561d3a8938d	0.009226574203305105
122	0x3f821e6cd8466fb9	0.008847093916123915
123	0x3f61d7409bfd6ffd	0.0021778356457797785
124	0x3f768e5c8d603da3	0.0055068602869278475
125	0x3f7cce01efb2f5c5	0.007032401622550426
126	0x3f50600db098caa3	0.0009994634332427886
127	0x3f71019dcc45d440	0.004151932142453296

convs.1.weight f8 [128, 128]
0	0xbfbfaec2206eb00f	-0.12376035014921193
1	0x3fb86f648c3ee7fb	0.09544971870391798
2	0x3fc0668efa2d5458	0.12812983718564186
3	0xbfb8279327453f77	-0.09435386379959519
4	0x3fa5dfe9dce5ce8a	0.042723949637459915
5	0xbfb226a8687c3735	-0.07090237189205768
6	0x3fc100ded3dd7597	0.13283906311964408
7	0x3fb642058e5f7ecd	0.08694491125015276
8	0x3faae4b0b7cdce72	0.052526018559459056
9	0xbfbe2e3ad1ea9920	-0.11789291024124227
10	0xbfb616fb071bd3c0	-0.08628815578033677
11	0xbf983914e1ebcafe	-0.023655248917701314
12	0xbfbbefc105732e7c	-0.1091271055512894
13	0xbfb64f7ad1372b32	-0.08715026481438029
14	0x3fa7b0cbb30107f7	0.046270719147756205
15	0xbfc122bfbde1e958	-0.13387295505146812
16	0x3fab1a4033179142	0.052934652554343944
17	0x3f745a525f4c0a1b	0.004968950049035327
18	0xbf9c5c71186d07fe	-0.027696387401427096
19	0xbfad5e229c921af5	-0.057358819592129885
20	0xbfb2d95d3f577c5c	-0.07362921520642501
21	0xbfc1fb232511b67d	-0.14047660169619638
22	0xbfbedb57d7317dbb	-0.12053441051238327
23	0x3fbba7bc45daa350	0.10802818971081973
24	0xbf842787dc69c71c	-0.009841023839928513
25	0x3fc360fd73e0f59d	0.1513974014105032
26	0x3f73de4032f82fdd	0.004850626733524846
27	0xbf88b3df793826d7	-0.012061830412693748
28	0x3fb92cfb084e9a41	0.09834259941872238
29	0xbfc08ece26d069fe	-0.1293580712816293
30	0xbfb6ace0261de714	-0.08857537203394045
31	0x3fb79bc1511984b4	0.09222038488362011
32	0xbfa98b7c0040be9b	-0.04989230635726224
33	0x3fc0099cbbc81a18	0.12529334229493894
34	0xbf9a69768cf69adb	-0.02579293475505549
35	0x3fbbe3f991f0047d	0.10894737065247458
36	0x3f68c79c733a1a90	0.0030248695055122357
37	0x3f992677cdb9de09	0.024560806209107642
38	0xbfc0cf937d5cfa94	-0.13133472081422737
39	0xbfa68448aac11704	-0.04397799572374875
40	0xbf7963195cee8c00	-0.006198023866917701
41	0x3fb062c2a6b8cfa0	0.06400696344718293
42	0x3fa1617108b3fc9f	0.033946544945132155
43	0xbf9c150ccb670f3f	-0.027424049296100646
44	0xbf9600f86a57e64c	-0.021488076677974186
45	0x3fc20a0de1bcac72	0.1409318306189991
46	0x3fbb796f93c10c83	0.10732171399381411
47	0x3faad05b2f01827e	0.052370881546043954
48	0xbfbb2b871fbd7d90	-0.10613293194682272
49	0xbfb317f87c1db784	-0.07458451299836893
50	0x3fb74deca8c96658	0.09103278275269966
51	0x3fc205be8819c544	0.14080030103245111
52	0xbfb44a925a5eca1a	-0.07926287370973065
53	0x3faec52744ec5409	0.060097911036940906
54	0xbfa8f1f91645c8a8	-0.04872110745317687
55	0x3fb70d188821d6ba	0.09004357646503083
56	0xbfa1ab5250370675	-0.03451020459352786
57	0xbfbf18ab13ba2de5	-0.12147015792486789
58	0xbfbabe96508f6869	-0.10447062937547148
59	0x3f812edda29d8b61	0.00839017059815256
60	0x3fa5c9e8e92d2803	0.04255607458487989
61	0xbfb6edcdebbb6390	-0.08956610684562194
62	0x3fbbef99843a1338	0.10912475088305207
63	0x3fa97b2791c6c4f2	0.049767719788528356
64	0x3fb5131ebf77950b	0.08232299971094308
65	0x3fb3a26f232183bb	0.07669729812324892
66	0xbfc44672b61e54d4	-0.1583999051332855
67	0xbf98ef64b24565e1	-0.024350713139346673
68	0x3fb2637f2d6b426b	0.07183070048200484
69	0x3fb1aedc42bf038b	0.06907440785927414
70	0xbfc0420e011948c2	-0.1270158295979567
71	0xbfbb7d0f88fac759	-0.10737702459553357
72	0x3fbe1d17e73d92d1	0.11763142962952179
73	0xbfc1471254ffcc9c	-0.13498143339493118
74	0x3fbd2d786d7a456e	0.11397507355493072
75	0xbfa32b67754ed91a	-0.03744052226049828
76	0x3f8da7dd0073fb05	0.014480330063177069
77	0x3fb48c474f76f38b	0.08026548090033551
78	0x3fa4152bd12bf6cf	0.03922402313581374
79	0xbfb92e706806b3d8	-0.09836485423757269
80	0x3fa91b678748105d	0.049037204040389006
81	0xbfc00dd673792525	-0.12542229307499855
82	0xbfb80f2f9f72394f	-0.09398172037820028
83	0xbf89593a14b8fce2	-0.012377218015102224
84	0xbf9f6fe4790ce7b8	-0.030700273407297834
85	0x3fbd548f045f7510	0.11457151276359334
86	0xbfb38f0a803df022	-0.07640138274103994
87	0x3fc0ff262ab28414	0.13278653225737058
88	0x3fb057f6c9f6b234	0.06384222441438042
89	0x3fb4d8efc7085450	0.0814351902884749
90	0x3fb9daeee8801f14	0.1009969060543166
91	0xbfb85c159973f2cf	-0.09515509601983328
92	0xbfc111424b77fbb1	-0.13333920178408
93	0x3f54a5afc400fc1a	0.0012602058850601562
94	0x3fb32e062405cd55	0.07492102031192378
95	0x3fb6f952455347cc	0.08974184219849163
96	0x3f8edbb8bc67cee7	0.015067523240737525
97	0x3fc273f7e4d650b6	0.14416407273950477
98	0x3fa5840e96a9afcc	0.04202313985010128
99	0x3faefedb13d908b4	0.060538145230127155
100	0xbfa7c07f3b4aac84	-0.04639051054740498
101	0x3fb3b7fa9538ac58	0.07702604430294124
102	0xbfb1bfe8b764721d	-0.06933454968788806
103	0xbfc00d871354e5a2	-0.12541283077170556
104	0xbfb75db28980dd17	-0.09127345902458149
105	0xbfb78bdfbde3f3ef	-0.09197805772778599
106	0xbf8a2ea6a61bb498	-0.012784292167874065
107	0xbfb1a652c46c8a12	-0.06894414229876869
108	0x3fc15256734c4ec0	0.13532524709500215
109	0x3fb10912cff36156	0.06654470040246471
110	0xbfbf5f1fea741bbe	-0.1225452372928961
111	0x3f87d322ec95151f	0.01163317951671644
112	0x3fc06d02bec8fc08	0.12832674327543736
113	0xbf824a39cea9af8b	-0.008930636996602256
114	0x3fa04bc8da883445	0.031828190494799936
115	0x3fa041a105428774	0.031750709430766216
116	0xbfa7f919b572443b	-0.04682236041947659
117	0xbfba8e739863f138	-0.10373613806217896
118	0xbfabd8637355fa5d	-0.05438528807552665
119	0xbfab0804dae1fb2c	-0.052795554846844034
120	0x3fc14aaed79e4e41	0.13509164360276496
121	0xbfb903141e22076c	-0.0977032254759515
122	0x3f978be9596ec0b4	0.022994657596144122
123	0xbfabb0c40c98b4ee	-0.05408299115911484
124	0xbf86de604ac22711	-0.011166336327977729
125	0xbf9a8973518476be	-0.02591495690386724
126	0xbfb0290146cb0dec	-0.06312568643902922
127	0x3f969c5bc0f3b88f	0.02208083501039276
128	0x3f9b1f633b768319	0.02648692179139109
129	0xbfb74daf36988819	-0.09102912028222966
130	0x3fbaeafece85e248	0.10514824430527725
131	0x3fc3c76a21cc0a17	0.1545231499695354
132	0xbfaa952ef78c7510	-0.05191942951044315
133	0x3fa2bd8f34c59ea0	0.03660247344197143
134	0xbfa000213f6e37c1	-0.031250990860925316
135	0x3fc195fbb679bb2b	0.13738962564408416
136	0xbf9354b03847ef03	-0.018877747950667444
137	0xbfc027988e79acfb	-0.12620837170411633
138	0x3f9e8ec71bb49256	0.029841528955460404
139	0x3fc222c49be0e2e1	0.14168603526356718
140	0xbf9165c3261caf61	-0.01698975486867427
141	0xbf954133a3a6bac3	-0.020756537307245148
142	0x3f8eb6e925065f4c	0.014997312014017126
143	0x3fb50a379f00113f	0.08218715316622126
144	0x3fc3ff1d4ae13eaf	0.15622297435992524
145	0xbf989e64a3e0ae38	-0.024041721823023304
146	0x3fb8e73563afac75	0.09727796252961858
147	0x3fb334ce4dabe59e	0.07502450367237265
148	0x3fc31baac9630b3b	0.14928183396667713
149	0x3fbe9c2953a831de	0.11957033436210149
150	0xbfc097af46b30239	-0.1296290488444514
151	0xbfc2956cfd50f636	-0.14518511170347076
152	0xbfbd216168a8b2d0	-0.11379059605742303
153	0x3fbb6981cfb8cc93	0.10707866021475558
154	0xbfb719966648ed8f	-0.09023418423833206
155	0x3fb7c467885673d9	0.09284064367825752
156	0xbf94e466fb684ea2	-0.020402535528843864
157	0xbfb21e7c7c274be3	-0.07077768355456686
158	0x3fbb1ea0118fe8a9	0.10593605450404432
159	0xbf92db8aa921286e	-0.01841560990605056
160	0xbfb6c48ad4fd1f90	-0.08893649768753975
161	0xbf88bdfc86556cc9	-0.01208112034753696
162	0xbfbad4ff1bbc3f3b	-0.10481256892330475
163	0xbfc476b9888d59ca	-0.15987319152436746
164	0xbfa6e021735b1bb1	-0.044678731280832
165	0xbf83d6e6011fe647	-0.009687230023689554
166	0xbfbba5a82865fe33	-0.10799647318162257
167	0x3fc3f8c5d00948c8	0.1560294404794773
168	0xbfa7a17b4906e4d7	-0.046153881706638415
169	0xbfa97701877654fa	-0.04973606852142072
170	0x3fbc39d1cbe4cba5	0.1102572558200295
171	0x3f9d23e1820e947a	0.028457187235876515
172	0xbf9eb606acdeccef	-0.029991249371687564
173	0x3fa4b34fbd1980fc	0.04043053801865601
174	0xbfbf37a9babeb7ba	-0.12194310006336098
175	0x3fc258b8ae2c6e99	0.1433325624901627
176	0x3faa7fcb45fc0a3a	0.05175624112418516
177	0x3fa3c8971092bf96	0.03863975598630913
178	0xbfc0368c4dfbf285	-0.12666467483349578
179	0x3fba513b2cdbfdc0	0.10280198903273341
180	0xbfc125e0141931a1	-0.1339683626305375
181	0xbfa2dbd6d32e1793	-0.03683348968392788
182	0xbfba4833ac08f4d4	-0.10266421270440002
183	0xbfb19bdc612902eb	-0.06878449794841017
184	0x3fa1dd51b8010c96	0.034891656600415974
185	0xbfc43e49d10ec45e	-0.15815088947195738
186	0xbfc85950a026b573	-0.1902256757725059
187	0x3f8add85fd076208	0.013117834839179401
188	0x3fb0c22f4663b868	0.06546302288526962
189	0xbf93c7936abc0c84	-0.019316008939324295
190	0xbfafc794765b0bad	-0.062069549033842854
191	0x3f14ea5f193958fc	7.978635249492391e-05
192	0xbf94e9a5ce7195a5	-0.020422545171091894
193	0xbf91791423cc1729	-0.017063440976037434
194	0xbfbb852cec05faa5	-0.10750084650315246
195	0x3fc074054cc57f58	0.12854067085845133
196	0x3fa979c0d3f80b59	0.049757028460610093
197	0xbfbdd7a63697b72e	-0.11657179673030946
198	0xbfa9af90e05ea2c3	-0.05016758669746004
199	0xbfb97e1baa659195	-0.09958050642086953
200	0xbfb42efca73bdf38	-0.07884196360452911
201	0x3fbb34b5535d3071	0.10627301488165287
202	0x3fb010e35b530c97	0.06275769214248537
203	0x3fa73c37f25ccdea	0.04538130601431674
204	0xbfa76e6f2a075bd3	-0.045764421349012395
205	0xbfa03b5632b38b0b	-0.03170270317948195
206	0xbf4ab374c42306ff	-0.0008148498675597248
207	0xbfbded1445df919c	-0.11689879136935705
208	0xbfc2a6f62838ddde	-0.14572026218387085
209	0x3fbd1a5c60d01dcd	0.1136834846839669
210	0x3fa87f4c172ef436	0.0478462007808748
211	0x3fbbcd8ef5e50538	0.10860532286917113
212	0x3fba681cf34adadd	0.10315113963848029
213	0x3fb1f38788d95e58	0.07012221423189524
214	0xbfa20a2b1f3e3f22	-0.03523382908235663
215	0xbf8cf3d88e09e559	-0.01413697417705133
216	0xbf981148455665c4	-0.023503426773094707
217	0xbf907efbfd5f13b9	-0.016109406795084633
218	0xbf88362dcc263d96	-0.0118220880438276
219	0xbfb970f3cdaa2de5	-0.09937976618873952
220	0xbfa8c6a64fe84274	-0.04839057660513371
221	0x3fb7b60eae2deafe	0.09262172462869597
222	0x3f8d476e7f8f40d6	0.014296401279267828
223	0xbfabb24d700396e3	-0.05409471504553467
224	0x3fbc6adf279f32fc	0.1110057327015958
225	0xbfb0d1aee7f6136a	-0.06569951212993677
226	0xbf81b02f05c91425	-0.008636824955042208
227	0x3fb853a1b9ae010f	0.09502611907192125
228	0xbfbde0aa9bfd893d	-0.11670938785895131
229	0xbfb8a1826ef39ec5	-0.09621443947582538
230	0x3fbb6d8e0cd2336a	0.10714042485251488
231	0xbfa18622124e5fd6	-0.03422647927726501
232	0xbfaf18d7aa7ccdef	-0.06073640781542255
233	0x3fbb19999b0873d4	0.10585937533365036
234	0x3f9c5651cc14d6d9	0.027673032838001575
235	0xbfc450acb833c1d9	-0.15871199602362543
236	0xbfc11d90f7ff76c3	-0.13371479138634443
237	0xbf9feecbb483c925	-0.03118437089228467
238	0x3f5ad0625649deb6	0.00163659671048137
239	0xbfba2fcb4080d684	-0.10229177784716553
240	0xbfb1aa4f85de411b	-0.06900498407617699
241	0x3fa07ba7c29ed232	0.03219341517197839
242	0xbfc08575478fd3d9	-0.1290728187010746
243	0xbfc30b8b556dc456	-0.14878980323149688
244	0x3fa6faa2e4e6e0be	0.044880953256723796
245	0x3f87678fb3d581e1	0.011427996326063674
246	0xbfc0dfe8ffd93241	-0.13183319561575682
247	0xbfc3f28c9ef113f7	-0.1558395172197888
248	0x3fb1358b57975d7d	0.06722327125986811
249	0x3fc1362ba250aca7	0.13446565080207515
250	0xbfaabb80fff47f9d	-0.05221179127170148
251	0x3fc208b4b6784c9f	0.14089068326629658
252	0x3fbdf305e915abf6	0.11698948803466167
253	0x3fc07cc8ea95fef6	0.1288081307829924
254	0xbfa7ec1a4bb00c23	-0.04672319578096331
255	0xbfa2ed48d5a4952f	-0.03696658714242528

convs.1.bias f8 [128]
0	0x3f5b85e055085748	0.0016798678153739522
1	0xbf72436b8e6626fc	-0.004458828107439802
2	0x3ee60e69b8146187	1.051726371996475e-05
3	0xbf7adc5480cd6d69	-0.00655777939831679
4	0xbf6eed76ec2d28af	-0.0037753412920312405
5	0xbf4bd3f3066660e0	-0.0008492409368044095
6	0xbf813de19ad3e6e5	-0.008418810403316221
7	0x3f8478c14c82accc	0.009995947024739847
8	0x3f6c7ca72593f3e5	0.00347740789277261
9	0x3f46e632e68291e9	0.0006988285577063633
10	0x3f752a44772ab86c	0.0051672625001356436
11	0xbf534167340e04e8	-0.0011752612919909092
12	0xbf8064fe8f1bffcc	-0.008005131475783765
13	0x3f43e74592375981	0.0006074037268557904
14	0x3f5f5830b1f7d2e3	0.0019131160296385556
15	0x3f7b002b8b2933a8	0.006591959087541101
16	0x3f56a28886ea0ac2	0.0013815243979996982
17	0xbf64fe53461085ff	-0.002562677997517637
18	0x3f8985747e7f56f8	0.012461576567072793
19	0x3f70a42a6e084f1a	0.004062810651266147
20	0xbf579e357f4ddd7d	-0.0014415285524743409
21	0xbf4eab6fa396d6a5	-0.0009359641182331192
22	0x3f55975eeb4ced0b	0.001317827887034553
23	0x3f4c1fc5ef35b8e7	0.000858279845869861
24	0x3f592e58e35968ce	0.0015369289443670111
25	0x3f53d248707028b7	0.0012098033346342027
26	0x3f5569268335d5d6	0.0013068080996537688
27	0xbf5ab581d55f1d07	-0.0016301887421706367
28	0xbf4c6f13305ed824	-0.0008677333541899962
29	0xbf904387b7617309	-0.01588260704771741
30	0x3f566fb761a33751	0.0013694086870148124
31	0xbf74b8bca5b2e99f	-0.005058991340030876
32	0x3f6733387a7286c3	0.0028320410816185817
33	0xbf71ce8450eb5c72	-0.004347340450031033
34	0x3f7279de7cb9f289	0.004510754671738789
35	0xbf610ef61a3832c4	-0.0020823294341937044
36	0xbf5f7108e03f6e31	-0.001919039409577727
37	0xbf69fd923342ce1a	-0.0031726699326897314
38	0x3f3c1a9dc20a220b	0.00042883254540318554
39	0xbf6876ecb999845f	-0.0029863952193385636
40	0x3f4c55257bce4a15	0.0008646424317809177
41	0x3f7820143f5c8d0a	0.00588996800596254
42	0xbf5490e20830c4cc	-0.001255245909089364
43	0xbf393774e5864e9a	-0.0003847751991312515
44	0x3f3d00a3fa805a78	0.0004425430620370939
45	0xbf79e87906b6257f	-0.006325218924197683
46	0xbf7ad991bf3d379c	-0.006555146526649038
47	0xbf6bdd9279e9576e	-0.0034015522826775146
48	0x3f5cbdf555501f63	0.0017542739708477854
49	0x3f83e117a97e549c	0.009706673488646005
50	0xbeda3c8438c7b3ac	-6.255243431213633e-06
51	0xbf80acec0aee91fa	-0.008142322620025223
52	0x3f6d5155a3563549	0.0035788223855834117
53	0x3f877c19b70d7306	0.011467171572513656
54	0x3f706a5548ebbc7f	0.004007657188352386
55	0x3f8cc44f2cfcdefe	0.014046305237215059
56	0x3f7710e881cc3003	0.005631359320215526
57	0xbf723b52c805f764	-0.004451106419194637
58	0xbf80ba03d61aae50	-0.008167295428697902
59	0xbf8bec8bad85a604	-0.013634768708203467
60	0x3f524482290b6f22	0.0011149664971332259
61	0xbf6073fe23b1b128	-0.0020084346447700914
62	0x3f7528d0e37cedb1	0.005165878268424449
63	0x3f85cd0d81b16a6c	0.010645013351838283
64	0x3f6fffee0ffdf81d	0.0039062165887449166
65	0xbf44fe210fecb236	-0.0006406461178350478
66	0x3f4e969bc22835f6	0.000933481267851809
67	0xbf5a8adfb11f456e	-0.0016200241557167943
68	0x3f66b66ca09e7d4f	0.002772533572126846
69	0x3f727ddb012e2c28	0.0045145563953026616
70	0x3f65ed16060daa96	0.0026765279912315905
71	0xbf84429f3b33dd43	-0.009892696375102822
72	0xbf601774ff751d82	-0.0019643101801737903
73	0xbf587294394245f9	-0.001492161512065214
74	0xbf60cd2020ded477	-0.0020509364612402675
75	0x3f644add79a6f72c	0.002477104729421328
76	0xbf691f080324cc80	-0.003066554688439249
77	0xbf714f8ba6adf2ad	-0.004226251136853304
78	0xbf6a6c9898ba7f1f	-0.003225610771394729
79	0x3f78174bb90c34be	0.005881591598847878
80	0xbf7d23668e8ca23d	-0.007113838780050727
81	0xbf513d378eb48c9a	-0.0010521929314755486
82	0x3f890aa80e9013c9	0.012227356857701726
83	0xbf77da5d636ac67a	-0.0058234832746834
84	0xbf5dc940e46a82e6	-0.0018180021012669744
85	0xbf75472f32de6178	-0.005194839830345514
86	0xbf5ce872625b635c	-0.001764404013945695
87	0x3f5227a87020d71d	0.0011080880071978113
88	0x3f72ad0b4f0f3ca3	0.004559559035398983
89	0xbf70c59c6b0ffba0	-0.004094706543582044
90	0x3f4fbe1d3faaf031	0.0009687083068779021
91	0xbf428b8ad3070c2f	-0.0005659511426120474
92	0x3f782215263a042e	0.005891878714124705
93	0x3f5a44521ccd7f0f	0.0016032029991137097
94	0x3f6676290a9f0ac0	0.0027418901053989087
95	0xbf76ff9e28540985	-0.005614869883404321
96	0xbf62b8e510365717	-0.002285430325808312
97	0xbf064e086963ac25	-4.254306002046013e-05
98	0x3f831146b67ac6e5	0.009310295528254861
99	0xbf2100e5c916ea2c	-0.00012972645758487064
100	0xbf8989541bb40e6b	-0.01246896466773891
101	0x3f4b299cc37d6f9b	0.0008289351890016118
102	0xbf2813d223f464da	-0.00018369617644323802
103	0xbf658719de3ee026	-0.0026278977620357745
104	0xbf2668f90d06a059	-0.00017097511455444156
105	0xbf607217135bda95	-0.0020075274177274263
106	0xbf7391b70497aa47	-0.004777636445832351
107	0x3f70dbbd98875772	0.004115810974743771
108	0xbf48d67c18df90c7	-0.0007579904502077677
109	0x3f3f32ef4c817e14	0.0004760584092817499
110	0xbf6e1342dad69052	-0.003671293807842737
111	0xbf646a17f83370a4	-0.0024919956355074647
112	0x3f4d38080ed87017	0.0008916892381338773
113	0xbf5e3502781124fd	-0.0018436931716386267
114	0xbf6be15f18c9e69b	-0.0034033639297462288
115	0x3f64076173d84626	0.0024449256295689
116	0xbf7631b58b474636	-0.005418500095815617
117	0xbf4ccb86d9546bb7	-0.000878754467211854
118	0xbf7073989d9ba4c1	-0.0040164910840100885
119	0x3f7e2da6fd0c5bd3	0.007367756174764889
120	0xbf90aea56f9b5c63	-0.016291222512191072
121	0xbf8d803fad9edd9e	-0.014404771314601213
122	0x3f247a70bd4be5c5	0.00015623689855441387
123	0x3f52d1882b766396	0.001148589113517872
124	0xbf77f4dcdbfd3db3	-0.005848753673333307
125	0x3f6fbb9bbd756dd9	0.00387363832457564
126	0x3f70357da2fec2c8	0.0039572627719485845
127	0xbf542177497754f5	-0.0012286820327649915

convs.2.weight f8 [128, 128]
0	0xbf839477f0212de7	-0.009560524955438644
1	0xbfc12807deb47190	-0.13403414129505764
2	0x3f8fee3fe2f27f0c	0.0155911437162213
3	0x3f8147dce9ede2d0	0.008437848938898013
4	0xbfbcb92d27732cee	-0.11220056737072401
5	0x3fb9f65cc5b35189	0.10141544176742036
6	0x3fb93e50a8d875b9	0.09860710260587426
7	0x3f930959457b2264	0.018590350023062988
8	0xbfc08ef531cddb21	-0.12936272556154285
9	0xbfacfc0a1fe4353a	-0.0566104091577508
10	0xbfbc042e69d3ba80	-0.10943880160969321
11	0x3f875560d84cdc23	0.011393314934691706
12	0x3fb57a20193a5ee7	0.08389473548811176
13	0x3fb6f0fc2294fb75	0.08961463779722385
14	0xbfbbe9f6c4c12fce	-0.10903875640468572
15	0xbfa590d44df32fb3	-0.04212058497941431
16	0xbfbb59deb292d405	-0.10684005603509668
17	0x3fc5012a304cf2c4	0.16409804685999607
18	0x3fc6d5d4a389a84a	0.1784005926631969
19	0xbfbd195eb65d8f8e	-0.11366836502344155
20	0xbfa2ce7fb7e21bd0	-0.03673171157520694
21	0x3f9e7663dcfb0d95	0.029748497355070198
22	0xbfc3a00c55f9bfe8	-0.15332178304697597
23	0xbfc03d731789744c	-0.12687529229416084
24	0xbfbfe89a792eb7c7	-0.12464299639279296
25	0x3fc3d1f0cf3616db	0.15484438054789149
26	0x3f60fcf8a46ce23c	0.002073751096215907
27	0xbfb72fc65a2f5a01	-0.09057273580342697
28	0x3f2727c31f98f145	0.00017666108014847463
29	0x3fc1b0b0c584131b	0.1382046665604769
30	0xbfc42af2db563df5	-0.15756068906601653
31	0x3fa1d73d3066405a	0.03484526840031839
32	0x3f9b8497baf5e051	0.026872988496933484
33	0xbfc5a4273c76d7c4	-0.16907206013064358
34	0x3fc7ce027e169cc9	0.1859744182267831
35	0xbfb39a8ae594781d	-0.07657688240985334
36	0x3fc3822f0cd9d3a3	0.1524103939770188
37	0x3f6192badd9725c5	0.0021451616018779173
38	0x3fa4369017344621	0.039478781540435166
39	0xbf9b4ddc813cfe13	-0.026664204967572113
40	0xbfc3d546f0fceaf3	-0.15494620100965725
41	0x3fbb26675d4c088f	0.10605474498518873
42	0xbfbb05a55ee97441	-0.10555490081010623
43	0x3fa53a5a66c11c4f	0.041460824054006744
44	0x3fc5419872885de9	0.1660643157235733
45	0xbf9d47d17bcfcb46	-0.028594277555338075
46	0x3fa30cb068bdbc2d	0.03720618513659022
47	0x3f9ef75f3f9be24c	0.03024052453744934
48	0xbfb0353d4fb10f5b	-0.06331237025829976
49	0x3fbaaa5227b2cec4	0.10416139096451632
50	0xbfbadcfa650da36b	-0.10493435828324287
51	0x3fb93b755d105a3f	0.09856351396624861
52	0xbfb6dd2dedc12e16	-0.08931242994838615
53	0x3f97456afe582576	0.0227257459392027
54	0xbfb46e4a93448b72	-0.07980791182903405
55	0x3fa76e77d91d67ab	0.0457646801502983
56	0x3fb799d5a221b42f	0.0921910782651174
57	0x3f9011cfb4bcc87e	0.01569294491418604
58	0xbf9bd61827d155d1	-0.027183892660408496
59	0x3fc8a7d73c09615c	0.19262209350086834
60	0x3fc558e818b86c12	0.1667757149415086
61	0xbfbb3eb09b008b82	-0.10642532142860087
62	0xbfb9a69cf5f51916	-0.10019856457538298
63	0xbfbf25ea2917869e	-0.12167228224964297
64	0x3fa86dccaa3e23d4	0.04771270349653603
65	0x3fbd83a64de89f9e	0.11529006387774962
66	0x3fa1982468b155e6	0.034363878040192294
67	0x3fa930e90ce72e5d	0.04920128138072919
68	0xbfbcaf3179369d73	-0.11204823693571146
69	0x3fa4509ee7a88c66	0.03967758729802355
70	0x3fbf719695bf4247	0.12282696872649367
71	0xbfae51925ff3ec69	-0.05921609326647898
72	0xbfbb6db6b778edbf	-0.10714284877115342
73	0xbf9b01451bfb1ace	-0.026372032006089445
74	0xbfc3b217e1c1a284	-0.153872475845919
75	0x3fbe82d14285a413	0.11918361543725124
76	0xbfc1be491c5b0357	-0.13861955532595502
77	0x3fc5f605adc78a96	0.17157050118756406
78	0xbfc637c08862684c	-0.17357641848940586
79	0x3fac47bce8356d85	0.055234816880978456
80	0xbfb550617a4a8f17	-0.0832577632486927
81	0xbfc1ec4a63c320fe	-0.14002351638033156
82	0xbf9b2235383b4fcf	-0.026497680241689466
83	0x3fbf287a4f8a08de	0.12171139184832522
84	0xbfb54ceaeacb4007	-0.08320492012285295
85	0x3fa5c23aa4c864bd	0.04249747525700218
86	0xbfba188eee5490d5	-0.1019372302876634
87	0x3fb121c2a46d0ed5	0.0669213916235621
88	0x3fc95d157a0bbdff	0.1981531949927415
89	0xbfa26677261d5e44	-0.03593799915568899
90	0x3fc015e9f304cade	0.12566875806950056
91	0x3fbac884aa017b4e	0.10462216520816733
92	0x3f8cac844bad7f1c	0.014000924643994099
93	0xbfb3d97656c2c8fd	-0.07753696077523738
94	0x3fc29ab25d8cb417	0.1453459698472279
95	0xbf957b1a45265f77	-0.020977411718916508
96	0xbfade8a852baae22	-0.05841566095235985
97	0xbfc49e2f60ae2fb9	-0.16107742520068571
98	0xbfc1cbe1fc994ccf	-0.13903450807501946
99	0x3fc78f2a37a03c91	0.1840565463648756
100	0xbfb92e790f62256e	-0.09836537004061593
101	0xbfb97f7a70b4376b	-0.09960141421853812
102	0x3fbf6585468aa301	0.12264283153730206
103	0xbfa0e2909db8d9fa	-0.03297855305975257
104	0xbfb4905e013112a7	-0.08032786873907104
105	0xbf9dda2e54cb991f	-0.02915260689305754
106	0xbf75449251582db2	-0.005192348054616701
107	0x3fa2b6ef8e6f6b7b	0.03655193914138174
108	0x3fab699bedf0da72	0.05354010848571002
109	0xbfadf78c61f7ff0e	-0.05852926917941491
110	0x3fbf5e22d212217a	0.12253015164072237
111	0xbfa287dd3174bd3c	-0.03619281033240404
112	0xbfa6ad8abe1d66d0	-0.044292770106677204
113	0x3f9942de5009c203	0.024669145236147837
114	0x3f4ffca74ac6ac54	0.0009761635642936508
115	0x3fb76dc28ea3ca44	0.09151855451981655
116	0x3f95a19236f977c7	0.021124157529236045
117	0xbfbb6bede1fbadca	-0.10711561934629468
118	0xbfa3b0c35a14b5ef	-0.03845797037716269
119	0x3fc39265dc4ee345	0.15290520913347386
120	0xbf93c9cff549c4ad	-0.019324540468407637
121	0x3fc131afc7971569	0.1343288158952121
122	0x3fc18dd6422c6fb2	0.137141020118063
123	0xbf9134c3a2e0972f	-0.01680284196495235
124	0xbf9fc433361089e1	-0.031021881270257515
125	0x3f7d2cae7a6d4ea2	0.007122689776980858
126	0xbf89252b203f8c44	-0.012277924462926866
127	0xbfa5b780c24a8691	-0.04241564151494715
128	0x3f91a461460d2cdd	0.01722862234173027
129	0xbfbca94282da571a	-0.11195769972468064
130	0x3fb7c70e359bce40	0.0928810959701929
131	0xbfb4c0996532d6a1	-0.0810638305727829
132	0xbfbf96234de6e851	-0.12338467265991084
133	0xbfc0e5bc07f5eeb5	-0.13201094044403808
134	0xbfb53de2d48527f2	-0.0829755562637329
135	0x3fa06c489f3a35e3	0.03207613891309415
136	0xbfc1fa64b40ff586	-0.14045389930826618
137	0x3fb1089e1ce5f27a	0.06653774457476827
138	0xbfbb276edb55d24d	-0.10607045035232794
139	0xbf8a9c277d7e7c43	-0.012993153111720562
140	0xbfaa254e932814f1	-0.05106587931008189
141	0xbfa5a90b356f01be	-0.04230532672181962
142	0x3fb6e98fcaff327c	0.0895013685796559
143	0xbfa6a3f47bff944c	-0.044219627510564935
144	0x3fafb730b43eb898	0.06194450569397353
145	0x3fc121140cf305ee	0.13382197029390802
146	0x3fb3594f2bdd2b11	0.07558150120636876
147	0x3fb07110f58b0d81	0.06422525400835434
148	0xbf8b3fb8ec766207	-0.013305134502659589
149	0xbfb89eb78de18de2	-0.09617182935613003
150	0xbfbd3033fdae9d01	-0.11401677077684626
151	0x3fc0f5f4ada1df80	0.13250597456112345
152	0xbfc0cd76fe632721	-0.13127028867011695
153	0xbfad4862c303514d	-0.05719288473634041
154	0x3fc1d882a3ba0015	0.13941987032376404
155	0xbf9b7d2b839926dd	-0.02684467306816073
156	0xbfc1080f7d627379	-0.13305848715108562
157	0x3fc3cc8ee2125edc	0.15468011892948297
158	0xbf9f225077892b05	-0.03040433625782681
159	0x3fb01270adab7940	0.06278137435899556
160	0x3fb17b73f3016696	0.06828999216795703
161	0xbfa44c61c1d79b92	-0.03964524737585075
162	0xbfc100229040c5bd	-0.13281662028889044
163	0xbf94fa4b6a8b8cce	-0.020486048105237846
164	0xbfbea1653bb9b167	-0.11965019901407957
165	0xbfaacea0d82dc578	-0.05235769881154345
166	0xbfc048763e2b71ed	-0.12721136127119284
167	0x3fb08ea2b8d9ecb9	0.0646764470383684
168	0xbfb8938891b42494	-0.09600118214815928
169	0x3fb041caba431105	0.06350390479480346
170	0x3fbaaf2e785a0642	0.10423555792115116
171	0x3fb808ee6a8fc264	0.09388628102875313
172	0x3fbd7e026e68803c	0.11520400233757838
173	0x3f978f35aa978432	0.023007238900280842
174	0x3fb82d89c7d88ed8	0.09444485787440315
175	0x3fc1bf14a39a4c29	0.13864381779112137
176	0x3fa346f787c9ecbe	0.037650809598710464
177	0x3fab9af2854b61f2	0.05391652943734816
178	0x3fba87df6cd3c193	0.10363575369752302
179	0xbf882bd0d8e0d674	-0.011802322023963564
180	0x3fc2472821099ddf	0.14279653180277216
181	0x3fa02cbc68431b95	0.031591308333694425
182	0xbfb56c81d3879c27	-0.08368693746852839
183	0xbfc019c0041c90e6	-0.12578582955132517
184	0x3fa939cfda20c83e	0.04926919496246328
185	0xbfbc418ec61f543e	-0.11037533127758167
186	0xbfc27b1143345b12	-0.14438071996183816
187	0x3fc03a9e4a3c643f	0.12678888916778594
188	0x3fbdcfe3dc393235	0.11645340086506269
189	0xbf9849cc2dd5fbae	-0.02371901540527304
190	0x3fb5b81afabd81f5	0.08484047528828127
191	0x3fac6d8378fd4111	0.05552302219314432
192	0x3fc0e6790202f14a	0.13203346822946066
193	0x3fa477db1a61d786	0.03997692772911336
194	0x3fa3c3338ae6d56d	0.038598643022320946
195	0xbfbc454aaeb0f5fe	-0.11043230786250288
196	0x3fa3d88594960c2d	0.038761305225328925
197	0xbfbbef82b9adc18f	-0.10912339242145762
198	0xbfc03d1e8b6bb231	-0.12686521346712845
199	0x3fb59f0fd7d73d99	0.08445834178495772
200	0xbfb56d2daa0c35ba	-0.08369717980914163
201	0x3fbf4ea79a56a5c2	0.12229392545727705
202	0xbf9c1f5e31dca1e0	-0.027463409226727964
203	0x3fb653d08c00d998	0.08721640985536394
204	0x3fc63490d016da69	0.17347917709931274
205	0x3f870bf9f650f955	0.011253311948277537
206	0x3fc12cc5cb7c1ca2	0.13417885242254096
207	0xbfbd6732ed6eb7b1	-0.11485594078723584
208	0x3fb61f71f56eddbc	0.08641731493013699
209	0x3fa66087bc86f83e	0.043705217135979954
210	0x3fbf2c5ae94105cc	0.1217705554454575
211	0x3fc1fa3cc5792484	0.14044913904425382
212	0xbf9fb9708eed59b0	-0.030980833743649405
213	0x3f9d34e86dc319d7	0.02852214021620533
214	0xbfb3f84c491542bb	-0.07800747665647638
215	0x3fb350b6a0ffae2b	0.07545033865579202
216	0xbf85819b8ce541d0	-0.010501113164225112
217	0xbfb38b24b6aaf684	-0.07634190997756646
218	0xbfb2f4c4d4cef1f2	-0.0740473765899379
219	0x3fa14056cb0945d8	0.033693992886252466
220	0x3fbd95e078c6595f	0.11556818913081689
221	0xbfc0c923b4b59807	-0.1311382896776083
222	0x3fb4cc0cb215645f	0.08123854968779785
223	0x3fc0603e15e9373a	0.12793708867905612
224	0xbfbfb9c736112cb9	-0.12392849988934786
225	0x3fb3445968036806	0.07526167668712
226	0x3f91f4f6a36ede37	0.017536023831523386
227	0x3fbb294d89bdab37	0.10609898197951116
228	0x3fc106d029c3d05f	0.13302042044927284
229	0x3fb3e0ade30a5562	0.07764708321550054
230	0xbfaf6d22a024113c	-0.06137951092572044
231	0xbfc30a5b7d06d004	-0.148753582046652
232	0x3fb70299ddd93a52	0.08988343874191543
233	0x3f9deae806e5b006	0.0292164091310241
234	0x3fb06237f6ddd293	0.06399869706167242
235	0x3fade35b9950db27	0.05837522741824435
236	0x3fb02c0a8b138f2a	0.06317201514644624
237	0x3fbff32cf2b0d6ce	0.12480431485240759
238	0xbfaa7d92a2bd4773	-0.05173929440083116
239	0x3fab4ac78baa8d38	0.05330489711675529
240	0x3fb2e8cecb3011f7	0.07386486492766396
241	0xbfaf3affe0ecadda	-0.06099700565968265
242	0x3faabe19c2a4226b	0.05223160267820933
243	0xbf7b48436b4eee0b	-0.006660712581772819
244	0xbfc38607de1c1ece	-0.15252779336173322
245	0x3fb6d48e45e08a21	0.08918084341034006
246	0xbfc00d8c7ede6b61	-0.12541347689406293
247	0x3fb1e8f4b77c8e9a	0.06996087531711695
248	0xbfaff08b43e7b253	-0.06238208011550186
249	0xbfaf7575f61c5a30	-0.06144302968293791
250	0x3fb63cf7a0a06cba	0.08686778708981793
251	0xbf769425d452af43	-0.005512378474275273
252	0xbfbaf6c5b80c8a8a	-0.10532794707664031
253	0x3fae6ee6cc2f1495	0.05943986170272201
254	0xbfb586fca66a80b7	-0.08409098685160897
255	0xbfc121123b3d9dd9	-0.1338217534314328
